p1-navigation/checkpoint/agent_dqn_checkpoint.pth (torch_old, 28391 bytes, 6 tensors)

fc1.weight f4 [64, 37]
0	0xbf1e64f6	-0.61872804
1	0xbeeaf925	-0.45893207
2	0xbe85fdb9	-0.26170138
3	0xbde45c90	-0.111504674
4	0xbf540b32	-0.8282958
5	0xbf7c9898	-0.9867034
6	0xbf3b1258	-0.73074865
7	0xbd9af436	-0.07566111
8	0xbe598758	-0.21243036
9	0x3c17d6d8	0.009267531
10	0xbed8bfb0	-0.42333746
11	0xbe44d883	-0.19223218
12	0xbf32887f	-0.69739527
13	0xbf098e15	-0.53732425
14	0xbd36e1c0	-0.044648886
15	0xbebf83f8	-0.37405372
16	0xbf37fcd0	-0.71870136
17	0x3c871fb9	0.016494619
18	0xbf1101b1	-0.56643206
19	0x3da8d704	0.08244136
20	0xbf522c5b	-0.8209893
21	0xbf1eac4b	-0.6198165
22	0x3e2a9dae	0.16661713
23	0xbe4a132a	-0.19733873
24	0xbe073102	-0.13202289
25	0xbf323a4d	-0.6962021
26	0xbe896787	-0.26836798
27	0xbe8a977d	-0.270687
28	0xbed767f8	-0.4207151
29	0xbdab06ab	-0.08350881
30	0xbcd144a9	-0.025545435
31	0xbf2d4d18	-0.6769576
32	0xbf404f48	-0.75120974
33	0x3ee0cf93	0.43908367
34	0x3eaaba02	0.33345038
35	0x3d10f192	0.03538663
36	0xbce77449	-0.028253691
37	0x3d570391	0.052493636
38	0x3e1f09c2	0.15531066
39	0xbd950d72	-0.07277955
40	0x3de8a67c	0.113598794
41	0x3dbcf4df	0.09226393
42	0xbc67fa6a	-0.014158824
43	0xbdb28832	-0.087173834
44	0x3d70f599	0.05882797
45	0xbe826e78	-0.25474906
46	0xbd9e65e6	-0.07734279
47	0x3cb5ce05	0.022192964
48	0x3e4595c6	0.19295415
49	0x3e77f66a	0.24215093
50	0x3d542ccf	0.051800545
51	0x3e805027	0.2506115
52	0x3d83878c	0.06422338
53	0x3e3c091d	0.18362851
54	0xbd5740cb	-0.052552026
55	0xbcb3b4bb	-0.021936765
56	0xbdc01b30	-0.093801856
57	0x3e8e9cb7	0.2785394
58	0xbe8c180f	-0.27362105
59	0x3ed40533	0.41410217
60	0xbd9da4fa	-0.076974824
61	0xbe0ab774	-0.13546544
62	0x3e1a3e71	0.15062882
63	0xbe901e37	-0.28148052
64	0x3e34d011	0.17657496
65	0xbe8351d0	-0.25648355
66	0x3e119f8f	0.14221023
67	0x3d7009d7	0.058603134
68	0xbdd70bc1	-0.10500289
69	0xbedcdf30	-0.4313903
70	0x3e977edc	0.29588974
71	0xbed3b519	-0.41349104
72	0xbdebf567	-0.11521416
73	0xbc216941	-0.009851755
74	0x3df1dc28	0.118095696
75	0x3e665337	0.22492681
76	0x3e54ac30	0.2076881
77	0x3e382d5b	0.17986052
78	0x3ea58ef2	0.3233562
79	0x3e2d7f3a	0.16943064
80	0x3e87e8e6	0.26544875
81	0xbe4c4cc7	-0.19951163
82	0x3c86ae16	0.016440433
83	0x3e2791a5	0.16364153
84	0x3df610c9	0.1201492
85	0xbaadbe73	-0.0013255611
86	0x3d74b45c	0.059742317
87	0x3eb22baa	0.34798938
88	0x3d830dd3	0.06399121
89	0x3d526aa0	0.051371217
90	0xbf888cb4	-1.0667939
91	0xbe56f8fd	-0.20993419
92	0x3e30c0e8	0.17261088
93	0xbe93f1ec	-0.2889551
94	0x3dcc8701	0.099866875
95	0x3e0f01ca	0.13965526
96	0x3d6c2e98	0.057661623
97	0x3d3194e5	0.043354888
98	0xbe51992f	-0.20468591
99	0x3e15c635	0.14626391
100	0x3e7a68f2	0.24454096
101	0xbe995b70	-0.29952574
102	0xbd32cfd3	-0.043655228
103	0xbf07581e	-0.5286883
104	0x3d892d34	0.06698075
105	0xbdc2ceeb	-0.09512123
106	0xbd84170a	-0.06449707
107	0x3ef6518e	0.48109096
108	0x3ece1277	0.40248463
109	0xbd44af68	-0.048018843
110	0xbd0d13d9	-0.034442756
111	0x3e136c74	0.1439684
112	0xbed01591	-0.40641454
113	0xbee27752	-0.4423166
114	0x3d0591a8	0.03260961
115	0xbea7aab9	-0.3274744
116	0xbef0809a	-0.46973115
117	0xbed612e5	-0.4181129
118	0xbf2a90e8	-0.6662736
119	0xbeebc361	-0.460475
120	0x3e93f0cf	0.2889466
121	0xbeb47871	-0.3524814
122	0x3c96bd49	0.018400805
123	0xbf30191a	-0.687883
124	0xbe7a2eec	-0.24431962
125	0xbe586bc3	-0.21134858
126	0x3d3691f2	0.044572778
127	0xbec49c6f	-0.384006
128	0x3e06e168	0.13171923
129	0xbef2e534	-0.47440493
130	0x3d69aa42	0.057047136
131	0xbed222bf	-0.41042134
132	0xbe8d37dd	-0.27581683
133	0xbf1891d8	-0.5959754
134	0x3d32ccca	0.043652333
135	0xbd4f0be8	-0.050548464
136	0xbf92050d	-1.1407791
137	0xbf29f15c	-0.6638391
138	0x3e886bcf	0.2664475
139	0xbf294e66	-0.6613525
140	0xbf071a99	-0.5277496
141	0xbf7818f0	-0.9691305
142	0xbee9857c	-0.45609653
143	0xbe1d6d0a	-0.15373626
144	0x3e8f5ff5	0.28002897
145	0xbf25e84a	-0.6480757
146	0xbea2ce5d	-0.31798068
147	0xbdf907f0	-0.12159717
148	0x3dec93c8	0.115516245
149	0x3e03e3f3	0.12879924
150	0x3d67c5ab	0.056584995
151	0x3c00c91a	0.007860446
152	0xbd930ade	-0.07179807
153	0x3e0e28ab	0.13882701
154	0x3e32e7a8	0.17471182
155	0x3e105dec	0.14098328
156	0x3e5f054d	0.21779366
157	0x3d607ae4	0.054804698
158	0x3f262503	0.64900225
159	0xbeea33f0	-0.4574275
160	0xbf704cd1	-0.9386721
161	0xbeb46623	-0.35234174
162	0xc02fd171	-2.7471583
163	0x3e211b55	0.15733083
164	0x3da79375	0.08182422
165	0x3e51fade	0.20505854
166	0x3de8746b	0.1135033
167	0xbe25226d	-0.16126414
168	0xbd1d21f4	-0.03836246
169	0x3cf9a112	0.030472312
170	0x3e10356f	0.14082883
171	0x3db3a939	0.08772511
172	0x3d2b15ba	0.041768767
173	0x3e37cda4	0.1794954
174	0x3e2c96a5	0.16854341
175	0x3ea39323	0.31948194
176	0x3e2d211f	0.16907166
177	0xbca588bc	-0.020206802
178	0x3d93f60e	0.072246656
179	0x3e5098fa	0.20370856
180	0x3e24aa54	0.160806
181	0x3e706ebd	0.23479743
182	0x3df8e025	0.12152127
183	0x3d1ceb0d	0.0383101
184	0xbbaa5ade	-0.0051988205
185	0x3e6773b7	0.22602735
186	0x3e50df34	0.20397645
187	0x3e4b764d	0.19869347
188	0x3e246a3f	0.16056155
189	0xbca91fcd	-0.020645047
190	0x3e8308f0	0.25592756
191	0x3ea084cd	0.3135132
192	0x3ea2d0d0	0.31799936
193	0x3e480118	0.19531667
194	0xbcbcf995	-0.023068229
195	0x3e523c30	0.20530772
196	0x3e0b0fef	0.13580297
197	0x3e397e28	0.18114531
198	0x3e41079b	0.18850558
199	0x3cedba76	0.029019576
200	0x3e6df9ae	0.23239776
201	0x3e2a28a6	0.16617069
202	0x3e8da09c	0.27661598
203	0x3e60e6d5	0.21963055
204	0xbd09e647	-0.033666875
205	0x3e2ef560	0.1708579
206	0x3e1b5483	0.15168957
207	0x3e44aef8	0.1920737
208	0x3e3b7e95	0.18310006
209	0x3be17401	0.006880284
210	0x3eda8c61	0.42685226
211	0xbf5fe8f0	-0.8746481
212	0xbf8ff87b	-1.1247705
213	0xbe9c300f	-0.30505416
214	0xc03059e0	-2.7554855
215	0x3e68a007	0.22717296
216	0x3deb54f8	0.11490816
217	0x3e056974	0.13028508
218	0x3e4eb851	0.20187499
219	0x3d9457ca	0.07243307
220	0x3c41f542	0.011838259
221	0xbb6047d9	-0.0034222512
222	0xbe31fb6f	-0.1738107
223	0xbdf01d74	-0.11724368
224	0x3e34b7be	0.17648217
225	0x3ed5a06b	0.41723952
226	0x3cbc521d	0.022988373
227	0xbf112cdb	-0.5670907
228	0x3e8d2b77	0.27572224
229	0xbd8fecd9	-0.07027597
230	0x3de5b850	0.112167954
231	0xbd4375a6	-0.04771962
232	0x3de192d8	0.11014336
233	0x3e3f242b	0.1866614
234	0xbe7aae94	-0.24480659
235	0x3d3e122c	0.04640405
236	0xbe787845	-0.24264629
237	0x3df0650a	0.11738022
238	0xbec71ca2	-0.38889033
239	0x3e87abed	0.26498356
240	0xbd914b9c	-0.070944995
241	0xbe5ac742	-0.21365073
242	0xbe149356	-0.14509329
243	0x3e57e3ba	0.21082965
244	0xbf220a80	-0.6329727
245	0x3e80f152	0.25184113
246	0xbec217d4	-0.37908804
247	0xbdbea0e7	-0.093080334
248	0x3ea1c0d3	0.31592426
249	0xbddf4ce1	-0.10903335
250	0x3e74e537	0.23915564
251	0xbebb6643	-0.36601457
252	0xbeb47b20	-0.35250187
253	0x3e885cae	0.2663321
254	0xbe9f2f6e	-0.31090873
255	0x3eb66462	0.3562346

fc1.bias f4 [64]
0	0xbcf230d1	-0.029564293
1	0xbea40814	-0.32037413
2	0xbe8bb454	-0.27286017
3	0x3d80641c	0.06269094
4	0xbdbc9df5	-0.092098154
5	0xbe93a372	-0.28835636
6	0xbe13cf36	-0.14434513
7	0xbe2aa87a	-0.16665831
8	0xbea0e96d	-0.3142809
9	0xbdbb0a71	-0.09132851
10	0x3eb68c61	0.35653976
11	0xbdd5237e	-0.1040716
12	0xbe3fa2d4	-0.18714458
13	0xbe6c74ce	-0.23091432
14	0xbdadf46f	-0.08493888
15	0xbde43977	-0.11143773
16	0xbd836978	-0.06416601
17	0xbd21fc48	-0.039547235
18	0xbeaf046a	-0.34183055
19	0xbda0e0b7	-0.07855361
20	0xbe46bbd9	-0.19407596
21	0xbe927276	-0.28602952
22	0xbda3c979	-0.07997412
23	0x3cf589cc	0.029972933
24	0xbd189f6d	-0.037261415
25	0xbe9dfac4	-0.3085538
26	0x3ef46e23	0.47740278
27	0x3dcc872d	0.0998672
28	0xbe8d79eb	-0.2763208
29	0xbedd40d0	-0.4321351
30	0xbce4d2b9	-0.027932512
31	0xbe5ffc09	-0.21873488
32	0xbc24d4e0	-0.010060519
33	0x3e9ba2a3	0.3039752
34	0x3e3e3e1a	0.18578377
35	0x3d86f98c	0.06590566
36	0xbe0f9705	-0.14022453
37	0xbc41861e	-0.011811761
38	0x3e8865fb	0.26640305
39	0x3d18ed77	0.03733584
40	0xbd319f53	-0.043364834
41	0x3d68b4f7	0.056813207
42	0xbe92e9c5	-0.28693977
43	0xbbaff6b8	-0.0053699873
44	0x3dc6c57d	0.09705637
45	0x3e5d1ea2	0.21593717
46	0xbdf51082	-0.11966039
47	0x3ed4d41a	0.4156807
48	0x3e8528ff	0.2600784
49	0xbeb10b44	-0.34578907
50	0x3dbceaec	0.09224495
51	0xbe8f117f	-0.27943036
52	0xbdde947e	-0.108681664
53	0xbddc9912	-0.10771383
54	0xbe969123	-0.29407606
55	0xbe8463f9	-0.25857523
56	0xbe747d74	-0.23875982
57	0xbd848959	-0.064715095
58	0x3df0a701	0.117506035
59	0x3d0431cf	0.032274064
60	0xbdcbd6ca	-0.09953077
61	0x3cd6a350	0.02620092
62	0x3e3ed3ee	0.18635532
63	0x3e098acb	0.13431852

fc2.weight f4 [64, 64]
0	0x3d9be5a4	0.0761216
1	0x3e77f2db	0.24213736
2	0x3e7b40f1	0.24536492
3	0xbe49bb29	-0.19700302
4	0xbe4117e6	-0.18856773
5	0xbea62e83	-0.3245736
6	0x3cd37146	0.025810849
7	0x3ebdcdbc	0.37071025
8	0xbee4bbe2	-0.44674593
9	0x3e02c4e0	0.12770414
10	0x3c97b558	0.018519089
11	0x3e9e4e2e	0.3091902
12	0x3ee2d435	0.44302526
13	0x3c2f1b76	0.0106877
14	0xbdbd3b6e	-0.09239851
15	0x3e9ac935	0.30231634
16	0x3d40e02a	0.04708878
17	0xbcdb2811	-0.026752504
18	0xbf0583cf	-0.5215425
19	0x3be92f95	0.007116268
20	0x3e35a586	0.17738923
21	0x3d8e6eb2	0.06954707
22	0xbe59e990	-0.21280503
23	0x3dc65ef6	0.09686081
24	0x3e6e5852	0.23275879
25	0x3e1cfae7	0.15330087
26	0x3f090f98	0.5353942
27	0xbcd33d62	-0.025786106
28	0xbe826eff	-0.25475308
29	0x3ccd150e	0.025034454
30	0x3d368f69	0.04457036
31	0xbd53cbac	-0.05170791
32	0x3ead5d67	0.33860323
33	0xbd1e3b53	-0.038630795
34	0x3dd4303a	0.10360761
35	0xbda7e2c1	-0.08197547
36	0xbe896906	-0.2683794
37	0x3e9de939	0.30841997
38	0xbea99487	-0.3312113
39	0x3eafaa53	0.34309635
40	0x3d94ddd2	0.07268871
41	0x3e368fc6	0.17828283
42	0x3d26f8fb	0.04076479
43	0x3dbd0969	0.092303105
44	0xbd72cbfb	-0.059276562
45	0xbe998389	-0.29983166
46	0x3dca210a	0.09869583
47	0xbeab5145	-0.3346044
48	0xbe74eacb	-0.23917691
49	0x3d9653fd	0.07340238
50	0x3e0dc979	0.13846387
51	0x3ea0b7da	0.31390268
52	0x3ecddd11	0.40207723
53	0xbe6c866c	-0.23098153
54	0x3e83771e	0.25676817
55	0x3f1396b5	0.57651836
56	0x3ec320da	0.38111
57	0x3ed75ef8	0.42064643
58	0x3e710b3f	0.23539446
59	0x3e9ce147	0.30640623
60	0x3e2d04e1	0.16896392
61	0x3e9f28e9	0.310859
62	0xbe0d8548	-0.13820374
63	0xbd3ed9e0	-0.0465945
64	0xbe4b0c5e	-0.19828936
65	0xbf4c1d1d	-0.79731923
66	0xbfc90c5b	-1.5706896
67	0xbe9269d9	-0.2859638
68	0xbf961508	-1.1725168
69	0xc0030f75	-2.0478184
70	0x3e0c7e88	0.13720143
71	0xbfd7e18e	-1.6865709
72	0xbffe7703	-1.988007
73	0xbe4fc3c8	-0.20289528
74	0x3dad8606	0.084728286
75	0xbf6a6f42	-0.91576016
76	0xbf2380d9	-0.6386848
77	0xbfa1dc97	-1.2645444
78	0xbee26ceb	-0.44223723
79	0x3d0e9e3e	0.03481888
80	0xbf219fe9	-0.6313463
81	0x3e453979	0.19260205
82	0xbfe266c6	-1.7687614
83	0xbfb515aa	-1.4147236
84	0xbebd8ee4	-0.3702308
85	0xbc2fe29f	-0.010735183
86	0x3df05579	0.117350526
87	0xbf205c85	-0.62641174
88	0xbfe4d358	-1.7876997
89	0xbfab5fe7	-1.3388642
90	0x3db48b30	0.088156104
91	0xbe071c47	-0.1319438
92	0xbfa55906	-1.2917793
93	0xbf9e25a5	-1.2355238
94	0xbf022da1	-0.50850874
95	0xbfa1b5bb	-1.2633585
96	0xbe7cc424	-0.24684197
97	0xbdc38753	-0.095472954
98	0xbe34388e	-0.17599699
99	0x3d3a5f8e	0.045501284
100	0xc00bf948	-2.18709
101	0xbe0062e5	-0.12537725
102	0xbf7bdd36	-0.98384416
103	0x3e4bd893	0.19906835
104	0xbedeba17	-0.4350135
105	0xbd78db84	-0.06075622
106	0xbf1336d4	-0.57505536
107	0x3e72ce25	0.2371145
108	0xbfbad3c4	-1.4595876
109	0x3e95ab4c	0.29232252
110	0xbde3de91	-0.111264355
111	0xbb1d21f9	-0.0023976548
112	0xbe232a83	-0.15934186
113	0xbf7045a2	-0.9385625
114	0xbef92adc	-0.48665512
115	0xbed6b8f6	-0.4193799
116	0xbe820652	-0.25395447
117	0xbfc17034	-1.5112367
118	0xbf63b7b7	-0.889522
119	0xbf13beff	-0.5771331
120	0xbf418369	-0.7559114
121	0xbd7472be	-0.05967974
122	0x3cfff5f1	0.031245204
123	0xbf107132	-0.5642272
124	0xbf6b7251	-0.9197131
125	0xbf8970af	-1.0737513
126	0xbc1f0251	-0.009705142
127	0x3e1058b8	0.14096344
128	0x3e4fcbd7	0.20292602
129	0xbe8023ab	-0.25027213
130	0x3de1c5f7	0.11024087
131	0x3e8e0740	0.27739906
132	0x3c6b4f7f	0.014362215
133	0x3f2cf11c	0.67555404
134	0x3f02dbf9	0.511169
135	0xbe09ff09	-0.13476194
136	0xbe2b2096	-0.1671165
137	0x3eecbad1	0.4623628
138	0xbd1bf7c0	-0.03807807
139	0xbefc7fbe	-0.4931621
140	0xbdafffda	-0.08593722
141	0x3d99e788	0.07514864
142	0x3c2b61eb	0.010460357
143	0x3d88f5e1	0.06687523
144	0x3ee5e652	0.44902283
145	0x3d1d53c6	0.03840997
146	0xbe1d340b	-0.15351884
147	0xbe19a055	-0.15002568
148	0x3e9c2b4d	0.30501786
149	0x3db28eb4	0.08718625
150	0xbe8be2dc	-0.27321517
151	0xbbd6d237	-0.0065558213
152	0x3ea967bf	0.33086964
153	0xbe5619cf	-0.20908283
154	0x3e8f03b9	0.27932528
155	0xbdefa01f	-0.117004625
156	0x3f2ada0d	0.6673897
157	0xbe125518	-0.14290273
158	0x3e39c8e8	0.18143046
159	0xbd7437de	-0.05962359
160	0x3f1e3f5a	0.61815417
161	0xbd4ed506	-0.050496124
162	0x3d23d0ed	0.03999417
163	0xbcaf0ed3	-0.021369373
164	0xbb310dee	-0.002701636
165	0x3e971665	0.29509273
166	0xbe47b842	-0.19503883
167	0xbdc099b6	-0.09404318
168	0xbea36576	-0.31913346
169	0xbed13e3b	-0.4086779
170	0xbf2a386b	-0.66492337
171	0x3e18f618	0.14937627
172	0x3eb28a9b	0.34871373
173	0xbebb50f1	-0.3658519
174	0x3db14611	0.08655942
175	0x3eea6c54	0.45785773
176	0xbe4774b0	-0.19478106
177	0x3e510279	0.204111
178	0x3ed0db53	0.4079233
179	0x3db4d04c	0.08828792
180	0x3c714d59	0.014727914
181	0x3e15153b	0.1455888
182	0xbba77be4	-0.0051112045
183	0x3d73578b	0.05940966
184	0xbf3b47cf	-0.73156446
185	0xbe80639f	-0.25076005
186	0xbe0a6e05	-0.13518532
187	0x3bea48c9	0.00714979
188	0xbe556c55	-0.20842107
189	0x3e9a42ac	0.30128992
190	0xbe9fe53e	-0.31229585
191	0x3f09afcc	0.5378387
192	0x3e070eed	0.13189287
193	0xbdb9973d	-0.090620495
194	0xbdca3baf	-0.09874665
195	0x3e5a3e73	0.21312885
196	0x3cc5a117	0.024124665
197	0x3edd0e11	0.43174794
198	0xbe8700ad	-0.26367703
199	0xbf16e1be	-0.58938205
200	0xbda443f6	-0.08020775
201	0x3edbeaee	0.42952675
202	0xbda5be31	-0.08092917
203	0x3e9ca54a	0.30594856
204	0x3d85d735	0.06535188
205	0xbd15f111	-0.036606852
206	0xbe07f856	-0.13278326
207	0x3da071cd	0.07834206
208	0x3d046543	0.032323133
209	0xbdc37c24	-0.09545162
210	0xbd0c3f17	-0.034239855
211	0xbe22022f	-0.15821145
212	0x3cec55d8	0.028849527
213	0x3e3765d5	0.1790994
214	0x3e1325de	0.14369914
215	0xbdd1af2c	-0.102384895
216	0x3ec398d6	0.38202542
217	0xbca406e5	-0.020022819
218	0x3dd83382	0.10556699
219	0x3d553e9e	0.05206167
220	0x3f07833e	0.52934635
221	0x3dbedbcd	0.093192674
222	0xbeb2b24d	-0.34901658
223	0x3d6e95d7	0.058248367
224	0xbe95869e	-0.29204267
225	0x3cb7a32b	0.022416672
226	0x3e4ab069	0.19793858
227	0xbccfb3f5	-0.025354365
228	0xbc6fd028	-0.014637031
229	0xbe88130c	-0.26577032
230	0xbe0e818d	-0.13916607
231	0xbc1ecde4	-0.009692643
232	0x3d37d200	0.044878006
233	0x3dab35a4	0.083598405
234	0xbf5123fc	-0.8169553
235	0x3d856a32	0.06514396
236	0x3e839324	0.25698197
237	0x3dc3c8e5	0.09559802
238	0x3e103605	0.14083107
239	0x3e9fd50a	0.31217223
240	0xbdee4a45	-0.116352595
241	0xbd44baa6	-0.048029564
242	0x3e6f3600	0.23360443
243	0xbd0d7931	-0.034539405
244	0x3edc9321	0.43081
245	0x3e70427f	0.23462866
246	0xbe2b04f7	-0.16701113
247	0x3f27f600	0.6560974
248	0xbdea38ae	-0.11436592
249	0x3aae8e3d	0.0013317537
250	0xbf421ed1	-0.7582827
251	0x3ed6ab30	0.4192748
252	0x3eeb9a66	0.46016234
253	0xbf2283de	-0.63482463
254	0x3d248ff6	0.040176354
255	0x3d8a9190	0.06766045

fc2.bias f4 [64]
0	0x3dac9f8f	0.08428871
1	0xbe3c471b	-0.183865
2	0xbdf34594	-0.11878505
3	0x3dd98882	0.1062174
4	0x3e9055d4	0.28190482
5	0x399ee71f	0.00030308307
6	0xbd385c7e	-0.045010082
7	0xbd1bcd9a	-0.038037874
8	0x3f1990b8	0.5998645
9	0xbde1a121	-0.11017061
10	0x3ea19005	0.3155519
11	0xbd6aa726	-0.05728831
12	0x3db2da45	0.08733038
13	0x3d6503bf	0.055911776
14	0x3dbd3fce	0.092406854
15	0x3f14dad7	0.58146423
16	0xbe023aed	-0.12717791
17	0x3cbaa197	0.02278213
18	0x3ef05f1f	0.46947572
19	0x3d5e6a91	0.05430085
20	0x3f318915	0.69349796
21	0x3f157a4e	0.5838975
22	0x3eee1cef	0.4650645
23	0x3e5b8c5b	0.2144026
24	0x3cd02a2a	0.02541073
25	0x3f1810da	0.59400713
26	0x3e26dbf1	0.16294838
27	0x3dd6f635	0.10496179
28	0x3d50d1bf	0.05098128
29	0x3cf2dcc9	0.029646294
30	0x3de08076	0.10962002
31	0x3eb40a68	0.3516419
32	0x3f258779	0.6465984
33	0x3d9f6734	0.07783356
34	0x3f32ad1e	0.69795406
35	0x3cb3f4e5	0.02196736
36	0x3ddfedda	0.109340385
37	0x3e0de1d3	0.13855676
38	0x3e60d98b	0.21957986
39	0x3dbd3f0d	0.092405416
40	0xbd7b66e7	-0.061377432
41	0x3f1684de	0.5879649
42	0xbea27b12	-0.3173452
43	0x3f0eff89	0.55858666
44	0x3d624077	0.05523726
45	0xbc7a0b36	-0.015261462
46	0xbd2b8c54	-0.041881874
47	0xbcbce66c	-0.023059092
48	0x3ad22596	0.001603293
49	0x3d7ee41c	0.06222926
50	0x3df86fc8	0.121306956
51	0x3e00324e	0.1251919
52	0x3ecfca16	0.40583867
53	0x3e225522	0.15852788
54	0x3d6192fa	0.05507181
55	0xbe1041e2	-0.14087632
56	0x3f37b217	0.7175612
57	0x3ca09c06	0.019605648
58	0xbdc40448	-0.09571129
59	0x3ea10b7a	0.31454068
60	0x3d065f11	0.032805506
61	0x3f1582e5	0.58402854
62	0xbb8fbb51	-0.0043863435
63	0x3e0b4413	0.13600187

out.weight f4 [4, 64]
0	0x3dce5723	0.10075214
1	0xbf76adbc	-0.9635885
2	0x3e5bb14a	0.21454349
3	0x3e796d06	0.24357995
4	0x3e3e2d94	0.18572074
5	0x3f00476a	0.5010897
6	0x3d998014	0.07495132
7	0xbee56d7b	-0.4481009
8	0x3e4d313e	0.20038316
9	0xbe26958f	-0.1626799
10	0x3de24f83	0.11050322
11	0xbf9eb920	-1.2400246
12	0x3e12721c	0.14301342
13	0x3cdaed52	0.026724491
14	0x3dec9858	0.11552495
15	0x3e56d228	0.20978606
16	0xbe442d9b	-0.19158022
17	0xbd6f9434	-0.058490947
18	0x3e17285a	0.14761487
19	0xbdbc5f90	-0.091979146
20	0x3e69e5ba	0.2284154
21	0x3e05b899	0.130587
22	0x3e201057	0.15631233
23	0x3d739837	0.059471335
24	0x3d8fe00c	0.070251554
25	0x3e46d77c	0.19418138
26	0xbf031374	-0.5120156
27	0x3e86bdf7	0.26316807
28	0xbf2e1358	-0.67998266
29	0xbec63b89	-0.38717297
30	0x3e5c91c4	0.2153998
31	0x3eb37eff	0.35057828
32	0x3e26c252	0.16285065
33	0x3dea4bc0	0.114402294
34	0x3e608f13	0.21929578
35	0x3dd689fd	0.10475538
36	0xbf189ef4	-0.59617543
37	0x3d84f4fc	0.064920396
38	0xbe74ad3b	-0.23894207
39	0x3ea6129d	0.32436076
40	0xbf233840	-0.63757706
41	0x3e16a9ac	0.14713162
42	0xbe35db05	-0.1775933
43	0x3dc0e767	0.094191365
44	0x3e1fdf26	0.15612468
45	0x3e8db33e	0.27675813
46	0x3d92a0c7	0.07159572
47	0xbeaa3671	-0.3324466
48	0xbe64626c	-0.2230317
49	0x3dca3db6	0.09875052
50	0x3c22d155	0.009937604
51	0x3e3d41a5	0.18482073
52	0x3d394ff2	0.045242257
53	0x3e3471a6	0.17621478
54	0xbda26112	-0.07928671
55	0xbd49c16c	-0.049256727
56	0x3e5bb9a8	0.21457541
57	0x3e551e27	0.20812283
58	0x3e15abee	0.14616367
59	0x3e95a0c5	0.2922422
60	0x3e39df7e	0.18151662
61	0x3e604a70	0.21903396
62	0x3e7e50fc	0.2483558
63	0x3da1a137	0.078920774
64	0x3e47bb4d	0.19505043
65	0x3db04851	0.08607543
66	0x3e7b6a41	0.24552251
67	0x3e0f9a60	0.14023733
68	0x3e6ec6ef	0.23318075
69	0x3f02d556	0.51106775
70	0xbcea60a6	-0.028610539
71	0xbcbbe6af	-0.022937147
72	0x3e8aaf99	0.27087095
73	0x3ca747e8	0.02042003
74	0x3d607ab5	0.054804523
75	0xbf20a517	-0.6275191
76	0x3e223148	0.15839112
77	0xbcbb7612	-0.022883449
78	0x3a9fae56	0.0012182693
79	0x3e5cefa3	0.21575789
80	0x3cd1533a	0.02555238
81	0xbcce53f0	-0.025186509
82	0x3e5e9cb3	0.21739464
83	0xbe38d47b	-0.18049805
84	0x3ddf8e07	0.109157614
85	0x3e6a32d7	0.22870956
86	0x3dfc0725	0.1230605
87	0x3dfdf93f	0.124010555
88	0x3d1fdb5f	0.039027568
89	0x3e2caaec	0.16862077
90	0x3e938f9f	0.28820512
91	0x3e51aaa2	0.20475248
92	0xbda89cf1	-0.08233059
93	0xbda26861	-0.07930065
94	0x3e29e2aa	0.16590372
95	0x3eba69c4	0.36408818
96	0x3e2c89dd	0.16849466
97	0x3ce8adbe	0.02840316
98	0x3e614206	0.21997842
99	0x3e2d7365	0.16938551
100	0x3dad635f	0.08466219
101	0x3e07c3d9	0.13258304
102	0xbce52308	-0.027970806
103	0x3e9f63e0	0.31130886
104	0xbcc130ba	-0.023582805
105	0x3e143e33	0.14476852
106	0xbe2ae221	-0.16687824
107	0x3daac620	0.083385706
108	0x3e1423e8	0.14466822
109	0x3e8a6e5a	0.27037317
110	0xbd105502	-0.03523732
111	0x3e04dee2	0.12975648
112	0xbe138acd	-0.14408417
113	0x3def373c	0.11680457
114	0x3dda3fd5	0.10656706
115	0x3c7389a5	0.01486436
116	0x3ea5cf53	0.32384738
117	0x3e46008b	0.19336145
118	0x3da33482	0.079689994
119	0xbd54963a	-0.05190108
120	0x3e3ebbf8	0.18626392
121	0x3dcd5c20	0.10027337
122	0x3e556756	0.20840201
123	0x3e5caabf	0.2154951
124	0x3db7a712	0.08967413
125	0x3e6059de	0.21909282
126	0x3e9ffa4c	0.3124565
127	0xbdc27bf8	-0.094963014
128	0x3d13aa65	0.036051173
129	0xbb9bc102	-0.004753233
130	0x3e0ffda6	0.14061603
131	0xbd3a61b7	-0.045503344
132	0x3e88e766	0.26739043
133	0x3efc9da3	0.49339017
134	0x3ba8d976	0.0051528765
135	0xbf328cc3	-0.69746035
136	0x3e71cb15	0.23612626
137	0x3d1cde32	0.03829784
138	0x3dd7a788	0.10530001
139	0x3dc2790c	0.09495744
140	0x3e4878d9	0.1957735
141	0xbefc3ec8	-0.49266648
142	0xbe244f0e	-0.16045782
143	0x3d447d6f	0.047971185
144	0x3dfc4e4f	0.12319624
145	0xbd458ce4	-0.048230067
146	0x3dd65250	0.104649186
147	0xbdbfc99a	-0.09364624
148	0x3e7a645b	0.24452345
149	0x3e7c3ccd	0.24632569
150	0x3d98f467	0.07468491
151	0x3d1e4095	0.03863581
152	0x3d9b0708	0.075697005
153	0x3e59c461	0.21266319
154	0x3e2caf52	0.16863754
155	0xbd56efab	-0.05247466
156	0x3dfc4f09	0.12319762
157	0x3ec62f7b	0.387081
158	0x3e2c06a9	0.16799416
159	0x3ea5b84e	0.32367176
160	0x3e759ca3	0.23985533
161	0xbeaf0e47	-0.3419058
162	0x3e4fe32d	0.20301504
163	0xbe4362ca	-0.19080654
164	0x3e9dba42	0.30806166
165	0x3e79e300	0.24403
166	0x3e712f14	0.23553115
167	0x3e8eb934	0.27875674
168	0xbe4ea95e	-0.20181796
169	0x3e4019de	0.18759868
170	0xbe863c0b	-0.26217684
171	0x3e77b359	0.2418951
172	0x3ca26408	0.01982309
173	0x3c9ca966	0.019123744
174	0xbdef4f96	-0.11685102
175	0x3e9d0379	0.30666712
176	0xbe967e99	-0.2939346
177	0x3e99a66a	0.30009776
178	0x3e0aef32	0.13567808
179	0x3e852f4a	0.2601264
180	0x3de6829a	0.11255379
181	0xbed875b8	-0.42277312
182	0x3ed5e1c8	0.4177382
183	0xbda29df8	-0.079402864
184	0x3e5de90d	0.21670933
185	0x3ee15829	0.44012573
186	0x3eb0c12a	0.34522372
187	0x3e0d53fa	0.13801566
188	0x3e762e03	0.2404099
189	0x3e247235	0.16059192
190	0x3f04f758	0.51939917
191	0xbf196553	-0.59920233
192	0x3ee288b4	0.4424492
193	0x3ecc0e69	0.39854744
194	0x3e8143d0	0.2524705
195	0x3e2fbc03	0.17161565
196	0x3d99504f	0.07486021
197	0x3c844dbe	0.016150352
198	0xbdf6bb73	-0.12047472
199	0xbed1edb6	-0.41001672
200	0x3dadd37d	0.08487604
201	0xbe27f0f8	-0.16400516
202	0x3ceff7e1	0.029293003
203	0xbe54f87a	-0.20797911
204	0x3e181030	0.14849925
205	0x3db0b139	0.086275525
206	0x3da8e6a3	0.082471155
207	0x3e4f69ad	0.20255156
208	0x3e9ccef5	0.30626646
209	0x3c75d0a3	0.015003356
210	0x3e5ff98c	0.21872538
211	0xbe580df1	-0.21099068
212	0x3e1ca672	0.15297869
213	0x3e23cd5e	0.1599631
214	0x3e04a67b	0.12954132
215	0x3ea78927	0.32721826
216	0xbf25e4b3	-0.6480209
217	0x3e558529	0.20851578
218	0x3e839ec5	0.2570707
219	0x3e6cfefa	0.23144141
220	0x3ef75302	0.48305517
221	0x3d755b68	0.059901625
222	0x3e85ad79	0.26108912
223	0x3db4249d	0.08796046
224	0x3e599921	0.2124982
225	0xbe0e39f1	-0.1388929
226	0x3e54f54e	0.20796701
227	0xbe9c9ed7	-0.30589935
228	0x3ea34aab	0.31892905
229	0xbdaf46e7	-0.085584454
230	0x3cd350fe	0.025795456
231	0x3df42573	0.11921205
232	0xbe131787	-0.14364444
233	0x3e80abf3	0.25131187
234	0xbe37e13f	-0.17957018
235	0x3e84288f	0.25812194
236	0x3e49e495	0.19716103
237	0x3d408b0e	0.047007613
238	0xbd27699e	-0.04087221
239	0x3ec9510a	0.3931964
240	0xbe3ab5fa	-0.18233481
241	0x3e3669f7	0.1781386
242	0x3e1bbb1f	0.152081
243	0x3eb5c71c	0.3550347
244	0x3d897ff9	0.06713862
245	0x3e62baaa	0.22141519
246	0x3e9ec5b4	0.3101021
247	0xbdaa6d8b	-0.08321675
248	0x3e469fc6	0.19396886
249	0xbe54d4de	-0.20784327
250	0x3e33f337	0.17573248
251	0x3db1b841	0.08677722
252	0xbdbb9773	-0.09159746
253	0x3e3f5f95	0.18688805
254	0xbd87776e	-0.06614576
255	0x3e848c17	0.2588813

out.bias f4 [4]
0	0x3f12a233	0.57278746
1	0x3ebdb85e	0.37054724
2	0x3ef830cf	0.48474738
3	0x3ef717d0	0.48260355
