p1-navigation/checkpoint/agent_p_ddqn_checkpoint.pth (torch_old, 28391 bytes, 6 tensors)

fc1.weight f4 [64, 37]
-0.028764907 -0.052817203 -0.11965579 0.024883386 0.17039737 -0.08105928 -0.058193725 -0.25284573
0.097938396 0.40694475 -0.063154355 -0.05767444 -0.15005113 -0.018035818 0.025922082 0.17024648
-0.08374423 -0.060459822 0.046715457 0.15544257 -0.017363826 -0.07241499 -0.05383451 -0.11455768
0.10320457 -0.042284653 -0.111144245 -0.11503128 -0.03222261 0.26366368 0.037421886 -0.08404344
-0.12650569 -0.035108943 0.30287975 -0.01339403 0.07600625 0.0023586717 0.042407718 0.004917064
-0.0004926297 -0.021884996 0.19715032 -0.045204442 -0.5978238 -0.3657906 -0.707505 0.10881434
0.08968719 0.07726958 0.0543254 -0.025635177 0.053597204 0.045514807 0.037243553 0.07648937
0.0127022695 0.17148702 0.12722653 0.121263824 0.088213824 -0.08313272 0.15469743 -0.05349858
-0.00013141717 -0.010209036 -0.065452814 0.14174424 0.03888621 0.030039119 -0.06359707 -0.14043823
-0.008228001 0.004934121 0.06545426 0.0727897 0.085686125 0.17755383 0.08696696 -0.15552008
0.1529766 0.11232094 0.03202186 -0.15925413 0.03640033 0.059830666 0.03868526 0.044474766
0.028711934 -0.07154661 -0.1171055 0.10343488 0.029507603 0.31918663 -0.08965915 0.10072239
0.011369961 0.11213963 0.30500308 -0.039554402 0.06371296 0.037490554 0.078156814 0.09763678
0.00027871868 -0.0041042664 0.04478246 0.051171523 0.010589657 0.0061049927 -0.02250071 -0.09700477
0.100539915 0.19047132 0.09832256 -0.6099598 -0.22241572 -0.070916355 0.25604552 -0.19402295
-0.11349534 -0.010944637 0.09768986 -0.18790123 -0.13341887 -0.025344383 -0.16239429 -0.048877817
0.11924406 0.15802374 -0.23660718 0.08393642 0.012598152 -0.027696181 0.13506761 5.7055648e-05
-0.13309304 0.16026829 -0.0343109 -0.028464997 -0.09743802 -0.18705356 0.10060871 0.14494303
0.0074283285 0.30964226 0.0383157 -0.077274084 -0.093688615 -0.06397904 -0.04944977 -0.06126704
-0.004789674 -0.010468303 0.019846702 0.04239107 0.1221149 0.14364156 -0.048847917 -0.020073235
-0.027187036 -0.013644435 0.038888935 -0.014770786 -0.022143215 0.014183117 0.024213048 0.08175185
-0.11638689 -0.08158642 -0.074349895 -0.025054378 0.08228484 0.33262363 -0.06070155 -0.35345376
-0.43862733 -1.5224264 -0.014881709 0.06023154 0.08876329 0.13401462 0.14693482 0.00440363
0.001248399 -0.04559383 0.16412647 0.06399952 0.033803124 -0.2089979 0.19504008 0.14763083
0.14298531 -0.08548891 -0.4894238 -0.026550045 0.0681492 0.01058169 0.024909277 0.064557
-0.091062106 0.14759073 0.18236563 -0.08543243 -0.22326662 0.022805108 -0.057295587 -0.029162465
0.09848788 0.043965552 0.11835288 0.16402625 0.09113431 0.010285925 -0.33133405 -0.0662762
0.007328232 -0.09243827 -0.010885175 -0.16400106 0.070352286 0.03233382 -0.11389325 0.040497288
-0.024442172 0.18889335 0.1899352 0.08269251 -0.05872329 -0.20775186 0.1354729 0.18691269
-0.11912484 -0.08669074 0.23828061 0.10954333 0.000118508586 0.15099028 0.09256879 0.028951187
0.22742343 -0.16855581 -0.06897649 0.13537809 -0.049837954 0.159759 0.19171987 0.13493225
0.047766663 0.046546813 0.034627236 0.012900826 -0.0147892665 0.042672854 -0.080943234 0.31161174
00000000: 62a4 ebbc da56 58bd 180e f5bd 3ed8 cb3c
00000010: a67c 2e3e 6802 a6bd 8b5c 6ebd ff74 81be
00000020: ed93 c83d 105b d03e 1257 81bd 093c 6cbd
00000030: 01a7 19be dabf 93bc 8c5a d43c 1855 2e3e
00000040: 1882 abbd b8a4 77bd b558 3f3d 562c 1f3e
00000050: 953e 8ebc 4f4e 94bd 9381 5cbd 389d eabd
00000060: eb5c d33d ac32 2dbd 989f e3bd 8595 ebbd
00000070: dbfb 03bd edfe 863e b147 193d f81e acbd
00000080: b58a 01be 65ce 0fbd 0e13 9b3e a272 5bbc
00000090: 2aa9 9b3d f293 1a3b b7b3 2d3d 531f a13b
000000a0: d223 01ba 2a48 b3bc c6e1 493e 4b28 39bd
000000b0: fb0a 19bf e848 bbbe 0c1f 35bf 0dda de3d
000000c0: ebad b73d 833f 9e3d 5084 5e3d dd00 d2bc
000000d0: be88 5b3d bc6d 3a3d b28c 183d 75a6 9c3d
000000e0: 2e1d 503c 4b9a 2f3e ac47 023e 2b59 f83d
000000f0: 73a9 b43d 7d41 aabd 0169 1e3e 5421 5bbd
00000100: 07cd 09b9 cd43 27bc 200c 86bd 6725 113e
00000110: 2647 1f3d 9914 f63c 2e3f 82bd 0acf 0fbe
00000120: bdce 06bc 68ae a13b e20c 863d c412 953d
00000130: 357c af3d acd0 353e bc1b b23d a840 1fbe
00000140: e6a5 1c3e 8508 e63d 5b29 033d 8413 23be
00000150: 8318 153d 0011 753d 6f74 1e3d 2c2b 363d
00000160: 4a35 eb3c 0787 92bd 02d5 efbd abd5 d33d
00000170: eeb9 f13c 6e6c a33e 379f b7bd 8a47 ce3d
00000180: 1349 3a3c 76a9 e53d 5d29 9c3e cc03 22bd
00000190: f17b 823d b28f 193d ae10 a03d cbf5 c73d
000001a0: fd20 9239 157d 86bb d06d 373d 3b99 513d
000001b0: 3e80 2d3c 640c c83b 6953 b8bc 70aa c6bd
000001c0: dfe7 cd3d ea0a 433e 575d c93d 5326 1cbf
000001d0: f2c0 63be 983c 91bd 6618 833e f4ad 46be
000001e0: 3f70 e8bd 2251 33bc 9f11 c83d 2e69 40be
000001f0: f59e 08be 069f cfbc b04a 26be 1b34 48bd
00000200: 3b36 f43d fad0 213e 2749 72be dce6 ab3d
00000210: 7b68 4e3c 1ae3 e2bc 2a4f 0a3e 094f 6f38
00000220: 8b49 08be 5f1d 243e 9689 0cbd 6d2f e9bc
00000230: 968d c7bd f88a 3fbe f00b ce3d f26b 143e
00000240: 5669 f33b 6e89 9e3e ecf0 1c3d e041 9ebd
00000250: d1df bfbd 7107 83bd d88b 4abd 26f3 7abd
00000260: b3f2 9cbb 3f83 2bbc 8d95 a23c 42a2 2d3d
00000270: 6017 fa3d c616 133e c114 48bd a070 a4bc
00000280: 59b7 debc e98c 5fbc 014a 1f3d 2b01 72bc
00000290: b065 b5bc 4e60 683c 715a c63c 846d a73d
000002a0: 405c eebd c816 a7bd c244 98bd d73e cdbc
000002b0: f484 a83d a54d aa3e 30a2 78bd e4f7 b4be
000002c0: c393 e0be dede c2bf 69d2 73bc 59b5 763d
000002d0: 87c9 b53d 213b 093e 1576 163e 534c 903b
000002e0: 52a1 a33a 99c0 3abd c510 283e 2e12 833d
000002f0: 2575 0a3d 8c03 56be 96b8 473e 892c 173e
00000300: be6a 123e cf14 afbd c295 fabe 7b7f d9bc
00000310: cf91 8b3d d35e 2d3c 8a0e cc3c 7636 843d
00000320: c57e babd 0622 173e 0ebe 3a3e 33f7 aebd
00000330: 01a0 64be c7d1 ba3c c7ae 6abd 1fe6 eebc
00000340: 03b4 c93d 3915 343d ff62 f23d 7ff6 273e
00000350: a0a4 ba3d 4c86 283c 9ea4 a9be d1bb 87bd
00000360: aa21 f03b 4750 bdbd bc57 32bc e5ef 27be
00000370: dc14 903d 7870 043d dd40 e9bd 7ce0 253d
00000380: f33a c8bc 426d 413e 607e 423e b15a a93d
00000390: d587 70bd e7bc 54be 68b9 0a3e 0a66 3f3e
000003a0: b9f7 f3bd ea8a b1bd d5ff 733e 4158 e03d
000003b0: d087 f838 329d 1a3e b594 bd3d 0a2b ed3c
000003c0: b0e1 683e e599 2cbe 8c43 8dbd 8ea0 0a3e
000003d0: e222 4cbd dd97 233e 3752 443e ae2b 0a3e
000003e0: faa6 433d dfa7 3e3d 4ad5 0d3d fc5d 533c
000003f0: ae4e 72bc bbc9 2e3d 91c5 a5bd 938b 9f3e

fc1.bias f4 [64]
0.0032311515 0.03224083 0.22762257 0.039898712 0.10372172 -0.033705577 -0.04404676 -0.03917798
-0.04423338 -0.13544777 0.25289798 0.026324732 0.07324324 -0.09048023 0.17433585 -0.022059634
-0.10404255 0.24425495 0.07971826 0.11298477 -0.115354836 -0.07529046 0.19000235 0.1100374
0.042699475 0.057203162 -0.04336142 0.23836327 0.08479066 -0.09846392 0.26347807 -0.10642776
0.2859044 0.20850915 0.23971844 0.044773076 -0.045234248 0.060320828 0.07284551 0.22150089
0.14928217 -0.18879092 -0.03859592 0.25137863 0.093663 0.1243294 0.0120530715 -0.0010915628
0.2545612 0.14289919 0.0013429472 -0.0668618 -0.10463295 0.09103498 0.15684666 -0.12029051
-0.09031085 -0.06376203 0.15195109 0.023974631 0.011558296 0.25596642 0.09331235 -0.05254309
00000000: bac1 533b f60e 043d e415 693e d56c 233d
00000010: 0e6c d43d dc0e 0abd 606a 34bd 1779 20bd
00000020: 102e 35bd d2b2 0abe d87b 813e f7a6 d73c
00000030: 8d00 963d b34d b9bd 1985 323e 68b6 b4bc
00000040: 4314 d5bd f81d 7a3e 5443 a33d 8f64 e73d
00000050: 283f ecbd e231 9abd fa8f 423e 4a5b e13d
00000060: a5e5 2e3d dd4d 6a3d bf9b 31bd 8015 743e
00000070: baa6 ad3d 74a7 c9bd 99e6 863e ccf6 d9bd
00000080: 1062 923e 6c83 553e c078 753e f963 373d
00000090: 8c47 39bd f912 773d 0730 953d 21d1 623e
000000a0: 6ddd 183e 6852 41be c116 1ebd b3b4 803e
000000b0: 63d2 bf3d 6aa0 fe3d 3f7a 453c c512 8fba
000000c0: d855 823e 2a54 123e d505 b03a d7ee 88bd
000000d0: cd49 d6bd 8c70 ba3d 699c 203e df5a f6bd
000000e0: e5f4 b8bd ab95 82bd 1199 1b3e 7266 c43c
000000f0: 025f 3d3c 080e 833e 8c1a bf3d 6c37 57bd

fc2.weight f4 [64, 64]
-0.02963476 -0.23425578 0.023794917 -0.012631143 -0.77840436 -0.0084107835 -0.05474422 -0.93561184
-0.10825923 0.07969134 0.03196759 -0.461127 0.09316873 -0.09632406 -0.072605565 0.032291297
-0.043488316 0.08369136 -0.4039505 -0.05459229 0.07113561 0.14746347 -0.10471737 0.09378514
0.029883679 0.15790157 -0.030893514 -0.027673412 0.060491405 -0.14038628 0.05882645 0.037875153
-0.026832711 0.019054055 0.031049302 0.027882267 -0.443711 -0.07057566 -0.10172399 0.11624362
-0.020362703 -0.053631607 0.5659924 -0.1027623 -0.12556413 -0.049039036 -0.050451476 -0.045262393
-0.10758492 -0.045225024 0.099964134 0.08627397 0.053524517 -0.022061693 0.07508396 -0.0010865876
0.5928882 0.13997391 0.0007147743 0.0798789 -0.31905568 0.11224244 0.021486282 0.2966066
0.071909264 0.0012781062 -0.14305423 0.11455076 -0.16121385 -0.024801994 0.05925604 0.0016426266
0.016056543 0.0108861 0.086185254 0.04851886 -0.03958691 0.083013505 -0.17008524 0.051744346
-0.047010563 0.062495045 0.011789348 -0.020061554 0.02100881 -0.00718351 0.011693011 -0.10936213
-0.10041157 -0.057830732 -0.25554803 -0.0011144034 -0.016602844 0.10440451 -0.10702452 0.055925358
0.062275693 -0.040251784 0.052262675 0.07372358 0.053141154 0.039985795 -0.16857816 0.11223444
0.03102317 -0.06419571 -0.11067208 0.023139069 -0.07461619 0.23353174 -0.049233906 0.08674118
-0.073641315 0.007408987 -0.03151013 0.111375466 0.20693515 -0.17501076 0.024417644 0.051549945
0.0018564586 -0.2077826 -0.11190384 0.088396445 -0.093506664 0.058690023 -0.5661219 0.05666922
-0.03977483 -0.06180642 0.06183892 0.28270403 0.040416323 0.027262447 -0.16556029 -0.23527463
-0.13175502 0.0061937063 0.06839886 -0.10255959 0.061165605 -0.21926284 0.04129492 0.20214517
-0.24034354 0.053135015 -0.018677486 -0.027861943 0.091123074 0.11258588 0.07773323 -0.14042804
0.06813934 0.07674545 -0.12487618 -0.07891947 0.10163431 -0.049293548 0.06366262 0.119687885
-0.008629441 -0.030679114 -0.10817299 -0.0053745518 -0.29983768 0.13608308 0.09097319 0.066277705
-0.17621061 0.15559289 -0.101507284 0.029637406 -0.098226234 -0.102563575 0.11372864 0.13159616
-0.1718568 0.015381622 -0.018940551 -0.038710006 -0.0077365995 -0.079324745 0.047055207 -0.105504215
-0.11590106 -0.10330906 -0.11098344 -0.038091682 0.2567288 0.13974813 0.103188224 0.14003067
0.07372575 0.024119683 0.06533565 -0.07848254 0.04986745 0.033487417 -0.15687405 0.11567313
-0.023236427 -0.0061061857 0.13556963 -0.20247063 -0.060738165 -0.015792003 -0.063832484 -0.16423997
0.0755684 -0.039448306 -0.07720338 -0.09710055 0.10292041 0.12281449 0.12869596 0.100753576
0.026996328 -0.04034071 0.17663944 0.045886464 0.015791783 0.011091819 0.09431839 -0.16664787
0.05212004 0.11544469 0.1479559 0.09091943 -0.007565243 0.055646032 0.018500268 0.0002618239
0.16241443 0.1464274 0.07935634 0.10120838 -0.014074218 -0.11500157 0.013421239 0.09111357
0.08600927 -0.035712656 -0.059089255 -0.09077383 -0.0422088 0.09319362 -0.04023388 0.071065776
-0.075367756 0.116963014 -0.08366519 -0.10709752 -0.010059585 -0.0341732 0.017200548 -0.0106511
00000000: 99c4 f2bc bfe0 6fbe 8fed c23c dbf2 4ebc
00000010: 8245 47bf 62cd 09bc 7a3b 60bd 4284 6fbf
00000020: 04b7 ddbd 3735 a33d 73f0 023d d718 ecbe
00000030: 3fcf be3d 8c45 c5bd 3ab2 94bd e143 043d
00000040: ce20 32bd 6066 ab3d 9ad2 cebe 2a9c 5fbd
00000050: 8caf 913d aa00 173e 0f76 d6bd 6c12 c03d
00000060: 9ece f43c f3b0 213e 6514 fdbc 5ab3 e2bc
00000070: d6c5 773d 6cc1 0fbe 01f4 703d fa22 1b3d
00000080: 46d0 dbbc 4017 9c3c 1b5b fe3c 5a69 e43c
00000090: 172e e3be f989 90bd ab54 d0bd 2311 ee3d
000000a0: afcf a6bc d1ac 5bbd e1e4 103f 0a75 d2bd
000000b0: e293 00be 28dd 48bd 35a6 4ebd 0f65 39bd
000000c0: 7c55 dcbd e03d 39bd ffb9 cc3d 68b0 b03d
000000d0: 863c 5b3d b9ba b4bc 9fc5 993d d46b 8eba
000000e0: 85c7 173f 5255 0f3e b15f 3b3a 8c97 a33d
000000f0: 445b a3be 5ddf e53d 0004 b03c d2dc 973e
00000100: 2a45 933d 2186 a73a cf7c 12be 9799 ea3d
00000110: 3e15 25be 8d2d cbbc 76b6 723d 674d d73a
00000120: 0389 833c 9d5b 323c e581 b03d b6bb 463d
00000130: e225 22bd fc02 aa3d d32a 2ebe e1f1 533d
00000140: 268e 40bd cefa 7f3d 1c28 413c 2158 a4bc
00000150: ab1a ac3c a663 ebbb 0b94 3f3c 41f9 dfbd
00000160: 95a4 cdbd ebdf 6cbd 31d7 82be 2c11 92ba
00000170: b002 88bc 08d2 d53d ac2f dbbd fd11 653d
00000180: cc14 7f3d 0edf 24bd 6311 563d 63fc 963d
00000190: 8aaa 593d 25c8 233d c19f 2cbe 2cdb e53d
000001a0: 4e24 fe3c 0a79 83bd 0ba8 e2bd 258e bd3c
000001b0: 5fd0 98bd f222 6f3e 7ea9 49bd 5ca5 b13d
000001c0: 42d1 96bd 16c7 f23b c410 01bd d218 e43d
000001d0: cfe6 533e 0536 33be 8307 c83c 0926 533d
000001e0: 6a54 f33a f6c4 54be d72d e5bd 3209 b53d
000001f0: 6c80 bfbd f364 703d 5ded 10bf fc1d 683d
00000200: efea 22bd bb28 7dbd cf4a 7d3d 95be 903e
00000210: 968b 253d 7f55 df3c a388 29be d5eb 70be
00000220: caea 06be 93f4 ca3b b414 8c3d c30a d2bd
00000230: c988 7a3d 7086 60be dd24 293d 25ff 4e3e
00000240: 9e1c 76be 1aa4 593d 8701 99bc bb3e e4bc
00000250: bc9e ba3d 6d93 e63d 9a32 9f3d 5ecc 0fbe
00000260: a38c 8b3d b82c 9d3d 15bf ffbd 88a0 a1bd
00000270: a625 d03d 08e8 49bd 8c61 823d ec1e f53d
00000280: 8062 0dbc c452 fbbc cd89 ddbd 021d b0bb
00000290: 5384 99be 5d59 0b3e 2750 ba3d 9bbc 873d
000002a0: 8e70 34be be53 1f3e 0de3 cfbd 25ca f23c
000002b0: d62a c9bd da0c d2bd 90ea e83d 25c1 063e
000002c0: 3bfb 2fbe 3303 7c3c 3729 9bbc 628e 1ebd
000002d0: 4d83 fdbb 0375 a2bd f6bc 403d 9812 d8bd
000002e0: 895d edbd b393 d3bd 494b e3bd 0606 1cbd
000002f0: f571 833e 221a 0f3e 5954 d33d 3364 0f3e
00000300: 87fd 963d a496 c53c b3ce 853d 74bb a0bd
00000310: d041 4c3d 1a2a 093d 97a3 20be 09e6 ec3d
00000320: 525a bebc 6616 c8bb c4d2 0a3e 7654 4fbe
00000330: 95c8 78bd 3b5e 81bc 9bba 82bd 862e 28be
00000340: 9bc3 9a3d 8c94 21bd ce1c 9ebd a7dc c6bd
00000350: f0c7 d23d 2a86 fb3d e0c8 033e e457 ce3d
00000360: 6727 dd3c 4d3c 25bd f8e0 343e 72f3 3b3d
00000370: c55d 813c 76ba 353c 002a c13d bda5 2abe
00000380: d37b 553d 446e ec3d c081 173e f733 ba3d
00000390: dce5 f7bb 18ed 633d e08d 973c 6945 8939
000003a0: f84f 263e 10f1 153e 9485 a23d 5746 cf3d
000003b0: 8d97 66bc f185 ebbd c2e4 5b3c c099 ba3d
000003c0: a125 b03d 6f47 12bd 9307 72bd a1e7 b9bd
000003d0: 22e3 2cbd 4cdc be3d 48cc 24bd ef8a 913d
000003e0: 695a 9abd 4e8a ef3d a858 abbd f255 dbbd
000003f0: f5d0 24bc 33f9 0bbd 2ae8 8c3c f481 2ebc

fc2.bias f4 [64]
-0.0006366231 -0.16540262 -0.1399619 0.07153585 0.15490398 0.02445092 -0.011678075 0.14482658
0.26909676 0.027503848 0.05113607 -0.15229456 -0.08302041 -0.037510432 0.057714418 0.25068805
-0.09518594 0.04272812 0.08388274 0.13824092 0.31638777 0.27755374 0.21033464 -0.026945038
0.06331177 0.23305601 0.13529871 0.017280824 0.03813783 0.023099566 0.10559283 0.18789504
0.29353082 0.084290914 0.30968708 -0.03702467 0.10278908 0.10102004 0.16098367 -0.11725379
-0.07618652 0.23372306 -0.021542512 0.23817067 0.040100116 -0.06488076 -0.029331816 0.052297357
-0.10344638 0.0489986 0.0153827015 0.13261062 0.19788209 0.06895283 0.14263313 -0.09234798
0.33864596 -0.017562028 -0.08286754 0.10350576 -0.057803016 0.07226649 -0.06643582 0.09692213
00000000: 0ee3 26ba 4e5f 29be 2c52 0fbe 6381 923d
00000010: 269f 1e3e 4c4d c83c 6655 3fbc 6b4d 143e
00000020: 0dc7 893e c04f e13c 0e74 513d 1bf3 1bbe
00000030: 9b06 aabd 8aa4 19bd f465 6c3d 2f5a 803e
00000040: d9f0 c2bd ae03 2f3d b7ca ab3d 078f 0d3e
00000050: 94fd a13e 861b 8e3e f761 573e d7bb dcbc
00000060: 9aa9 813d 3ca6 6e3e bf8b 0a3e 8490 8d3c
00000070: 6a36 1c3d 4d3b bd3c 0e41 d83d 8f67 403e
00000080: ac49 963e b7a0 ac3d 4e8f 9e3e 2ea7 17bd
00000090: 1583 d23d 98e3 ce3d e7d8 243e c122 f0bd
000000a0: ae07 9cbd 1955 6f3e ec79 b0bc 03e3 733e
000000b0: 0540 243d 34e0 84bd 4749 f0bc c135 563d
000000c0: b2db d3bd c2b2 483d ba07 7c3c 14cb 073e
000000d0: 9aa1 4a3e 2437 8d3d 6b0e 123e f020 bdbd
000000e0: 0163 ad3e 3ede 8fbc 75b6 a9bd d4fa d33d
000000f0: dbc2 6cbd 7400 943d 810f 88bd 1c7f c63d

out.weight f4 [4, 64]
-0.11715972 -0.20307513 0.02145377 0.07898504 0.081043705 0.67358536 -0.17346138 -0.7769483
0.1338664 -0.15795031 0.13514109 -0.050388694 -0.5122587 0.044911664 0.1837391 0.17601393
0.14126152 -0.0077285017 0.10021271 0.04902474 0.1592194 0.086069115 0.14520328 0.17025782
0.067134924 0.1516581 0.030292436 0.08738799 -0.07531475 0.044862013 0.038426206 0.090725675
0.08264573 0.07190812 0.16023524 -0.42519447 0.054282565 0.07365001 -0.05724432 -0.120857134
-0.15721975 0.11420697 -1.2699177 0.053680785 0.3717418 -0.13556986 0.072946936 0.18860103
-0.018930845 0.10059521 0.06796875 -0.737603 0.10954275 0.0040817927 0.0060826335 -0.2688984
0.15398982 0.32737494 -0.026953038 0.61332566 0.44097286 0.16184796 0.075130716 0.13588603
0.11074207 -0.08421706 0.08303543 0.027177881 0.11977334 0.6896198 -0.2257838 -0.3047972
0.09017394 -0.18691945 0.095418826 -0.0072321375 -0.39081776 0.09634372 0.11770382 0.17942289
-0.08939503 -0.009599506 0.20112477 0.13263923 0.04683285 0.16295812 0.067742474 0.15840273
0.16749994 0.06845932 0.091501445 0.0961038 -0.0771899 0.080393806 0.05406486 0.2049098
0.09593522 0.042223614 0.15828782 -0.4720101 -0.0822728 0.15687369 0.10086491 -0.073047824
-0.13545814 0.12763104 -0.3889311 0.0409556 0.35846266 -0.3206305 -0.038711417 0.07983635
-0.022506526 0.028900506 0.03556 0.13882308 0.16588083 0.01242575 0.059543114 -0.23829697
0.08727784 0.22512114 -0.036792748 0.49610472 0.5218028 0.14970432 0.045196556 -0.012476361
0.0062193316 -0.032267537 -0.18489985 0.017427882 0.22563435 0.22319151 -0.3570494 -0.31568033
0.16377035 0.00690961 0.026641132 -0.078789294 -0.1893568 0.007807819 0.105478056 -0.0216967
-0.1788247 -0.44265422 0.02863439 -0.0093607325 0.17572393 0.18307154 0.030601978 0.09085525
-0.043440614 0.17018951 0.14923422 -0.07697469 0.28297126 0.08446571 0.0014301469 0.17269447
0.16611841 -0.25776273 0.12316243 -1.0113941 -0.39520338 0.034351382 0.101438954 -0.1298439
-0.08293062 0.07073301 -0.35860658 0.18548253 -0.11497111 -0.132337 -0.11638628 0.14292799
-0.051164337 0.16269884 0.40434688 -0.50409096 0.12004234 0.1375432 0.21269621 -0.67014927
0.14447583 0.40136316 0.42943662 0.17417212 0.7344723 0.06138272 0.40697387 -0.028179657
0.5270074 -0.03975167 0.028743224 0.16004881 -0.06599897 0.57497066 -0.5222312 -0.2598472
0.05337889 -0.52184814 -0.048034247 -0.10533174 -0.20913243 0.39520174 0.12715633 0.15667821
0.14248528 0.18250656 0.12477693 0.018304685 0.09088889 0.020372806 0.13947706 0.18758035
0.067270294 0.19743252 0.10356305 0.3038952 0.15794837 -0.13051006 0.13190766 0.13837641
0.08446033 -0.17451076 0.14684165 -0.13876668 -0.2958494 -0.0039327936 0.12617154 -0.14497222
-0.20737343 0.18314755 -0.08501474 0.16398647 0.4333441 -0.016871663 -0.041058645 0.3141123
-0.40518874 0.03270442 -0.37133595 -0.43303302 -0.010350662 0.56849074 0.09806747 -0.1763199
0.15223429 -0.021313952 0.033274822 0.2463974 0.11978907 0.19626123 0.08131093 0.08842633
00000000: 6ff1 efbd edf2 4fbe d1bf af3c e9c2 a13d
00000010: 3efa a53d 1770 2c3f dc9f 31be 15e6 46bf
00000020: 4614 093e babd 21be 6d62 0a3e 6064 4ebd
00000030: 6323 03bf 4bf5 373d 1a26 3c3e ff3c 343e
00000040: dca6 103e 5f3f fdbb 523c cd3d 2ace 483d
00000050: 690a 233e 0145 b03d 2bb0 143e 1158 2e3e
00000060: 097e 893d 434c 1b3e d827 f83c 79f8 b23d
00000070: 9f3e 9abd 3bc1 373d cc64 1d3d 62ce b93d
00000080: 2a42 a93d 9044 933d b514 243e 17b3 d9be
00000090: 6557 5e3d d1d5 963d 0579 6abd f283 f7bd
000000a0: 37fe 20be 58e5 e93d aa8c a2bf 62e0 5b3d
000000b0: f154 be3e d3d2 0abe 3465 953d a120 413e
000000c0: dc14 9bbc dd04 ce3d 3333 8b3d 8dd3 3cbf
000000d0: f357 e03d 8fc0 853b d450 c73b 0dad 89be
000000e0: 82af 1d3e b09d a73e 9ecc dcbc e902 1d3f
000000f0: 32c7 e13e 79bb 253e 22de 993d b525 0b3e
00000100: bdcc e23d fe79 acbd 7b0e aa3d 26a4 de3c
00000110: ba4b f53d ec8a 303f de33 67be 610e 9cbe
00000120: 1dad b83d d067 3fbe f26a c33d 91fb ecbb
00000130: 4419 c8be db4f c53d b30e f13d a2ba 373e
00000140: be14 b7bd 3f47 1dbc a7f3 4d3e 94d2 073e
00000150: cdd3 3f3d 7ede 263e 91bc 8a3d 5334 223e
00000160: 1b85 2b3e 6634 8c3d 1c65 bb3d 12d2 c43d
00000170: bd15 9ebd 82a5 a43d 1d73 5d3d e0d3 513e
00000180: af79 c43d abf2 2c3d 3416 223e 4fab f1be
00000190: a47e a8bd 7fa3 203e 4392 ce3d 199a 95bd
000001a0: 8ab5 0abe b6b1 023e fa21 c7be 0fc1 273d
000001b0: 6b88 b73e ae29 a4be dd8f 1ebd 3e81 a33d
000001c0: 9b5f b8bc c1c0 ec3c 5da7 113d a327 0e3e
000001d0: aadc 293e 5f95 4b3c 7be3 733d 1f04 74be
000001e0: b9be b23d 2886 663e feb3 16bd 7001 fe3e
000001f0: de94 053f 174c 193e 0620 393d a769 4cbc
00000200: 89cb cb3b f72a 04bd 6356 3dbe ebc4 8e3c
00000210: b10c 673e 518c 643e 2ecf b6be daa0 a1be
00000220: 6ab3 273e 026a e23b 813e da3c 485c a1bd
00000230: c0e6 41be bcd8 ff3b e104 d83d 47bd b1bc
00000240: d21d 37be 93a3 e2be ab92 ea3c c25d 19bc
00000250: f9f0 333e 1b77 3b3e 00b1 fa3c 5112 ba3d
00000260: c9ee 31bd 2946 2e3e dbd0 183e e8a4 9dbd
00000270: 9ce1 903e 5cfc ac3d c473 bb3a d2d6 303e
00000280: f21a 2a3e 7af9 83be 963c fc3d 5d75 81bf
00000290: 1958 cabe 09b4 0c3d 3abf cf3d cdf5 04be
000002a0: 87d7 a9bd 78dc 903d 489b b7be 22ef 3d3e
000002b0: f975 ebbd 5a83 07be ee5b eebd b75b 123e
000002c0: b291 51bd 869a 263e 8e06 cf3e 1b0c 01bf
000002d0: c2d8 f53d 20d8 0c3e 09cd 593e e78e 2bbf
000002e0: 79f1 133e 797f cd3e 1edf db3e 2d5a 323e
000002f0: 6006 3c3f 726c 7b3d e15e d03e 06d9 e6bc
00000300: f5e9 063f a6d2 22bd e976 eb3c d6e3 233e
00000310: 782a 87bd 4731 133f f2b0 05bf b10a 85be
00000320: d3a3 5a3d d797 05bf 8fbf 44bd 2bb8 d7bd
00000330: d026 56be e257 ca3e 4535 023e 4170 203e
00000340: a9e7 113e 00e3 3a3e 0c8b ff3d b5f3 953c
00000350: f423 ba3d dfe4 a63c 13d3 0e3e 1015 403e
00000360: 02c5 893d c02b 4a3e dd18 d43d 2798 9b3e
00000370: 38bd 213e 6ea4 05be cd12 073e 8cb2 0d3e
00000380: 8af9 ac3d f3b2 32be a85d 163e da18 0ebe
00000390: 9379 97be aade 80bb 1d33 013e 9973 14be
000003a0: b359 54be 088b 3b3e 351c aebd 12ec 273e
000003b0: 47df dd3e 7136 8abc 1c2d 28bd 54d3 a03e
000003c0: e674 cfbe 12f5 053d bf1f bebe 81b6 ddbe
000003d0: d395 29bc 9c88 113f 99d7 c83d 348d 34be
000003e0: 4ee3 1b3e 999a aebc 2e4b 083d 9a4f 7c3e
000003f0: f953 f53d b4f8 483e 5886 a63d dd18 b53d

out.bias f4 [4]
0.18716305 0.22481452 0.15389681 0.18517356
00000000: aca7 3f3e c735 663e 2097 1d3e 239e 3d3e
