p1-navigation/checkpoint/agent_ddqn_checkpoint.pth (torch_old, 28415 bytes, 6 tensors)

fc1.weight f4 [64, 37]
000000 be 7c 32 bf fb bb e2 bc a0 bd 5f bf 6c ce a7 be
       -0.6972159 -0.027677527 -0.8739872 -0.32774675
000010 a4 3b ae be 91 c8 5c bf 71 65 42 bf ff 1b c2 3e
       -0.34029877 -0.8624354 -0.7593604 0.37911984
000020 af 63 20 bf 09 15 e6 bd d2 fa 33 bf 32 3e 5d be
       -0.62652105 -0.11234481 -0.70304596 -0.21605757
000030 8c 55 11 bf 61 2e 46 bf 67 c8 2b bf 31 49 f4 be
       -0.5677116 -0.7741452 -0.67102665 -0.4771209
000040 ab aa 18 bf af d1 1a bf f1 e4 4f bf c7 f9 8e bf
       -0.5963542 -0.604762 -0.8120871 -1.1169976
000050 b2 29 23 bf ac c9 1f be ec 87 a2 3d 58 27 54 bf
       -0.63735497 -0.15604275 0.07936081 -0.82872534
000060 fa 46 b5 be a9 b2 33 bf fb ca 0c bf 3d f1 fc be
       -0.35405713 -0.7019449 -0.54997224 -0.494028
000070 40 f4 04 bd e9 03 91 bf 4f f2 44 3e 90 10 d7 be
       -0.032459497 -1.1329318 0.19233058 -0.42004824
000080 c3 41 55 bf 77 26 27 bf fa 90 1d 3f 19 3c fe bc
       -0.8330347 -0.6529307 0.6154934 -0.031034516
000090 f0 76 20 3e 22 46 a2 bd a7 2b d4 3d ba 92 d9 bc
       0.15670371 -0.07923533 0.103598885 -0.026559222
0000a0 ab 2d 0a 3e c3 66 0d 3e 2f d5 f0 bc 6b 5e 1b 3e
       0.13493983 0.13808732 -0.029398529 0.15172736
0000b0 b3 7b 8f 3d c0 1f 9b be 86 f3 16 bf 68 a3 d1 3d
       0.07006016 -0.3029766 -0.5896534 0.102362454
0000c0 94 47 28 3d 64 6d ac 3e e8 9c 11 be fd b0 85 be
       0.041083887 0.33677208 -0.14220011 -0.26111594
0000d0 82 9f 85 3e 2e bf ec 3d bb 50 e4 bc a8 1f 5c bd
       0.26098257 0.11559902 -0.027870527 -0.053741127
0000e0 5e f3 8b 3c 73 3f 24 3d eb 90 40 3e a4 7e 59 3e
       0.01708382 0.040099572 0.18805282 0.21239716
0000f0 ba f5 4c 3e c1 00 5c be 73 62 0f bd ec 14 0e 3e
       0.20015612 -0.21484663 -0.035005998 0.13875169
000100 e0 c0 a3 3d 99 15 88 3d c1 0a 72 3e ec a4 8b 3e
       0.07995772 0.066447444 0.23636915 0.27274263
000110 3f af 63 3e 22 b1 93 be 82 9e ac bd 61 1b 7d be
       0.2223482 -0.2884608 -0.084286705 -0.24717475
000120 1f 0b 1d be ef a2 dc bc 62 9a 2f be ba bf 0e bf
       -0.15336274 -0.026933162 -0.17148736 -0.557613
000130 56 ce 83 bd 37 60 a7 be 9b 11 1a bb 7e ad 8d be
       -0.0643584 -0.32690594 -0.0023509029 -0.27671427
000140 df a8 a1 be 41 7f 9f be 82 34 58 bf 2c 02 90 bf
       -0.3157415 -0.31151775 -0.8445512 -1.1250663
000150 33 09 b0 bd 5e ff b8 be 81 12 d6 3d e1 fd 21 bf
       -0.085955046 -0.3613233 0.10452748 -0.63278013
000160 5f 85 10 c0 71 c2 d4 be 8a ff 7f be 25 5a d2 be
       -2.2581403 -0.41554597 -0.24999824 -0.410844
000170 cf 7f d8 be fc b3 bb 3d 92 88 82 be 18 38 ac be
       -0.4228501 0.09165189 -0.2549482 -0.33636546
000180 66 42 cb 3d 34 2d c6 be 9e cb 29 c0 4a 19 00 be
       0.09924774 -0.38706362 -2.6530528 -0.12509647
000190 04 2e e5 be 46 b9 b3 be a2 75 34 bd e0 b3 d5 be
       -0.4476167 -0.3510229 -0.044057496 -0.41738796
0001a0 5b 2e 13 bf 9d 84 80 be 33 dc 67 3e 73 17 20 bf
       -0.5749261 -0.25101176 0.22642593 -0.6253578
0001b0 5a d0 36 c0 86 b4 a3 be 89 2b 67 3d 1f d2 1d bf
       -2.8564668 -0.31973666 0.056438003 -0.61648744
0001c0 52 a4 95 3d 48 37 3d bf 74 48 7a bf 96 15 6c 3e
       0.07306732 -0.7391248 -0.97766805 0.2305511
0001d0 95 fa 9d bf aa 51 85 be 15 b4 7a bb f9 b9 f1 be
       -1.2342097 -0.26038867 -0.003825431 -0.47212198
0001e0 85 93 e3 be 9a 56 e4 be cf 98 32 bf 51 5c 46 bd
       -0.44448486 -0.44597322 -0.6976442 -0.048427884
0001f0 99 81 42 bf 5e a7 4d bf 62 03 6e bf 48 68 c0 be
       -0.75979 -0.8033351 -0.9297391 -0.3757956
000200 fc 50 18 bf 5c b7 87 3e ba 5a 3e bf 89 8c 6a bf
       -0.5949857 0.2650708 -0.7435719 -0.9162069
000210 e4 af fe be ca 92 9b be 5a 80 ab be 2d 9d f3 be
       -0.4974357 -0.3038543 -0.33496362 -0.47580853
000220 4d d1 42 bf 3f 5f ed be bd 37 72 bf 94 6e 91 3c
       -0.7610062 -0.4636173 -0.946163 0.017752923
000230 d8 5d ad bf 0c eb 35 bf c7 aa 07 bf bb 89 36 bf
       -1.3544264 -0.7106178 -0.5299496 -0.7130391
000240 f2 28 5c 3e 53 79 4f bf ab fb 96 3e fe 7c 4f 3e
       0.21499994 -0.810445 0.29488882 0.20262524
000250 4a ca 36 be 7f 4c 2a 3e 5f 68 26 3e 28 a2 37 3e
       -0.17850605 0.16630743 0.16250752 0.17932951
000260 6e 33 a8 bd f7 4f 17 be 43 56 50 3d 30 bb e6 3e
       -0.082129344 -0.14776598 0.050863516 0.45064688
000270 37 53 2a 3e 91 87 39 3d a5 c8 37 3e 3d 47 ae 3d
       0.16633306 0.0452953 0.17947634 0.085096814
000280 3b a2 e0 3d 8b 8e bc bd 31 29 08 bd 36 fe 65 3e
       0.10968443 -0.092068754 -0.03324241 0.22460255
000290 72 61 22 be da f0 24 bf 76 f0 a9 be b7 bc 92 bf
       -0.15857485 -0.6443001 -0.3319127 -1.1463841
0002a0 cd 33 41 3e a1 3d 0e 3d 43 a0 43 3d a1 e3 6a bd
       0.18867417 0.034726743 0.04776026 -0.05734599
0002b0 b6 24 22 be be 35 f8 3d 20 48 1b 3e de 61 bb 3c
       -0.15834317 0.121196255 0.15164232 0.022873815
0002c0 01 20 31 3e a8 79 94 bd c0 fe 2a 3e f9 42 08 bc
       0.17297365 -0.072497666 0.16698742 -0.008316749
0002d0 c6 30 e0 3d e2 31 b9 3e 46 00 26 be 2d 26 c3 3d
       0.10946803 0.3617087 -0.16211042 0.09528766
0002e0 e3 cc 69 bc 82 20 fe 3d b0 f4 26 3e ec 10 f0 3d
       -0.01427004 0.12408544 0.16304278 0.117219776
0002f0 ef 24 84 3e 7e 14 07 3a ac b5 ea 3e 04 aa 3d bf
       0.25809428 0.0005152895 0.4584173 -0.7408755
000300 b2 2f 12 bf 85 3a 9a bf db 37 3a c0 fb 17 48 3e
       -0.5710403 -1.2049109 -2.9096591 0.19540398
000310 ac f7 12 3e 58 a6 dc 3d e9 aa 30 3e 8d 8c 7a bd
       0.14352292 0.10773915 0.17252697 -0.061169196
000320 c9 da 1a 3e 66 3d 61 3e d0 64 56 3e 04 af 5e 3e
       0.15122522 0.21996078 0.20936894 0.2174645
000330 7b f3 9b 3d 13 a7 cd 3d 61 1c 1b 3e e3 00 54 3e
       0.076147996 0.100416325 0.15147544 0.20703463
000340 32 8b 60 3e 18 b3 08 bd a3 0e a1 3e 20 39 3e 3e
       0.21928099 -0.033373922 0.3145648 0.18576479
000350 d0 19 1e 3e 6c 3f b3 3e 3a 53 0f bc 00 84 f0 3d
       0.15439534 0.35009325 -0.00874787 0.11743927
000360 90 d1 2d 3e 4a 9a 84 3d 6b 1b 12 3e 2a 8a 70 3d
       0.16974473 0.06474741 0.14268272 0.058725514
000370 f6 77 8b 3c 61 b1 02 bc 23 98 9b 3d 6d d2 1d 3e
       0.017024975 -0.007976861 0.07597377 0.15412302
000380 9c 1b 0a 3e 50 b4 93 3e 04 05 4f 3e a0 7e 33 3e
       0.13487095 0.28848505 0.20216757 0.17528772
000390 9e a9 e4 bd dc 06 1c 3d 62 11 3a 3e cf 84 22 be
       -0.111651644 0.03809248 0.18170694 -0.15870975
0003a0 82 d1 42 3e c8 58 08 3e 1a 23 1b 3e fa e9 6f 3e
       0.19025233 0.13315117 0.15150109 0.23429099
0003b0 27 f2 c2 3c 48 f2 df 3e 4a e0 dc be 80 2c b1 be
       0.023797108 0.43739533 -0.4313987 -0.34604263
0003c0 49 5f b2 be 72 ca 00 c0 49 bc c6 3d 8b dd 48 3e
       -0.34838322 -2.0123563 0.09703881 0.19615762
0003d0 4d 51 09 3e d5 b0 4c 3d bd 64 6a 3b 27 a6 20 3e
       0.1340992 0.049973328 0.003576561 0.15688382
0003e0 95 69 63 3e f3 f6 3b 3e 6e 6d 00 3e dc 68 13 3e
       0.22208245 0.18355922 0.12541744 0.1439547
0003f0 d4 ed 41 3e dd 96 59 3e db 88 4d 3c f4 47 b8 3d
       0.1893838 0.21248956 0.012544836 0.08998099

fc1.bias f4 [64]
000000 d2 f4 2b 3e 44 23 ad bd e6 44 5e 3e 66 b3 0e bd
       0.1679261 -0.08453992 0.2170597 -0.034839056
000010 2d ac eb 3d 51 c8 22 3b 19 d5 8d be b4 e6 7d be
       0.11507449 0.0024838636 -0.27701643 -0.24795038
000020 ab ac 9f 3e cd 30 7b 3e 8f 44 19 3d 02 ff 68 be
       0.31186423 0.24530335 0.0374189 -0.22753528
000030 0e fb 93 be e4 66 bf be 87 9e 24 3e fc 6f 7d be
       -0.28902477 -0.37383187 0.16076098 -0.2474975
000040 64 25 6f bc 45 8b 8f 3e 26 54 e0 3e 0b cc 50 3d
       -0.014596317 0.28035942 0.438142 0.05097584
000050 7b 85 89 bd d4 ff 2f be fa 54 7c be b3 af df 3d
       -0.067149125 -0.17187434 -0.24641791 0.10922184
000060 23 21 33 be f0 f7 b6 bd 47 13 6a 3e b5 2f a0 3e
       -0.1749311 -0.08934009 0.22858916 0.31286398
000070 c9 df 2b 3e 2c 89 cb be 0b 13 18 3d 50 ec a3 be
       0.16784586 -0.3975309 0.037127536 -0.3201623
000080 ce d1 61 3e 08 8f da bd b0 15 d3 3d 58 2c 7a bd
       0.2205269 -0.10671812 0.10306871 -0.061077446
000090 02 24 92 3e 35 b7 1a 3d 6e 4e bc bc 74 b4 93 bd
       0.28543097 0.037772376 -0.022986617 -0.07212153
0000a0 95 d5 5c be 81 9a 05 be 42 d8 8f be 41 a7 84 bc
       -0.2156585 -0.1304722 -0.2809468 -0.016193034
0000b0 d7 94 ca bd d4 48 3c 3d 76 1b b8 be 21 2a 39 3e
       -0.0989167 0.04596789 -0.3595845 0.18082477
0000c0 38 88 07 3e 76 b3 73 be f0 77 17 be 28 08 a0 bd
       0.13235557 -0.23798928 -0.14791846 -0.07814056
0000d0 e9 0e 22 be 71 d1 a2 bd bc eb b1 be cb 10 85 3d
       -0.15826 -0.07950104 -0.34750164 0.06497344
0000e0 28 3d fe bd d5 6b 78 be 52 69 71 3e b9 b5 a0 3d
       -0.124140084 -0.24259885 0.23575333 0.07847161
0000f0 96 a0 81 3d ae 8c df bb 27 5e b3 3e 4e 9d 4c 3e
       0.063294575 -0.0068221902 0.3503277 0.19981882

fc2.weight f4 [64, 64]
000000 e7 af 08 3e 21 57 47 3c 91 bc 05 3f 1f 2a a8 3e
       0.13348351 0.012166769 0.52240855 0.32844636
000010 c4 44 b1 3e cc 2b 33 be d4 eb 0b bd 9f db a1 3e
       0.34622777 -0.17497176 -0.03416045 0.3161287
000020 b7 54 18 be d6 b1 0d 3f cc cd 56 3d 1b 8a a3 be
       -0.14876066 0.5534948 0.052442357 -0.31941304
000030 9c 4b fd bd ca 08 80 be aa 58 9c be c0 74 89 3e
       -0.12367937 -0.25006706 -0.30536395 0.26846886
000040 94 e0 36 bd 17 d3 23 bd 94 1f 40 be 14 e0 f0 bc
       -0.04464777 -0.039996233 -0.18762046 -0.029403724
000050 30 84 a8 bd 06 d4 09 3d a7 0e 35 be 5b e3 1b 3f
       -0.08228338 0.033649467 -0.1768137 0.6089379
000060 d2 3b 0c 3e 5b 0c a9 be cd b1 91 3e 64 cf 93 bd
       0.13694695 -0.3301724 0.28455964 -0.07217291
000070 6d 28 2e 3e a6 a3 d0 be c6 fc 13 be 17 2d dc 3d
       0.17007609 -0.40749854 -0.14451894 0.10750788
000080 a6 e2 60 be c5 5a 95 3e 43 84 e2 3e 4b 4a dc 3e
       -0.2196146 0.29170814 0.44241533 0.4302543
000090 3c 3b 49 3f d4 b6 f8 bd 45 f4 68 be e7 32 4c 3d
       0.7860601 -0.12144247 -0.22749431 0.04985323
0000a0 e7 29 60 be 03 6b a9 3e 02 73 e7 3e 79 b8 05 3e
       -0.21890984 0.33089456 0.45204931 0.13058652
0000b0 1b 6b 94 be f8 2f 4c 3e 87 39 8b 3e bd a3 ef 3e
       -0.28987965 0.19940174 0.27192327 0.4680461
0000c0 1f 3c 75 be d4 1e b1 3d a2 23 ef bd 79 16 31 3e
       -0.23948716 0.08648458 -0.11676718 0.17293729
0000d0 ff 7e 31 3e 78 0c 8c 3e 72 d5 07 3e 34 6f f5 3d
       0.17333601 0.27353263 0.13265017 0.11984101
0000e0 31 6a d4 be a7 c2 01 bd 2c 1c 4f 3f 16 3f fc bd
       -0.41487268 -0.031679776 0.8090236 -0.1231672
0000f0 f3 0f da 3e a2 1e b5 be 2f cf af 3d a0 1b a0 3d
       0.42590293 -0.35374933 0.08584439 0.07817769
000100 e1 4b 3b 3e ea 2a 6f be e0 79 22 3f 0d b1 f3 3d
       0.18290664 -0.23356214 0.63467216 0.11899004
000110 bf b3 fb 3d f2 79 a8 be b9 54 39 3e fb 79 9f 3e
       0.12290143 -0.32905537 0.18098725 0.3114775
000120 9d 92 78 bd 38 e5 a2 be 7e 45 cd 3c 70 08 01 be
       -0.060686696 -0.31815505 0.02505755 -0.12600875
000130 17 35 f5 bd 25 a9 44 bf 45 f8 07 be 17 39 b6 3d
       -0.11973017 -0.76820594 -0.13278301 0.08897608
000140 31 f1 31 3e 18 09 8a 3c 3c d1 71 bf c6 0e 29 be
       0.17377163 0.01685004 -0.9445989 -0.16509542
000150 5c 72 54 3e bb 42 9d 3d 6d 06 00 3e d3 68 98 3d
       0.2074675 0.076787435 0.12502451 0.07441869
000160 46 54 1b bf 50 0b 55 3e 7d fb 8c 3e 27 a6 74 bd
       -0.60675466 0.20805097 0.2753562 -0.059728768
000170 89 39 3d 3e 07 38 8d 3e 9b 2a 4b be 59 9a 03 3e
       0.18478979 0.27581808 -0.19840471 0.12851848
000180 65 07 4c 3e ee 0f e4 bd 8a e6 c5 3e 61 b0 0a 3e
       0.19924696 -0.11135851 0.3865245 0.13543846
000190 ed d3 82 3e 63 a0 da bd 20 00 9c 3d b5 f0 71 3e
       0.25552312 -0.106751226 0.07617211 0.23626979
0001a0 ea 8d 08 be a6 ab a6 3e 45 78 3b 3f c2 de ba 3d
       -0.13335386 0.32552832 0.7323039 0.09124519
0001b0 f6 c3 47 bf f1 a7 eb bd a6 02 b9 bd c3 33 a2 be
       -0.7803339 -0.11506642 -0.09033708 -0.31680116
0001c0 b1 1b 22 be 6e 80 3c be 6e 88 93 3b da 6c 0b 3f
       -0.15830876 -0.18408367 0.0045023477 0.5446297
0001d0 51 94 c3 bd aa 4c 58 bc 77 5e fb 3d ee 96 08 bf
       -0.095497735 -0.013201872 0.12273877 -0.533553
0001e0 eb 34 52 3e 73 29 55 38 43 96 e3 bd d4 08 93 3c
       0.20527999 5.082176e-05 -0.111126445 0.017948546
0001f0 6a d2 f9 3e 58 6f a8 3c 44 30 55 3e 82 13 06 3f
       0.48793346 0.020560905 0.20819193 0.52373517
000200 34 96 f3 3d c1 16 bc bf 6f 09 5a 3d 86 71 88 be
       0.11893883 -1.4694444 0.053231653 -0.26649112
000210 74 3d 42 3e c7 00 ed be 14 10 80 3c 11 bc d5 3d
       0.18968755 -0.46289656 0.015632667 0.104362614
000220 b2 39 46 3c 85 c2 08 be 61 4f 47 bd 4b fe 80 bf
       0.012098717 -0.13355453 -0.048659686 -1.0077604
000230 b2 dd 5b bf 03 71 16 bf e0 95 2f bb 74 80 81 be
       -0.85885155 -0.5876619 -0.0026792213 -0.25293314
000240 13 c4 d1 3e e8 0d d9 3d 95 23 62 bf 46 9a 1d bf
       0.40969905 0.105983555 -0.88335544 -0.6156353
000250 7b 18 00 be c9 0f 2a bf 15 77 27 3f b2 8d 0b bf
       -0.12509339 -0.66430336 0.6541608 -0.54513085
000260 a0 d3 69 bf 8e 40 38 be 5b 88 bb 3e 53 14 8c bd
       -0.9133854 -0.17993376 0.36627468 -0.06839814
000270 ce 7d b9 bd e0 dc 06 bf 50 ff 63 be c0 80 7a 3e
       -0.090571985 -0.5268078 -0.22265363 0.24463177
000280 86 71 6d bf cc e2 c8 be 19 c6 2b be da 0b 65 bd
       -0.9275135 -0.39235532 -0.16774787 -0.055919506
000290 c2 7f d8 bd 97 0b 84 3e 98 7f 5d bd bc 18 31 bf
       -0.10571243 0.25790092 -0.05407676 -0.69178367
0002a0 e4 f7 92 bf d1 82 09 be 94 e4 bb bf e4 9a e0 3e
       -1.14819 -0.13428809 -1.4679132 0.43868172
0002b0 03 c0 33 bf a7 cb 23 be 32 0b b1 be 18 54 8e 3e
       -0.7021486 -0.15995656 -0.34578854 0.27798533
0002c0 91 18 b7 be 7a c7 c3 be 09 19 ee be bf fe e6 be
       -0.3576093 -0.38238126 -0.46503475 -0.4511623
0002d0 ba c2 9e bf c9 47 c4 be bd eb 2a be 66 06 ff be
       -1.2403176 -0.38336018 -0.1669149 -0.4980957
0002e0 eb 1d 76 3d 96 bb c3 3e 77 fc 16 bf b6 5b ad be
       0.060087126 0.38229054 -0.5897898 -0.33859032
0002f0 d4 58 06 bf 8c 1a aa bd fa c5 77 3d 5a 25 98 3e
       -0.5247929 -0.08305845 0.06049154 0.29715997
000300 32 c1 c0 3e 1f 86 55 3e 63 50 05 bf 1c f8 13 bf
       0.37647396 0.20851944 -0.52075785 -0.5780046
000310 d6 fe 79 be d0 2c 09 3f 1a 3a 2c 3c 3c 22 36 be
       -0.24413618 0.53584003 0.010511899 -0.17786497
000320 f7 b3 b9 3e 1a ef e4 ba 73 97 d7 3e 2f e4 f6 be
       0.36270115 -0.0017466277 0.42107734 -0.48220965
000330 35 06 ff be 33 2c bb bd b6 17 2c be fd 88 5b 3e
       -0.49809423 -0.0913929 -0.1680592 0.21438976
000340 c1 9b f9 3c ed 28 5c be dd 86 e3 be a8 42 24 be
       0.030469777 -0.21499987 -0.4443883 -0.16041052
000350 62 03 aa be 2e 51 4c be 1c c7 30 3e 23 44 07 3c
       -0.33205706 -0.19952843 0.17263454 0.008255991
000360 a4 6d 33 be 5a 42 e8 bc bf cc 26 3f 5a 88 9b bd
       -0.17522293 -0.028351951 0.6515617 -0.07594366
000370 eb fc cb 3e 3c 00 e6 3e 52 0c fb bd 7f 2f 0a bd
       0.398414 0.44922054 -0.12258209 -0.033736702
000380 14 ed d0 be 8e dc 86 bc d5 35 2c bc 15 35 96 3e
       -0.40805876 -0.01646259 -0.010510881 0.29337373
000390 ee 96 85 3d 2b c7 21 bd 21 d2 11 be 27 5d 7a 3e
       0.06522928 -0.039496582 -0.14240314 0.24449597
0003a0 f5 1d 3a 3d c9 fd 1b bf f1 4a 78 be be 44 12 3e
       0.045438726 -0.6093412 -0.24247338 0.14284036
0003b0 aa d0 1d be 6b 57 a1 bd 4b 45 c2 be 6a 89 3e 3f
       -0.1541163 -0.07878002 -0.3794349 0.7442843
0003c0 b3 c5 92 be 61 9c 45 bf 83 fa 8a 3e 38 a3 92 be
       -0.28666458 -0.7719174 0.2714425 -0.2864015
0003d0 a1 f7 ae bd 76 15 b4 3e af e1 e7 3e 15 ee 94 3d
       -0.08543325 0.35172623 0.4528937 0.07271973
0003e0 2e 2f e0 3e a0 20 5a 3e 75 d8 a0 3e 68 30 85 3b
       0.43785995 0.21301508 0.31415144 0.0040646084
0003f0 e2 55 74 bf 9e af 13 3e 58 80 1a 3f c7 96 7f bd
       -0.95443547 0.14422461 0.6035209 -0.06239965

fc2.bias f4 [64]
000000 24 37 4a bc a2 95 81 bd b5 df b2 bc f0 3a 2d bc
       -0.012342248 -0.06327368 -0.021835187 -0.010573134
000010 b3 31 a1 3e dd 46 bb 3d a5 61 a1 bd f6 93 f8 bc
       0.3148323 0.091443755 -0.07879952 -0.03034399
000020 a8 dd d3 3d 45 8b a0 b9 3d ec 98 3c 55 77 ca bd
       0.10345012 -0.00030621342 0.018667335 -0.09886042
000030 53 2e 1a be 56 32 c1 bd db e9 8f 3d a6 75 1f 3f
       -0.15056734 -0.09433429 0.07027026 0.6228889
000040 4f ed 7e bd bd 84 7c 3e 50 06 e0 3e f0 1e db 3e
       -0.062238034 0.2466001 0.43754816 0.4279704
000050 01 d0 34 3f 51 95 1b 3f 5d c3 0c 3f 91 b2 f1 bd
       0.7062989 0.60774714 0.549856 -0.11801637
000060 0e d4 a2 3d b7 41 00 3f 21 cf 61 3e dc 0e 90 3e
       0.079506025 0.5010027 0.2205167 0.28136337
000070 a9 6c 00 3e b3 ec b0 3c 6d f2 93 bd db 7e f0 3e
       0.1254145 0.021597242 -0.072239734 0.46971783
000080 d8 68 28 3f 83 94 da bd 91 9d 35 3f 73 4b 22 be
       0.6578498 -0.106728576 0.7094355 -0.15849094
000090 e9 a8 2a 3d 3e 70 b8 bd f9 57 d1 3e 1b 5b 85 bd
       0.04166499 -0.090057835 0.4088743 -0.065115176
0000a0 77 c5 2a be 8d 54 16 3f be d0 ca bd 37 30 26 3f
       -0.1667689 0.58722764 -0.09903096 0.6491732
0000b0 29 f4 8c 3c ce a5 ac 3a 71 0f 0b bd a9 c2 96 3e
       0.017206268 0.0013171972 -0.033950273 0.2944539
0000c0 3c 32 72 3d 2e 57 e9 3d e3 6b fb 3d 08 cd 64 bd
       0.05912994 0.11393581 0.12276437 -0.055859596
0000d0 74 90 d7 3e 8b e6 04 3e 18 9c c1 bc b0 4e 81 bd
       0.42102396 0.1297857 -0.023634002 -0.063138366
0000e0 29 84 41 3f 18 d8 6e 3e 8f 2f 5c be 79 00 39 3e
       0.75592285 0.2332462 -0.21502517 0.18066587
0000f0 7e c7 bd 3d f7 8b 64 3e 15 65 a6 bc 85 eb 96 3e
       0.09266566 0.22319017 -0.020311872 0.29476562

out.weight f4 [4, 64]
000000 ea d3 94 3e 9f eb ad 3e b3 03 7b be 7c c5 20 3e
       0.29067928 0.33968827 -0.2451313 0.15700334
000010 70 90 b2 3d 8e 00 57 3e 71 e0 98 3d 83 d0 fc bd
       0.087189555 0.20996305 0.07464684 -0.12344458
000020 b4 13 70 3e 95 1c 33 be c7 ae b1 3d fa 34 40 3d
       0.23445016 -0.17491372 0.08675914 0.046925522
000030 d4 59 7f bf 6d da 89 bc 4d 65 1f 3e cc f1 89 3e
       -0.9974644 -0.016827786 0.15565987 0.2694229
000040 65 6b 07 3d be b4 8f 3e ea 81 3b 3e cd 5c 78 3e
       0.033061404 0.28067583 0.18311277 0.2425415
000050 2b 9b 85 3e 3e f5 3c 3e 66 d2 ed 3d ab 6f e1 3d
       0.26094946 0.18452927 0.11612396 0.11007627
000060 58 54 a1 3d e6 e6 5b 3e 47 0b b6 3e f6 39 3a 3e
       0.078774154 0.214748 0.3555548 0.18186173
000070 c5 28 a4 be 2e 98 9e 3c 73 29 5e be 59 a6 7c 3e
       -0.32062355 0.019359674 -0.21695499 0.24672832
000080 80 8d 1a 3e da 41 a0 3e a9 98 77 3e e2 22 19 bf
       0.1509304 0.3130024 0.24179329 -0.5981885
000090 be 41 32 be 9d 45 14 bf 31 16 88 bd cf 29 f2 3e
       -0.17407891 -0.5791872 -0.06644858 0.47297522
0000a0 2e 26 a8 bd f5 18 53 3e 6e db 6b bf 1c cc 12 3e
       -0.08210407 0.20614989 -0.921317 0.14335674
0000b0 91 86 7f be 14 14 69 3e 38 4a 96 3d 4d eb 95 3e
       -0.24953677 0.22761565 0.07338375 0.29281083
0000c0 70 e4 2e 3d 90 aa bc 3e 94 3c 35 bd 38 4d 1f bf
       0.042698324 0.3684888 -0.044247225 -0.622272
0000d0 14 92 8e 3d 0e 22 7b 3e 4f 12 54 3e 82 60 4f be
       0.06961456 0.2452471 0.20710109 -0.20251659
0000e0 c3 42 83 3e a9 fd 46 3e cb 35 ef bd ed f9 61 3e
       0.25636873 0.19432701 -0.11680182 0.22067995
0000f0 62 92 57 3d ce a9 7a 3e 83 84 dc bd 1e 4a c2 3c
       0.052629836 0.24478838 -0.10767462 0.023716982
000100 66 b9 62 bd d2 d3 d2 3e 7b 50 3c be 4f 2b 97 3e
       -0.05535259 0.4117723 -0.18390076 0.2952523
000110 8b 13 79 3e 0d 2f 33 3e 28 7c a9 3e 79 9e d1 bd
       0.24323861 0.17498417 0.33102536 -0.102353044
000120 3b df 8b bd 07 45 31 be a6 cc 12 3d 4e 1b cb 3d
       -0.06829687 -0.17311488 0.0358397 0.09917317
000130 3e b4 1b 3e b0 f3 bd bd d6 68 90 3e ab df 88 3e
       0.15205476 -0.09274995 0.28204983 0.26733145
000140 a1 0b 3e bb 9f 43 70 3e 19 37 83 3e be 1a 9a 3e
       -0.002899863 0.23463295 0.25627974 0.30098528
000150 01 87 25 3e a9 95 50 3e c9 01 99 3e 8e f9 92 3e
       0.16164781 0.20369591 0.29884174 0.2870602
000160 2a 1e 4d 3d 68 bf 8e 3e 89 72 9e 3e a0 2c 85 3d
       0.050077595 0.27880406 0.30946758 0.06502652
000170 34 51 9e bc dc 69 ff 3d 19 50 a9 bd c2 71 67 3e
       -0.01932583 0.12471363 -0.082672305 0.22601989
000180 a9 26 ec 3d 9a fe 4f 3e 8f cd 57 3e af f9 30 3d
       0.11530811 0.20311967 0.21074508 0.043206867
000190 e2 8d 02 be 79 93 16 3e e7 4e c4 3e 23 b2 dd 3e
       -0.12749436 0.14704694 0.38341448 0.4329997
0001a0 1e f7 41 be 54 d7 82 3e 24 44 f5 3b 81 07 0f 3e
       -0.18941924 0.25554907 0.0074849296 0.13967706
0001b0 b5 2d c3 3d 25 29 2b 3e 78 70 33 bd 2a 61 95 3e
       0.09530202 0.16714914 -0.04380843 0.29175693
0001c0 e6 6e 29 3d 50 f7 be 3e 40 df 16 be f7 c3 7d bd
       0.041365527 0.3729806 -0.147336 -0.061954465
0001d0 ae 22 73 3e 36 26 a1 3e 78 97 b7 3d 44 60 41 3c
       0.23743698 0.31474465 0.08964437 0.011802737
0001e0 18 d3 30 3e 54 18 0f 3e 44 9e a7 bd 74 29 e9 3d
       0.17268026 0.13974124 -0.08184484 0.1138486
0001f0 c7 6e 68 3e f2 4f 55 3e 71 aa 0f 3e f4 fa 16 3d
       0.22698508 0.20831278 0.14029862 0.03686042
000200 02 f9 ae be bb d1 30 bd 43 43 e5 be d0 62 db 3d
       -0.34174353 -0.043168765 -0.4477788 0.10712206
000210 66 80 58 3e b4 00 05 3e 55 cf ca 3e 8d e3 7a 3c
       0.2114273 0.1298855 0.39611307 0.015313041
000220 38 09 14 3d 78 35 88 3e b7 27 a5 be ff a3 03 bf
       0.036141604 0.26603293 -0.32256863 -0.51422113
000230 64 65 ed bb e4 09 13 be 54 f9 65 3e c3 1f 0b 3e
       -0.0072447527 -0.14359242 0.22458392 0.13586335
000240 d5 82 44 be 2a 6b f9 3e 4c 69 dc 3d 2d bb 24 3e
       -0.19190533 0.48714572 0.10762271 0.16087027
000250 64 37 81 3e 6a bb 8a 3e 87 8c 0b 3e 71 b3 af 3e
       0.25237572 0.2709611 0.13627826 0.3431659
000260 87 75 0f 3d d3 80 6d 3e 7c 7a bc 3c 45 3f fa 3d
       0.035024192 0.23193674 0.023007624 0.12219099
000270 b6 38 9a 3e e5 fd 0e 3e 97 57 07 be 61 26 ad 3e
       0.30121392 0.1396404 -0.13217007 0.33818343
000280 12 3e 93 3e 3f f0 aa be a4 3c 46 3e 5b 4e 9a 3e
       0.28758293 -0.33386418 0.1935907 0.30137905
000290 22 ac 78 3f 4a 72 98 3e 04 be 1c 3e d8 7a e2 3d
       0.97137654 0.29774696 0.1530686 0.11058587
0002a0 a4 9e bb be 8a 90 4f 3e 9d 74 61 3e f0 7e 75 3e
       -0.3664447 0.20269981 0.2201714 0.23974204
0002b0 2e 84 f4 be 84 c3 1a be e6 d4 eb bd d4 87 41 3e
       -0.47757095 -0.15113646 -0.115152165 0.1889947
0002c0 68 0d eb 3d 12 4b 09 3f 67 77 8c bf 04 51 02 3e
       0.114771664 0.53630173 -1.0973939 0.12726218
0002d0 c5 9c 6c 3e a9 fd f2 3e 7f 69 1d 3e e8 d3 c2 3e
       0.23106678 0.47459152 0.15372275 0.38052297
0002e0 27 65 5a 3e e6 7c 1b 3d 29 53 3d 3e ef 88 7e 3e
       0.21327649 0.03796091 0.18488754 0.24856924
0002f0 a7 dc 91 3e 97 74 b8 3c dd ea b6 3e fb fb 95 3c
       0.28488657 0.022516532 0.3572606 0.01830863
000300 a7 6e 06 3e 6d b7 e0 3e bf f1 f6 be 47 ed 3b 3e
       0.13128148 0.43889943 -0.48231313 0.18352233
000310 58 5a a9 3e 5e 0b 8a 3d 2b d6 35 3e ed e2 76 be
       0.3307674 0.06740449 0.1775748 -0.24110003
000320 a7 cb a7 3d e7 be 22 3d c5 be 1b be 39 db 55 bf
       0.081931405 0.03973284 -0.15209492 -0.8353763
000330 96 2e a2 3e 76 ca 00 3d 8c bb 31 3e bd 31 55 3e
       0.31676167 0.03144308 0.173567 0.20819755
000340 e8 80 af 3e 87 e2 90 3e 14 af 2d 3e 6b 07 0c 3e
       0.34278035 0.28297827 0.16961318 0.13674705
000350 3e b4 17 3e 3b 34 2f 3e ed 4f 13 3e ef 2c c8 be
       0.1481485 0.17109768 0.14385958 -0.39096782
000360 75 be 56 3e 3b 83 f1 3d 06 63 16 3e 7f 5c 2d 3e
       0.20971091 0.11792608 0.14686212 0.16929816
000370 6b b0 78 bd f5 f5 a4 be bc d9 8c 3e 70 f8 92 3e
       -0.06071512 -0.322189 0.27509868 0.28705168
000380 ad 8b 72 3e a6 e6 3d be d5 69 6d 3e ea 70 4d be
       0.23686095 -0.18545017 0.23184903 -0.20062605
000390 e5 cc 2e 3f c6 df 8c be 82 22 4e 3e 54 c5 13 3f
       0.68281394 -0.27514476 0.20130351 0.57722974
0003a0 53 5b ae 3c 75 42 84 3e 34 4b b8 be 2b 55 87 3e
       0.021283781 0.25831953 -0.35994875 0.26432166
0003b0 a9 5d 8c 3e 56 df 77 3d 15 67 10 bd a9 ea 87 3d
       0.27415207 0.060515724 -0.035254557 0.06636555
0003c0 10 de 9b bd 90 32 23 bd fb b5 84 bd ae 86 b1 3c
       -0.076107144 -0.039843142 -0.064800225 0.021670666
0003d0 a1 1e c2 3d 6f 40 cc 3d 19 93 39 be 65 e6 0a bf
       0.09478498 0.09973227 -0.1812252 -0.54257804
0003e0 55 f8 67 3e 8e f9 f5 bd 72 db b9 bc 9c 38 ac bc
       0.22653325 -0.120104894 -0.022687647 -0.021023087
0003f0 1f 5b 36 3e d3 30 63 3d 50 aa 07 be e2 c0 b9 3e
       0.17808197 0.055466484 -0.13248563 0.3627997

out.bias f4 [4]
000000 29 60 10 3f 5c 67 98 3e 51 c8 ed 3e 78 dd 13 3f
       0.5639673 0.29766357 0.46441892 0.5775981
