p3_collab-compet/checkpoint.pth (torch_old, 125253 bytes, 34 tensors)

fc1.weight f4 [64, 24]
00000000: db2e 27bd 997f d2bc bc35 8cbd eca9 7d3b
00000010: f85b 80bd 9cda 3c3c b612 c63d cd75 a63c
00000020: 4677 553c e857 053e bd17 683d 6248 6bbd
00000030: 87b6 7d3d 5bcd 683d 67f9 7e3d 4a0e 193e
00000040: 0e2a a83d 9dfc 84bd 90d8 c33d d8ef 88bc
00000050: 7259 80bd 3623 7c3a b997 39bd 51c2 1f3e
00000060: 62c0 99bd 9a68 063d ee02 45bc c884 47bd
00000070: 7b99 703d 0665 27be f0e0 f7bc 9427 583d
00000080: 15ce 343d 4648 d13d 9c6e e6bd 2ca9 9cbd
00000090: 31e5 0cbd 9854 60be 5551 063d 881b 58bd
000000a0: ebc0 81bd 2c72 683d 5c97 3d3c 2d14 4a3d
000000b0: c547 8bbd c04d 13be 501e 993d 9d3c ea3d
000000c0: 07a3 48be 9a5d 51bd 1fdb 3f3d 8c36 a3bd
000000d0: 7f9d c73d 809f e73b 9f74 8cbd c4ee d83d
000000e0: 466d d5bd 2022 593e 8416 9f3c 6f6e c0bc
000000f0: 90ff 123d 19bf 113d cb31 a7bd 0957 0abc
00000100: 28b5 c8bb 976a 01bc a855 5b3c c888 353d
00000110: eabc 0a3c 73d0 5ebe 6421 25bc 7061 c63d
00000120: 8f0e 08be e403 f0bd 23dc 393d 9aa4 e4bb
00000130: 685a 5f3d cf6f 513e 9704 593d c470 00bd
00000140: 0a80 e4bd b7d4 70bd 96cd 3abd 8479 debd
00000150: 08d7 fb3d 289d 8c3c 0345 0e3c f955 003c
00000160: f239 6fbd b2e6 d43c 272d 0a3c eceb 83bd
00000170: a734 87bc 1749 0fbe 2c31 89bc 9762 233d
00000180: 82a8 e63d 567e bf3d e174 6f3d ec12 9dbc
00000190: 110a 11be 351e 733a 442d 85bd 902f edbd
000001a0: 4c6c b73c a7bf c83d 3f2f 8dbd 0fc2 3c3c
000001b0: db9f 2ebe 43e2 8d3c 45f4 6a3d 8165 c53b
000001c0: c853 f13d dd99 5cbd b3ec 953c 6557 c63d
000001d0: 6ca7 3e3c fc26 4c3c a460 943d 4392 a83d
000001e0: 42df d8bd f1ca 223e 74af c33d 1c76 eabc
000001f0: 6ef7 e23d 21ec d4bd 10df 193d 6c73 943c
00000200: 2f62 b3bd 3194 e53d 6285 61ba 7c48 c1bd
00000210: e38e 0a3e 52ee 4cb9 ae17 f5bc a677 873d
00000220: 4af6 75bd ed3b a13d 2b2d 84bc a812 61bd
00000230: b8ac 043d b140 343d 3918 923d 3353 b43d
00000240: 2ff2 c63c fb4a ea3d c6c2 85ba 133d 47bd
00000250: 245a 643d 3357 17be 92e9 7e3d 29cb 00bd
00000260: 61b9 b3bd 683c 0f3d 8abc ab3d 15e6 f6bb
00000270: f145 e1bd 9cac 43be 7870 e73c b2b1 9ebc
00000280: 135e ee3c cda0 5b3b c745 643d 0f01 d8bd
00000290: 4642 d2bd 5108 063e 1ff5 363d a8b3 b4bd
000002a0: 39d9 d0bd cce5 1c3e 4d8d d23c 6a60 ff3d
000002b0: 2022 56bc 65f1 20be 2bfd b63c c363 86bd
000002c0: 3b8c 7f3c efc6 153d c1df 193d 05ca 6fbd
000002d0: 9872 5d3d c265 8dbd 2a8e 90bc f916 833d
000002e0: 59fc fbbd 123b b9bd a40a 80bc dab9 353d
000002f0: 648e 953d 3254 2cbd 8b36 74bd a548 a53d
00000300: d3af b9bd cc61 9fbd d0d8 35bd 4e3c ae3d
00000310: 3f8a 28bd 1e33 643d 4625 0abd 107d c23d
00000320: 9713 73bd 5f0e 9c3d bbf2 91bd 9d95 b9bc
00000330: 3485 073e 23f5 1cbc ddbb bd3d d2ae c9bd
00000340: ff75 ad3d b5b9 b73d c16c 963d 2a69 5fbd
00000350: 065d d73b 42b5 20be f908 38bd f0c3 5a3d
00000360: eda3 4ebd 68af a2bc 5fb1 02be 1255 78bd
00000370: 334f 41bd cca6 48bd a33c 893d dd32 a5bd
00000380: afd9 79bd 0a74 783d f260 98bc da63 bc3d
00000390: e7f8 be3b d68a 11be 42ad 2b3c 7547 0c3c
000003a0: d969 6d3b 978c 2bbc 3ef1 773d 40b5 f1bc
000003b0: 5dda 48be 7cff a3bd e4c0 5abd d15b adbd
000003c0: a850 74ba 65f5 9e3b eefc c13d 382c 023e
000003d0: 10a2 98bd 85a2 b5bd e8a4 94bd 0370 8fbb
000003e0: 7810 cabc 6eb1 fb3c 8f95 933d d46f b03d
000003f0: adc2 efbc cd5f 05be 17ef 69bc 5a03 b93c
-0.04081617 -0.025695609 -0.068461865 0.0038706018 -0.06267542 0.01152673 0.096715376 0.020319844
0.013028925 0.13021815 0.056663264 -0.057442077 0.06194165 0.056836467 0.062249567 0.14946857
0.08211146 -0.06493495 0.095627904 -0.016715929 -0.0626706 0.0009618284 -0.04531071 0.1560147
-0.07507397 0.0328146 -0.012024624 -0.048710614 0.05874012 -0.16347131 -0.030258626 0.05277212
0.044141848 0.10218863 -0.11251566 -0.076494545 -0.03439826 -0.2190727 0.032792408 -0.05276063
-0.06335624 0.056749508 0.011571731 0.049335647 -0.06800798 -0.14385128 0.07476485 0.11437342
-0.1959344 -0.051114656 0.04683983 -0.07969388 0.09746837 0.0070685744 -0.06858181 0.10592416
-0.10421233 0.21204424 0.019419916 -0.023490159 0.035888255 0.035582636 -0.08163794 -0.008443602
-0.006125111 -0.007898948 0.013387121 0.044319898 0.008467892 -0.21759205 -0.010078762 0.096865535
-0.13286804 -0.11719492 0.045375954 -0.00697763 0.054529577 0.20452808 0.052982893 -0.03135754
-0.11157234 -0.05879661 -0.04560622 -0.10863021 0.12296873 0.017164782 0.008683446 0.0078329975
-0.05840487 0.02598891 0.008433617 -0.06441483 -0.016504599 -0.13992725 -0.01674708 0.039888944
0.11262609 0.093502685 0.058461074 -0.019174062 -0.14163996 0.00092742156 -0.06502774 -0.115813375
0.022390507 0.0980218 -0.06893777 0.011520877 -0.17053168 0.017319804 0.05736186 0.006024063
0.11783558 -0.053857673 0.018301344 0.09684638 0.011636596 0.0124604665 0.07244995 0.08231022
-0.10589458 0.15897729 0.095549494 -0.028620772 0.1108235 -0.103966005 0.037566245 0.018121444
-0.087589614 0.11209906 -0.00086029444 -0.094376534 0.1353107 -0.00019543737 -0.029918518 0.06614618
-0.060049333 0.07872758 -0.016134819 -0.054949433 0.03239128 0.044007007 0.07133526 0.088049315
0.024285404 0.11440083 -0.0010205142 -0.04864223 0.055750027 -0.14779358 0.06223447 -0.03144375
-0.087755926 0.034969717 0.0838557 -0.007534752 -0.109996684 -0.19108814 0.028251871 -0.019371841
0.029097592 0.0033512593 0.055730607 -0.10547077 -0.10266547 0.1308911 0.04466736 -0.08823329
-0.10197682 0.15322036 0.025702143 0.124695614 -0.0130696595 -0.15717085 0.022337517 -0.06561997
0.015597398 0.03656667 0.037566904 -0.05854227 0.054064363 -0.069041744 -0.017645914 0.06400866
-0.12303991 -0.0904447 -0.015630074 0.044366695 0.073025495 -0.042072482 -0.05962233 0.080704965
-0.09066739 -0.07782325 -0.04439622 0.08507596 -0.041147467 0.05571281 -0.033726953 0.0949651
-0.059344854 0.076199286 -0.07126375 -0.022654349 0.13234407 -0.0095799295 0.09264348 -0.098477975
0.084697716 0.08970968 0.07344962 -0.05454365 0.0065723686 -0.15694144 -0.044930432 0.053409517
-0.0504493 -0.01985903 -0.12762974 -0.060628004 -0.04719467 -0.048987195 0.06701019 -0.08066342
-0.060998615 0.06065754 -0.018600915 0.09198733 0.0058280113 -0.14213118 0.01047832 0.008561959
0.003622642 -0.010470531 0.0605328 -0.029505372 -0.19614549 -0.08007714 -0.05340661 -0.08464778
-0.000931988 0.0048510307 0.09472071 0.1271218 -0.07452786 -0.08868889 -0.07258016 -0.0043773665
-0.024666056 0.030724254 0.072062604 0.086150795 -0.029267633 -0.13024826 -0.014278195 0.022584606

fc1.bias f4 [64]
00000000: 5b16 c7bd d051 a73d 6bb0 6a3e e6d8 4c3e
00000010: 964c 3a3d 4c05 3d3c e687 0b3e 3dd6 b03d
00000020: ee70 473e f509 643e a0ba a03d 3c41 193e
00000030: 23cc d93c 7b1b 713e 87bb d03c eed4 263e
00000040: 3634 903a ccff 80bd ad7f 5f3e 13a3 72be
00000050: de68 77bd 55c0 2a3e ccb2 3f3b 4131 65be
00000060: 1ada 2bbd c24d cc3d 35a7 d7bd 3b20 813d
00000070: 361b 533e 8dce 8a3c f3d2 03be 1de1 fb3d
00000080: 56f9 2a3d 104d 393e 61ed ba3d 0598 643d
00000090: 920f 26be 14d1 09be c123 35bd 69a9 96bb
000000a0: 61ee 373d 589a 8a3e 45f4 d53d d464 6a3e
000000b0: fe90 6e3d 559a eabd 99d0 7d3d 7eac 98bd
000000c0: 8ece a3bd 53ef dabd 588f fdbd 1b3c b23d
000000d0: 370c 273e 035f b3bb 4bbc 833d 25d0 28be
000000e0: 525e 813e 64f7 513d 000d 66be a31e 15be
000000f0: 013c ab3d 5065 553e 0631 1d3e f555 3abe
-0.09721061 0.08169901 0.2291886 0.20004615 0.045483194 0.011536907 0.1362606 0.08634613
0.19476673 0.22269423 0.07848096 0.14966291 0.026586598 0.23545639 0.025480045 0.16292164
0.0011001888 -0.062987894 0.21826048 -0.2369502 -0.060402744 0.16674931 0.0029250858 -0.2238207
-0.041956045 0.099757686 -0.10529939 0.063049756 0.20615849 0.016944194 -0.1287344 0.12298796
0.04174169 0.18095803 0.09127308 0.05580904 -0.16216877 -0.13458663 -0.04422355 -0.004597832
0.04490507 0.2707088 0.10446981 0.22890025 0.058243744 -0.11455218 0.061966512 -0.07454775
-0.079983816 -0.10690179 -0.12380856 0.087028705 0.16313253 -0.0054739728 0.064323984 -0.16485651
0.25267273 0.05126132 -0.22465897 -0.14562468 0.08361054 0.20839429 0.15350732 -0.18196853

fc2.weight f4 [64, 64]
00000000: d8a6 e43d a5aa d13d 9654 303c b473 cabd
00000010: a10f 1b3d 1a72 3c3d a4a4 a8bc 5f9f 573d
00000020: 8934 743d a788 5e3d 17ea 6bbd 08b2 45bd
00000030: 173d 94bd d2f7 cf3d 9bda e43c 7335 30bd
00000040: 7c78 90bd 66fa a7bd ef04 af3d 4723 323d
00000050: 23b0 ecbd 488f 5f3c a77b 593d 8602 d13d
00000060: 62e9 2f3d e6e3 cebc c803 d83d ae45 dfbd
00000070: 4b08 abbd e644 c03d c00c f3bd 120b 823d
00000080: 8198 b5bd 850c 673d b602 0d3e 40b1 ebbd
00000090: 19d7 a4bc 9346 71bb 36cd acbd bc66 e6bd
000000a0: 1ef0 e4bb f163 133e d15a 23bd 9e2e 7b3d
000000b0: 7fc6 153c 5742 95bd 79bf bdbd 922f a0bc
000000c0: 0538 89bd f29c f038 15ac 26bc a062 a7bc
000000d0: 19fb 43be 4bdf 433d 1885 bebd e077 b4bd
000000e0: e4d9 793b a9bb 103d 689d 0d3d 1229 08bd
000000f0: e8ab 1a3e 70ff 14be e343 263e 683b 563c
00000100: b5fc a7bd e4af b8bd 6530 11be 45e8 1f3c
00000110: 49bd 423c c574 e8bc a5ba f23c d9a8 1abe
00000120: f5ce 0abe 7395 4a3d 9f5b 0a3d 19ea 0f3e
00000130: cdb1 883d 1e7c f9bd 9d4b a83d c133 bebb
00000140: e7e6 91bd 9861 01be d276 203e 8b30 dfbb
00000150: b304 9b3d c3ef 56bd 124c 423c 79a3 2fbd
00000160: 2e91 4e3d 5b52 b83d f16a 38bc 06a7 c33d
00000170: 6d23 423c 753e c53a f47f 7d3d 7311 dabd
00000180: 16aa e8bd 10b9 e23c 01b4 83bc 881d 323d
00000190: 6548 0dbc 9f5e 1b3d 3559 bbbb 42a8 85bc
000001a0: a5ec aebd d90e e13d 0467 8c3d 52ba d63d
000001b0: 15be 2fbd 0770 c23d a954 be3d b2d6 d23d
000001c0: 9c78 923d f86b 01be 0f62 11be be4f b33d
000001d0: 2b2e d73c 8465 bbbc 5427 77bd 4503 4dbd
000001e0: 77ac 74bc 5143 a33d 8cce 66bd 5521 e93c
000001f0: f786 f9bd 1167 973d 71c0 d3bd 4417 083e
00000200: 8943 ab3d dad6 11bc 54e3 25be 6e87 b8bd
00000210: 0fbc 8fbc 3463 a63d f257 d63d 8e74 63bd
00000220: ac97 96bd b222 863d 7af7 ddbd b5fa 9cbd
00000230: 3f93 ae3d 420c 093e dc51 033e ee55 883d
00000240: d4db 07be cfdc bcbd 9157 e93d d1d5 7bbc
00000250: 0162 f5bc 30d1 5fbd 5b48 48bd cdfa 283c
00000260: 2bd2 cebc e54b 90bc 2ebe a63c c06e 203e
00000270: ea22 1dbd ee60 363c 3793 12be 7922 cabc
00000280: bd3e 70bd e4b8 f4bd 4067 753d eaa2 a0bd
00000290: 52a6 b6bc 5fd8 453c dd07 14bd de4e 243d
000002a0: 3b06 2bbd 147a 953c 5e95 32bd b421 c43d
000002b0: f310 ca3d 3246 d0bc 759a 87bd ecd4 9f3d
000002c0: 1bcc 1dbc a76d bdbd 8cf2 97bd 149d 5bbd
000002d0: 3c48 2cbd 530c 8b3d 22c7 0bbe f36d 1a3d
000002e0: 3ed1 163c b8c0 90bd c318 933d 9346 ac3a
000002f0: fb86 1dbe b93d 033d 2440 77bd e0fe a83c
00000300: e062 f2bd 16e6 bc3d af81 acbd 15ee 773c
00000310: 8a9a edbc b0c2 21bd 554b 90bd 2684 34be
00000320: 373d bebd 39dc a53d 248a ebbd b950 38bd
00000330: 10b8 17bd 7394 21bd 4806 42bc 0cb6 1ebe
00000340: 7067 803d cfde afbb 971a 26bd 353d d4bd
00000350: ee13 b0bd d50c 03be a89f 47bd 81f2 3d3d
00000360: 92b9 b13d f634 46be 19cf dd3d bf8b e3bd
00000370: d38a d63d 79db 483d 0528 8a3c 7dc6 79bd
00000380: 6f88 083d 92b5 fa3c f591 b23d 415a 923c
00000390: 7a2c 803d 3265 cebd cc13 803d c8f3 ecbd
000003a0: fefe 913d a133 e53d 759b 2d3c a570 83bd
000003b0: dcb3 debd 75ef 04be d878 b1bd 274a ee3b
000003c0: 72e7 a33c 5aba 48bd ffec 01bd 9099 99ba
000003d0: bde4 1abe 73f0 e9bd 9feb b83d e256 543d
000003e0: b3a2 d03c b360 b53d 23f2 8abd 2269 213d
000003f0: 5892 91bd 0a44 d9bb 8dd6 f23c e786 ca3c
0.111646354 0.10237626 0.010762354 -0.0988535 0.0378567 0.046007253 -0.02058632 0.052642222
0.059620414 0.05432954 -0.057596292 -0.048265487 -0.072382145 0.1015469 0.02793627 -0.043019723
-0.070542306 -0.082020566 0.08545863 0.043490674 -0.11557033 0.013645001 0.05309644 0.102055594
0.04294718 -0.025255155 0.10547596 -0.10901962 -0.08351191 0.09388141 -0.11867666 0.06349768
-0.088669784 0.056408424 0.13770565 -0.11508417 -0.020122098 -0.0036815747 -0.084375784 -0.11250064
-0.006986632 0.14393593 -0.03988153 0.061323754 0.009141563 -0.07288044 -0.09265036 -0.019553933
-0.06700138 0.00011473325 -0.0101728635 -0.02043277 -0.19138755 0.04782037 -0.09302729 -0.08811927
0.0038124258 0.035335217 0.034573942 -0.033242293 0.1510464 -0.14550567 0.16236834 0.013075687
-0.08202497 -0.090179235 -0.14178617 0.009759967 0.011885949 -0.028375993 0.029630015 -0.15103473
-0.1355551 0.049458932 0.033778783 0.14054145 0.06674538 -0.121818766 0.08217547 -0.0058045094
-0.07124119 -0.12634885 0.15670326 -0.0068112067 0.07569256 -0.05247475 0.011858957 -0.04288051
0.050431423 0.09000083 -0.011255966 0.095533416 0.0118492665 0.0015048521 0.061889604 -0.106478594
-0.11360566 0.027676135 -0.016077043 0.043485194 -0.008623217 0.037932035 -0.0057174214 -0.016315583
-0.0854123 0.1098916 0.06855586 0.104847565 -0.042905886 0.09494024 0.092934914 0.10294856
0.07151911 -0.12638843 -0.14197563 0.08755444 0.026267132 -0.022875555 -0.06034024 -0.050051946
-0.014933697 0.07971824 -0.056349322 0.028458277 -0.121839456 0.07392705 -0.1033944 0.13290125
0.08362491 -0.008901322 -0.162 -0.09010206 -0.017545728 0.0812439 0.10465993 -0.055531077
-0.07353148 0.06549586 -0.10838218 -0.07665006 0.08524179 0.13383582 0.12824196 0.06657015
-0.13267452 -0.092218034 0.11393655 -0.015370802 -0.029953958 -0.054642856 -0.04889713 0.010313702
-0.0252467 -0.017614314 0.020354357 0.15667248 -0.038363375 0.011131508 -0.1431397 -0.024674641
-0.058653582 -0.119493276 0.05991292 -0.078435734 -0.022296105 0.012075513 -0.03614031 0.040114276
-0.04175399 0.018246688 -0.04359948 0.09576741 0.09866514 -0.025424097 -0.06621257 0.078042835
-0.009631182 -0.0924943 -0.07419309 -0.0536166 -0.042061076 0.0678946 -0.13650182 0.037702512
0.009205161 -0.07068008 0.07182457 0.0013143591 -0.15383522 0.032041285 -0.060363904 0.020629346
-0.11835265 0.09223573 -0.08423173 0.015132447 -0.029004354 -0.03949231 -0.070456184 -0.17628536
-0.092890196 0.08098645 -0.115009576 -0.044998858 -0.03704077 -0.039448213 -0.011842318 -0.15499133
0.06269729 -0.005367137 -0.0405527 -0.10363237 -0.08597551 -0.12797864 -0.048736244 0.046373848
0.08677973 -0.1935614 0.10830516 -0.11110639 0.10475697 0.04903743 0.016864786 -0.06098031
0.03333324 0.030604158 0.08719245 0.017865302 0.06258483 -0.10077895 0.06253776 -0.11569935
0.07128714 0.11191488 0.010596146 -0.064179696 -0.10874149 -0.1298197 -0.08665627 0.0072720232
0.020007823 -0.049005844 -0.031720158 -0.0011718739 -0.15126319 -0.11422815 0.09029316 0.05184067
0.025468206 0.088563345 -0.06784465 0.039406903 -0.07107991 -0.0066304253 0.029643321 0.02472253

fc2.bias f4 [64]
00000000: d7ba c33d 677d 87bd 1d02 983d e26e e43d
00000010: 0d1f f3bd c9ed ad3d dcd0 b7bd 97d4 bdbd
00000020: cd5f 78bd 8c0d 493e 01e6 aa3c 8cfb 69bd
00000030: 5564 13be f95e d93d d96e dcbd 4ce9 b7bd
00000040: 09bf bbbd 6164 143e 4500 4a3d bec8 dcbd
00000050: c0a7 1fbd 876b ad3d ae65 cbbd e732 a3bc
00000060: 7642 4a3e 68d7 24be f41f 603c ede1 22be
00000070: ff60 e0bd e46b 87bd db8d ea39 8632 00bd
00000080: a21e 7ebd af0c 98bd 2b90 ae3d b2d3 9a3d
00000090: 2aab d6bd 0b33 a2bb e1e5 623e 0c78 373d
000000a0: 72e5 70bc e3af 703c cc8c f93d 3f96 bd3c
000000b0: 22ce 89bc c782 d4bc c3e5 c1bd 20c8 95ba
000000c0: 53b0 2c3e a789 813d 42d8 033e 44e8 12bd
000000d0: 2134 453e d822 3cbd 9acf 013e cea5 10bd
000000e0: a1e6 0dbd f00a d8bd b524 d43c b769 d2bd
000000f0: 5eb9 173c ed90 f63d 3644 613d def2 243e
0.09557121 -0.066157155 0.07422278 0.11153962 -0.11871157 0.084926195 -0.08975384 -0.09269064
-0.060638238 0.19634074 0.020861628 -0.05712466 -0.14393742 0.10613818 -0.1076333 -0.08980045
-0.091672964 0.14491417 0.049316663 -0.10780476 -0.03897834 0.08467775 -0.09931503 -0.019921733
0.19751915 -0.16097796 0.013679493 -0.15906496 -0.109560005 -0.066123754 0.0004473765 -0.031298183
-0.062040932 -0.07424294 0.085235916 0.07559909 -0.10481866 -0.0049499325 0.22158004 0.04479222
-0.0147031415 0.014690372 0.12185058 0.023142932 -0.016821925 -0.025941266 -0.09467652 -0.001142744
0.16864137 0.06325083 0.12875465 -0.035866037 0.19258167 -0.045931667 0.1267685 -0.035314374
-0.034643773 -0.10548961 0.02589641 -0.1027407 0.009260504 0.12039361 0.05499669 0.16108271

fc3.weight f4 [2, 64]
00000000: 56ab ad3c 9e3d 4fbd 353d cfbc 88d5 6dba
00000010: 0f3f 6b3c 985c ab3c 8888 34bb d20e 1dbd
00000020: 67f3 953d 60dd af3c 93ba 92bd 9fff d8bb
00000030: e001 13bd 5ca7 973c f7f2 77bc 4095 b83b
00000040: cddf aab9 e163 a63b 477d a63d 9d90 b8bb
00000050: fbc8 cc3b ab89 14bd 101d 4abd dd80 5f3a
00000060: 9d99 8e3c c828 55bc 5ad3 19bd 50c8 0cbd
00000070: 572b c4bc 5911 2b3c e51d b13b a42a d43c
00000080: 15cf ccbb 46ce ec3c 1e50 12bd 899b abbc
00000090: 7afc 74bc f6e3 17bc 72fa 773c 2cef 1b3d
000000a0: eed0 6bbc cfe5 c43b 5138 ab3c 049b 023c
000000b0: d545 90bd 28a0 c0bc f7bf 8b3b 9116 f23b
000000c0: 1f02 833c 039d 133d 6831 8a3c 5461 98bc
000000d0: 1efb b43c 09bb 47bd e2d7 193c 7731 a9bb
000000e0: f883 9cbb c5a7 43bd c585 07bb 5122 a7bd
000000f0: ba79 0335 9a1c 6dbc 045a 1abc 2d6d 973a
00000100: c663 fcbc 2bb9 783c 02e6 85bd be48 09bc
00000110: 735c f3bb bbca c1bb 46fc bdbd ca79 4c3d
00000120: 5532 5abd 0c37 cd3b d7de 653d a5fc 133d
00000130: ff44 82bc a94e fa3b c086 373d 5d45 bc3b
00000140: 55db 61bd 08c5 cdbc 202d f2bb d2f0 163c
00000150: eae1 fabc 5e66 09bd 4b40 b5bb a2b5 21b9
00000160: 46ac d9ba b943 01bd 02af 2abc b379 013d
00000170: 32a7 193d 278d 84bc f3cc 9e3c ba91 4cbd
00000180: dd78 b5bb 12f4 c2bc 78d6 3c3d 5ba7 513d
00000190: 89bc 28bd 53cc 2ebc 3145 bab9 568d e63c
000001a0: 77c1 4cbc d268 cb3c a8c6 743a 4a48 c2bc
000001b0: b7be ae3c 51b3 803c aff0 92bd cad9 ff3b
000001c0: ba76 dfbc d80c 673c 5636 173d fff3 94bc
000001d0: 5299 813b ad60 203c afad 1a3b 51f9 983b
000001e0: b55f 13bd 6a84 413d b49a 34bd bb7e 173c
000001f0: 9a58 683d 8fd0 153d 0f1c 443c 2616 053d
0.021199863 -0.050595872 -0.02529774 -0.0009072651 0.014358296 0.020918176 -0.00275472 -0.038344212
0.07321816 0.021467865 -0.071644925 -0.0066222693 -0.03589046 0.01851242 -0.015133611 0.0056330264
-0.0003259167 0.0050778245 0.081293635 -0.0056324736 0.0062495447 -0.036264103 -0.049344122 0.0008525977
0.017407233 -0.013010211 -0.037555076 -0.03437072 -0.023946447 0.010441148 0.005405175 0.025899239
-0.006250272 0.028906953 -0.035720937 -0.020948188 -0.014952773 -0.009270659 0.015135394 0.03806989
-0.014393074 0.0060088406 0.020900877 0.007971529 -0.070445694 -0.023513868 0.0042648274 0.007387944
0.015992222 0.03603841 0.016869262 -0.018601097 0.022092398 -0.048762355 0.009389849 -0.0051633674
-0.004776474 -0.04776742 -0.0020679098 -0.08160842 4.897844e-07 -0.014472151 -0.009420875 0.0011552923
-0.030809294 0.015180866 -0.06538011 -0.0083791595 -0.0074267923 -0.00591406 -0.09276633 0.049920835
-0.053270657 0.0062626656 0.05612072 0.036129612 -0.01590204 0.0076387716 0.044806242 0.0057455734
-0.055140812 -0.025118366 -0.007390633 0.0092126895 -0.030625302 -0.03354489 -0.005531346 -0.0001542182
-0.0016607128 -0.031558726 -0.010417702 0.031610202 0.037512966 -0.016180588 0.019384837 -0.049943663
-0.0055380897 -0.023798022 0.04610297 0.051184993 -0.041195426 -0.010668832 -0.00035528236 0.028143566
-0.0124972975 0.024830256 0.00093374634 -0.02371611 0.021331174 0.015710505 -0.07174813 0.007807945
-0.027278293 0.014102183 0.036917053 -0.018182753 0.003955045 0.009788674 0.0023602059 0.0046683927
-0.035979945 0.04724542 -0.04409285 0.0092465235 0.056725122 0.03657585 0.01196958 0.032491826

fc3.bias f4 [2]
00000000: 7dd6 6e3d a04e 993d
0.05831002 0.074857

b3.weight f4 [2]
00000000: 7043 3b40 a60a 0e40
2.925991 2.2194

b3.bias f4 [2]
00000000: 2686 07bf e85d 313f
-0.5293907 0.69283915

b3.running_mean f4 [2]
00000000: c04b f23c 1ea3 e23d
0.029577136 0.110662684

b3.running_var f4 [2]
00000000: b959 ec3a 53a7 b73b
0.001803211 0.0056046634

fc1.weight f4 [64, 24]
00000000: 39b5 0fbd 6fcc 53bd af7c 7dbd e207 eebc
00000010: 73e6 0fbb 61e7 1dbd 668a d33d 6a8e 4ebc
00000020: a50c d9ba 2020 c93d e8c7 623d ea02 94bd
00000030: 33be 013e c8eb 783d 07aa 793d abde 093e
00000040: c662 923d 7136 02be 282f c93d 8ae2 f6bd
00000050: a947 333d e95f fa3d 3aea 2ebd b7bc 553d
00000060: 3273 1ebd 7457 c5bd fb00 8cbc 8135 2cbd
00000070: 6fa6 593d f181 893d 53b0 10bd 1d77 733d
00000080: e555 d13d 91f2 92bc 36cf afbd a01b aabd
00000090: 93a1 99bd c333 053d 8390 733d e7ff 72bd
000000a0: e900 06bd bf81 ddbd 69dd a0bc e4d2 813c
000000b0: d7ed 49be d09e 513e 4468 323d 67a7 a53d
000000c0: f84c 02be 6cd0 b3bd 2431 2b3d 1624 d9bd
000000d0: ab34 f03d 46b3 ea3a 4eca 96bd 4601 a33d
000000e0: 9a09 75bd 0e6f 0a3e 4a92 b33c 10d9 40bd
000000f0: a027 a0bc 9a22 c53d f312 a2bd 8337 03bd
00000100: b193 023d f400 97bd 1a25 bbbc d2df 833d
00000110: 5955 a7bd 42a5 10be acaf 3dbd ae7c ef3d
00000120: 127f d4bd c3b7 953d 4164 b73c 1b6d 3f3d
00000130: 91d0 513d b047 923d dab4 f53c 2b22 b73c
00000140: f5c9 05be ca67 983d 0d25 5bbd 95b6 e2bd
00000150: f520 ef3d 0251 88bd 0a63 4e3a e1d8 bc3b
00000160: c452 6fbd 2b04 0f3e 06d1 083c 0dd5 27be
00000170: 1bdd aebb 8f24 6dbe 24df 89bc 0b1a 74bd
00000180: 8bbf 453e 6904 963d a532 873d cf6b 0ebd
00000190: 2fe1 5ebe 6f55 30bc 7569 6bbd 8090 06be
000001a0: 9afc ad3d a479 593d 0a42 4ebd 9464 32bd
000001b0: 64da 4bbe 5383 9c3d 9d88 9b3d 8ae8 48bd
000001c0: 0fcc 403e 5730 0cbe 4e52 4ebc faaf c1bc
000001d0: aafa 1a3d 5838 033e ac36 2a3d b862 1cbd
000001e0: bb84 18be f13c ce3d ccf5 5a3d 1476 a7bd
000001f0: 266a 983c b15f 31be 6250 94bb 9a77 0fbd
00000200: b3c3 dabd 4cea 263d 0562 5a3c cdcc 0fbe
00000210: 1655 233d c656 47bd 46da 80bc d397 a43c
00000220: 3d9a b7bd 610b 3abc e5a5 bbbc 914d 8dbd
00000230: 3dcb 1d3d 507a 4d3d cc39 843d b18e 973d
00000240: 51e9 0f3d 5ae6 c13c 6528 5ebc f38b 77bd
00000250: d2e5 153e baa9 55bd e58d 4b3d c31a 31bd
00000260: 1e24 97bd 83a9 c3bc bf42 d33d 804c deba
00000270: a319 91bd 1b29 02be 4ec4 423d 88ba 5dbc
00000280: ca66 433d 0cae 9dbc 4ea5 5d3d 6d4e f8bc
00000290: d0c8 96bd df05 353e d454 303d 8433 56bc
000002a0: d751 42bd bfdb 813d 1b89 ac3c dbb8 b03d
000002b0: fad3 d23d d2b8 23be 5cf9 903c 990b d5bd
000002c0: ae4c 9c3d b0ba 2dbd ec28 633d ab37 0fbd
000002d0: ffb0 cf3d 4c96 9ebc 7e05 8139 6660 b33d
000002e0: 896e 7dbd 7657 1bbe 486c f4bc a8e7 a03d
000002f0: 51ab 923d 38ad 853d 5a33 97bd b253 eb3d
00000300: 0491 17be da15 183c b7cd 21bd 97d2 7b3d
00000310: 17d4 b9bd d005 c0bd 6733 ecbc 102a 923d
00000320: 92ff 06be 0327 193e aee7 dcbd ee67 4cbd
00000330: 7cdc c93d 89a2 fabd ec8d 653d d8be 00be
00000340: 70ad 243c d51d 1a3e 3eed 5a3d 25a1 cfbd
00000350: 487d b2bc 1ac1 5ebe cafa 84bd d855 d73b
00000360: fa05 61bd 787f 173d 0e72 c0bd 06d0 fdbc
00000370: 8a2b cebd 9e79 4f3d b42d ce3d 87f8 50bd
00000380: 1959 9bbd 8952 013e a960 81bc af95 213e
00000390: b9eb 89bd 855e c5bc adad 593c d14f 983d
000003a0: 6dfd 5ebb cd18 c23d 8d43 283d fbc9 4f3d
000003b0: 2b68 8ebe 6344 9c3b 8d37 95bd 0996 90bb
000003c0: 0153 b3bc 0593 ad3b 727a c83d 1c66 b13d
000003d0: 54a5 8ebc 5e69 ab3c 6427 8ebd 7bd3 37bd
000003e0: 6a7e 72bd c427 c03b 4b62 cc3d d7a2 593d
000003f0: 1a33 583c f0a9 c1bd 9076 5c3c 1ef0 2abc
-0.035084937 -0.051708635 -0.061886486 -0.029056493 -0.0021957427 -0.03855074 0.10329132 -0.012607196
-0.0016559554 0.098205805 0.055366427 -0.07227118 0.12670211 0.060771734 0.060953166 0.13463847
0.07147746 -0.1271608 0.098234475 -0.12054928 0.043769512 0.12225325 -0.042703845 0.052181926
-0.038684078 -0.09635821 -0.017090311 -0.042043213 0.05313724 0.067142375 -0.035324406 0.059439767
0.10221461 -0.01793793 -0.08584444 -0.0830605 -0.07501521 0.032520067 0.05946399 -0.05932608
-0.03271571 -0.10815763 -0.019636827 0.01584763 -0.19719635 0.20470738 0.043556467 0.0808857
-0.12724674 -0.08779988 0.04179491 -0.10602586 0.117287956 0.0017906211 -0.07362805 0.07959227
-0.05982361 0.13518927 0.021920342 -0.047082007 -0.019550145 0.0962574 -0.079137705 -0.032035362
0.03187913 -0.07373229 -0.02284484 0.06439175 -0.08170576 -0.14125541 -0.046310112 0.11693703
-0.10375799 0.073104404 0.022386672 0.04673491 0.051224295 0.071425796 0.029993463 0.02235516
-0.13065322 0.07441671 -0.05350213 -0.11069981 0.11676208 -0.06656076 0.00078730343 0.0057631587
-0.05842854 0.13966434 0.008350616 -0.16389866 -0.0053364164 -0.23158477 -0.016830035 -0.05959515
0.19311349 0.0732506 0.066014566 -0.034770783 -0.21765588 -0.010762556 -0.05747362 -0.1314106
0.084954455 0.05309452 -0.05035595 -0.04355295 -0.19907528 0.076422356 0.07594416 -0.04904989
0.18827842 -0.13690315 -0.012592865 -0.023643482 0.037836708 0.12814462 0.041556045 -0.038180083
-0.14894383 0.100702174 0.053457066 -0.081768185 0.018605303 -0.1732166 -0.004526184 -0.03502617
-0.10681858 0.040750787 0.013329034 -0.14042969 0.039876066 -0.048666738 -0.01572908 0.020091927
-0.089649655 -0.011355252 -0.022906253 -0.0689956 0.0385239 0.050165474 0.064563364 0.07400263
0.035134617 0.02366941 -0.0135594355 -0.0604362 0.1463845 -0.052163817 0.049695868 -0.043238413
-0.07379936 -0.02388454 0.10315465 -0.0016960055 -0.07084968 -0.12710993 0.047550492 -0.013533242
0.04770545 -0.019248031 0.054112725 -0.030310834 -0.07362521 0.17678021 0.04304965 -0.013073806
-0.04744133 0.06340741 0.02106147 0.086290084 0.102943376 -0.15988472 0.017697029 -0.10402603
0.07631813 -0.042414367 0.055458948 -0.0349652 0.10141181 -0.019358777 0.0002460889 0.08758621
-0.061872993 -0.15170082 -0.029836789 0.07856685 0.07161582 0.065271795 -0.073828414 0.11490573
-0.14801413 0.009282554 -0.039502826 0.06148013 -0.09073656 -0.09376109 -0.028833104 0.07136929
-0.1318343 0.14956288 -0.10786377 -0.049903803 0.09856507 -0.12238032 0.05604355 -0.12572801
0.010051116 0.15050443 0.053448908 -0.10138158 -0.021788254 -0.2175335 -0.06493147 0.0065715127
-0.05493734 0.036986798 -0.09396754 -0.030982982 -0.10066898 0.050653093 0.10067311 -0.051018264
-0.075853534 0.12629141 -0.015793161 0.15779756 -0.06734414 -0.024092922 0.013286036 0.07437099
-0.0034025565 0.094773866 0.041080046 0.050729733 -0.2781385 0.0047688945 -0.07285986 -0.004412417
-0.021890165 0.005297067 0.097889796 0.08662054 -0.017412819 0.020924266 -0.06941107 -0.044879418
-0.05920259 0.0058641154 0.099796854 0.05313381 0.013195777 -0.09456241 0.013456002 -0.010433225

fc1.bias f4 [64]
00000000: e59f e6bd 4a31 003e 1790 713e e6fd 103e
00000010: 494c 6e3d bd06 1bbc 41c9 1c3e ee9c c93d
00000020: 5f9d 3a3e b6a8 113e 792f e53d a29f 0b3e
00000030: 2fdb 763d bf13 833e 04a1 053d 04ca 863e
00000040: c403 52bb 9d2e c7bd 3214 313e 74fa 76be
00000050: 1f63 15be 2725 c53d 1341 033d b66e 44be
00000060: 13de bb3c 0fc1 493e 5a85 94bd 7dab 1d3c
00000070: 595d 7a3e d8aa 56bd 1b43 e7bd e488 013e
00000080: 004e 9f3d 1213 0e3e dfc7 f43d 905e 283d
00000090: 2e9b 81be 2a0d 70be fdbe 27bd acf5 e33c
000000a0: 24e8 b73d 7eb9 8c3e 7b72 703d 0276 843e
000000b0: 99cf b03d f343 19be 2b53 6b3d 84a5 51be
000000c0: dd53 08be 4984 16be f45d 02be f2c4 c63d
000000d0: 7fdb 703d a26d a13c 6c69 e0bc acef 8fbd
000000e0: 4de0 343e 4622 b73c 510c 45be 1c29 38be
000000f0: f90d 153d 2631 3c3e 317d 5b3e 891d 16be
-0.11260966 0.12518802 0.23590122 0.14159355 0.05817822 -0.009462056 0.15311147 0.09844385
0.18224095 0.14224514 0.11190695 0.13635114 0.060267624 0.25601003 0.03262426 0.26326
-0.0032045702 -0.09725688 0.1729286 -0.24118978 -0.14588593 0.09626227 0.03204448 -0.19182858
0.022933042 0.19702552 -0.07251997 0.0096234055 0.24449672 -0.052409023 -0.11292096 0.12649876
0.07778549 0.13874462 0.11952185 0.041105807 -0.25313705 -0.23442522 -0.040953625 0.027827106
0.08979824 0.2748527 0.058702927 0.25871283 0.08633346 -0.14967327 0.057452362 -0.20473295
-0.13313241 -0.146989 -0.12731153 0.09705533 0.058803078 0.019705597 -0.027394019 -0.07028136
0.17663689 0.02235521 -0.1924298 -0.17984432 0.03639028 0.18378124 0.21434475 -0.14659704

fc2.weight f4 [64, 64]
00000000: f386 ac3d 52c5 b33d 38ed 7c3c f1ed eebd
00000010: ff48 013a d349 bb3b 87f9 32bd 4f1e 413d
00000020: df73 78bb 0a65 2e3c 9604 d6bd a89c 2d3d
00000030: 7674 02be 8f52 053d 886a a03c 62ce aabd
00000040: ccc3 d0bd 4670 94bd 94db 873d 5ab7 683d
00000050: 315f 2abd fea2 b43d 3866 893d 27a1 873d
00000060: ca4d 50bc 4343 523d 0c29 ea3c 263f a6bd
00000070: 9aa9 b6bd f9a5 123e 849a 9abd c6e5 ce3d
00000080: f845 d3bd bf2c f63d 056f a83d 3a48 b43b
00000090: 34fd 36bd 61e0 9f3c aa92 b8bd c070 a6bd
000000a0: 5722 25bd 9e37 0a3e 2132 a2bd beda e03d
000000b0: cd2b 3b3c d182 03be 79eb e6bd de18 b8bc
000000c0: 5933 02ba a221 7ebd 9fbe 663b eef6 7c3d
000000d0: c806 a2bd ed66 9bbd b8a9 88bc 3d17 cdbd
000000e0: d43a 693d 1010 ab3c d145 033e bb54 23bd
000000f0: 1109 483d d60f 82bd c816 083d 32e2 91bc
00000100: e147 52be a9a1 f0bd e946 61bd 1eae a6bc
00000110: bad0 af3a b390 55bd a874 81bd 56fe debd
00000120: 66be 09be 6ed4 f83c b16c 1bbd 2c10 973d
00000130: 1ce2 bc3d c538 b3bd 4472 f33c d047 50bd
00000140: 11eb 12be 7458 05bd 2004 963d 5013 b5bd
00000150: 2db4 b23d 3ee4 c5bd f96a 1d3d 42d6 b6bd
00000160: 6fc6 743d d646 fa3d 9130 d4bb 01fe ab3d
00000170: 90ab abbc f2c9 6fbd 75c1 b33d ec3c acbd
00000180: 6357 99bd c60c 813d 095a 143a 8cb5 61bc
00000190: a083 923c 2da7 d53c 4489 873b 41e9 83bd
000001a0: 1931 abbd 16f0 7dbc 8dc9 9ebd e25b c03c
000001b0: ddd9 4abd cc5e 5b3d 25f3 553d fec1 a93d
000001c0: ce09 873d 1c78 09be 3143 18be e501 993d
000001d0: 9a94 c63c ae1b c5bc 74cf 4cbd 7095 2cbe
000001e0: cdc0 40bc 5a51 ec3d 7e22 863c 161d fbba
000001f0: 23d2 14bd 31a1 a63d d8c8 1bbe 2f73 7a3d
00000200: dbc4 a93d fcba 50bb 90b8 40be 27d1 a9bd
00000210: 2ed8 10be 34e2 fe3d 7eea aa3d 9364 313b
00000220: 809b 1ebe 237a d63c feac c8bd fb75 a6bd
00000230: 4538 903d 6769 0d3e bc43 ba3d c840 b43d
00000240: 88d2 0abe 0b7d 9abc d8cc 453d 40ae 8cbc
00000250: 25b7 9abc 8b4c 9a3c 79bd 52bd 21e5 52bb
00000260: 78bb 9ebd edfa 99bd 15da 72bd 348f a73d
00000270: b131 d3bd b9c4 313b 739e 80bd 3d0e 6b3d
00000280: 1d7e c4bd e851 87bd a3d5 a53d 194e 2bbb
00000290: 986a fa3b 5f58 b9bb 56de cebd a3f6 913c
000002a0: f078 81bc 17ce 9ebb 83a5 8fbd 9153 9a3d
000002b0: a299 0b3e 05fd 30bd ae1a 01be c347 fc3c
000002c0: 8d7f 333c 52db f2bd 9704 f3bc c090 c9bd
000002d0: 6020 6b3d 1b7d 0c3d 46b5 e8bc 44f2 b63d
000002e0: be2c e43d 5a12 02be 2bd4 b13d 672a 043d
000002f0: 307d dfbd 8faf e7bb 3e80 e1bd a048 d1bc
00000300: 7dfd 86bd bb4f 603d 4a26 e8bd cc59 823d
00000310: 84c4 3bbd eab4 d6bd 227c 98bd f139 0dbe
00000320: c546 bfbd 6fd8 af3d 1d1c fcbc 07ba 9dbc
00000330: 8077 60bc 7d5f b7bd 5601 ed3c a2ab c3bc
00000340: 6062 853d 37d9 ef39 935a 57bd cc92 e4bd
00000350: 0ea3 98bd eba5 8cbd 8866 8b3c dfd0 1f3c
00000360: 9710 323c afe2 0dbe 71b9 d43d dc8f e1bd
00000370: 6315 a43d b534 673d 5307 2fbb adc5 2ebe
00000380: 5d3e 7a3d 0826 063e 1cf6 c63d 352a 283d
00000390: e694 e63d 063d 23bd b28e 7f3d 207c 9cbd
000003a0: a783 cb3d d3cb d23d e211 8a3d 20f4 ddbc
000003b0: 597d f0bd 1fd2 99bd 237c febd fed7 443d
000003c0: 92da 063b 8804 6bbd 2fa2 813c f7a9 b63c
000003d0: 86df 47be 92ab b7bd cab1 8e3d 5fe8 c73d
000003e0: 394d 833d a8bb c63d f9cd 57bd 7423 0c3d
000003f0: 3f04 22be 4504 ae3d ba73 053c 93eb 643c
0.08424177 0.0877787 0.015437417 -0.116664775 0.0004931837 0.0057155876 -0.043695 0.047148045
-0.0037910861 0.010644207 -0.104500934 0.042385727 -0.12739739 0.032549437 0.019582048 -0.08340146
-0.10193595 -0.07247977 0.06633678 0.056815483 -0.041594688 0.08820151 0.0670895 0.06622534
-0.012713859 0.051333677 0.028584026 -0.08117513 -0.08919068 0.14321126 -0.07549003 0.101024196
-0.1031608 0.120202534 0.082243 0.005501774 -0.044675067 0.019516172 -0.09012349 -0.08126974
-0.040315952 0.13497779 -0.079197176 0.10979222 0.011424017 -0.12842871 -0.112753816 -0.022472795
-0.0004966758 -0.062043793 0.0035208834 0.061758928 -0.0791145 -0.07587991 -0.01668249 -0.10014198
0.05694087 0.020881683 0.12819602 -0.039875727 0.04883677 -0.06350677 0.03322485 -0.017808054
-0.20535232 -0.11749584 -0.054999266 -0.020346697 0.0013413646 -0.05213995 -0.063210785 -0.108883545
-0.13451537 0.030374732 -0.037945453 0.073761314 0.092228144 -0.08751062 0.029717572 -0.050849736
-0.14347483 -0.03255506 0.073250055 -0.08841574 0.08725772 -0.09662674 0.038432095 -0.08927585
0.059759554 0.12220542 -0.006475516 0.08398057 -0.02095583 -0.0585422 0.087771334 -0.084100574
-0.07487371 0.063012645 0.0005659168 -0.013776194 0.01788503 0.026080692 0.0041362364 -0.06440974
-0.08358974 -0.0154991355 -0.077532865 0.023481313 -0.049524177 0.053557202 0.052233834 0.08288954
0.06593667 -0.13424724 -0.14869381 0.074710645 0.02424078 -0.02406105 -0.05000253 -0.16853881
-0.011764717 0.11538954 0.016373869 -0.0019158449 -0.036333214 0.081362136 -0.15213335 0.061145004
0.082895 -0.0031849733 -0.18820405 -0.08291846 -0.14144966 0.124454886 0.08345507 0.0027068004
-0.15489006 0.026181286 -0.09798621 -0.08127972 0.070419826 0.13809739 0.090949506 0.088014185
-0.13556874 -0.018858453 0.048291057 -0.017172933 -0.018886158 0.018835327 -0.051450226 -0.0032180029
-0.077506006 -0.075185634 -0.05929001 0.08181611 -0.10312212 0.0027125312 -0.06280222 0.057386626
-0.09594367 -0.06607419 0.080973886 -0.002613908 0.0076421015 -0.0056562866 -0.10101001 0.0178178
-0.015804738 -0.004846345 -0.07013991 0.0753547 0.13632825 -0.04321005 -0.12607834 0.030795937
0.010955703 -0.11858238 -0.029665275 -0.09842062 0.057403922 0.034298997 -0.02840675 0.08932927
0.111413464 -0.12702313 0.08683046 0.032267 -0.109125495 -0.0070704888 -0.110107884 -0.025547326
-0.06591318 0.054763537 -0.11335428 0.06364784 -0.04584171 -0.10483725 -0.074455515 -0.13791634
-0.0933967 0.08586203 -0.030775124 -0.019253744 -0.013700366 -0.0895376 0.028931301 -0.023885552
0.06512904 0.0004574747 -0.052576613 -0.11160812 -0.07452975 -0.06867584 0.017016664 0.009754389
0.010868213 -0.13856004 0.10386933 -0.11013767 0.08011892 0.05644675 -0.0026707246 -0.17067595
0.06109463 0.13100445 0.097149104 0.041055877 0.11258869 -0.03985312 0.062391944 -0.076408625
0.0993722 0.10292783 0.06741692 -0.027093947 -0.11742658 -0.075107805 -0.12426021 0.04805755
0.0020577055 -0.05737737 0.015824405 0.022297842 -0.19518861 -0.08968271 0.06967504 0.09761118
0.064112134 0.09703761 -0.052686665 0.0342135 -0.15821932 0.08496908 0.008145267 0.013972181

fc2.bias f4 [64]
00000000: 6a25 533d 9f74 07be 9f7d 5e3d 12e0 e83d
00000010: af20 0bbd 1e1d ba3d 45f2 023d 1f8f 41bd
00000020: a74d 0bbe ffcd 193e d867 0f3d f7b8 02be
00000030: a092 3ebe f978 823c c0dd 4bbd ff81 4a3b
00000040: 8f82 10be fbb1 e53d dc72 87bc f238 b4bc
00000050: 5940 ddbc 4545 eb3d 33dd c7bc 4c6a 8dbd
00000060: 7c57 313e bc51 e3bd 6588 c43d 0f54 a8bd
00000070: c33a 04be 38bf bf3d 7a24 713d 0787 04bd
00000080: 96de 7abd f55e edbd 20ea e83d fcdf 233e
00000090: 1e2c 90bd 3b0c bebc 7ca6 423e 5f74 393d
000000a0: e0a6 ae3c bfde 873d 2265 a43d 70c8 193d
000000b0: 7cae 323d 9f76 7e3d 2fe4 3cbc 9cee 0e3d
000000c0: 1e9a 053e 79e2 7f3d 9a1c 083e 96cc d9bc
000000d0: 84b8 ca3d 5091 6dbd a112 043e 7856 0f3c
000000e0: 5bf5 9cbd 852f c1bd e56e c83d 72d8 1fbe
000000f0: efb9 7bbd 1e78 173e 2b8f 91bc d38b 213e
0.051549353 -0.13228081 0.05431902 0.11370863 -0.033966716 0.09087585 0.031969327 -0.04725563
-0.13603841 0.15019988 0.035011142 -0.12765871 -0.1861062 0.015926825 -0.049772024 0.0030900238
-0.14112304 0.11215588 -0.016534261 -0.02199981 -0.027008222 0.114878215 -0.024397468 -0.0690504
0.17318529 -0.11099574 0.09596328 -0.08219158 -0.12913041 0.09362644 0.058872677 -0.032355335
-0.06124743 -0.11590377 0.11372781 0.16003412 -0.07039665 -0.023199191 0.19008821 0.045276996
0.021319807 0.06634282 0.08027102 0.037544668 0.043623433 0.062124845 -0.011529013 0.034895524
0.13047072 0.06247184 0.1329216 -0.026586812 0.09898475 -0.05799991 0.12897731 0.008748643
-0.07663985 -0.09432892 0.097867765 -0.15609911 -0.061456617 0.14791915 -0.017768463 0.15775995

fc3.weight f4 [2, 64]
00000000: 8d84 77bc 7925 aabc 50a3 a1bd 668a 57bb
00000010: 5b0d b1bb 1c74 ce3b c7b6 193d d444 2b3d
00000020: 6311 02bc 3eef a73c f221 97bb 7a5b 013d
00000030: 5495 193c a79e 753c a312 023d f651 fd3c
00000040: 63a0 09bb 012b 523c ebe6 77bd c7aa 17bd
00000050: 7a43 c0bc 122b 38bd 3965 dabb f71e f839
00000060: 4606 bd3c 5b3c 3fba a475 463c 8f37 753b
00000070: 6436 95bc beee 88bc 21c5 1d3c 0681 f8bb
00000080: 2480 3abd b655 67bc 0cd3 073c c184 d4bb
00000090: 1bdc 9bbc 0442 eabc 29fe a9bb c71b 85bc
000000a0: 2d49 cb3a fbde 353c 18c1 1dbd ee2c 563c
000000b0: a4af bc3c ca64 1f3d 6314 f1bb a42e aa3c
000000c0: 3516 403c cc70 113c 67af 01bd f1ac 823c
000000d0: ba22 353b 46c2 c6bd 7868 913d 0cc9 d03b
000000e0: e81c b53c 0c92 41bc 3844 d43b 79f8 97bd
000000f0: 3368 36bd b46a 683c 98d7 c9bc 7ecc 9d3c
00000100: f879 a53c 2bcd 88bb 097c fb3c 4acb fabb
00000110: 4e12 733c 96d9 d23c cc82 5c3b 149a 89bd
00000120: 853d 97bd f295 053b 1761 09bd 806a 67bd
00000130: 2f9b 353d 5323 3b3c 44c1 35bb c741 b8ba
00000140: 3743 56bd 80eb 433a ccc2 70bc e72f 0d3c
00000150: d43b c43c 1223 0c3c 888e dc3c aff3 dd3b
00000160: b780 a9bc bed7 4dbc 23b3 10bd 9fe9 033d
00000170: c333 943c 593a 50bc 4df9 f2ba 6005 99bc
00000180: 4cfa 8f3c d171 23bb a205 8e3c e453 c7bb
00000190: 916e 283c 1f27 ea3a f39d 843c d3d7 bc3c
000001a0: 9324 e3bc 2f23 04bd 196b 6f3d d569 08bb
000001b0: 4db9 b63c 82ed 20bd 17c3 88bc d3b2 f53c
000001c0: aae7 80bd 6adc 263d f668 89bc d942 ddbc
000001d0: feb9 32bb 020a 81bd 3823 72bd 76a2 79bc
000001e0: daaf 8bbc ef79 bc3c 0317 213c e254 263c
000001f0: ab5d 873b 7d50 48bc 9181 af3d 9c6d 1f3b
-0.015107286 -0.020769821 -0.078924775 -0.0032888888 -0.0054032034 0.0063004624 0.037527826 0.041813686
-0.007938716 0.020499822 -0.004612201 0.03158138 0.0093739815 0.014991439 0.031756055 0.030922871
-0.002100014 0.012827636 -0.060522955 -0.0370281 -0.023469675 -0.04496295 -0.0066648987 0.00047325317
0.02307428 -0.00072950654 0.012113009 0.0037417149 -0.018214412 -0.016715404 0.009629519 -0.00758374
-0.04553236 -0.014119556 0.008290064 -0.006485552 -0.019025853 -0.028595932 -0.005187769 -0.016248597
0.0015509479 0.011100526 -0.038514227 0.0130722355 0.02303297 0.03891448 -0.0073571666 0.020774193
0.011724045 0.0088769905 -0.031661417 0.015951606 0.0027639107 -0.097050235 0.07100004 0.006371623
0.02210851 -0.011814605 0.006477859 -0.07420439 -0.044532966 0.014185596 -0.024638936 0.019262549
0.02019976 -0.0041748486 0.030698793 -0.0076536285 0.014835907 0.025738519 0.0033647297 -0.06718841
-0.07384781 0.0020383564 -0.033539858 -0.05649805 0.044337448 0.011421996 -0.0027733603 -0.0014057689
-0.052310195 0.0007473752 -0.014694881 0.008617378 0.02395431 0.008553283 0.026923433 0.006773434
-0.020691259 -0.012563644 -0.035327088 0.03220522 0.018091088 -0.012709224 -0.0018537432 -0.01867932
0.017575406 -0.0024939666 0.01733667 -0.0060829986 0.010280267 0.0017864442 0.016188597 0.023052132
-0.0277274 -0.032260116 0.058451746 -0.0020815034 0.022305155 -0.039289005 -0.016694589 0.029992497
-0.062941864 0.040737547 -0.016773682 -0.027009415 -0.0027271505 -0.06300737 -0.05911562 -0.015236488
-0.017051626 0.023007361 0.009832147 0.010152074 0.004131039 -0.012226221 0.08569635 0.0024326807

fc3.bias f4 [2]
00000000: aaaa c83d dc43 c43d
0.097981766 0.09583256

b3.weight f4 [2]
00000000: dba7 3840 6338 0c40
2.885245 2.1909416

b3.bias f4 [2]
00000000: dc46 36be d32a 113f
-0.17800468 0.5670597

b3.running_mean f4 [2]
00000000: 9602 053e 5f96 9a3d
0.12989268 0.07548212

b3.running_var f4 [2]
00000000: 1d84 7b3b cc32 553b
0.0038378306 0.0032531498

supports f4 [51]
00000000: 0000 80bf 8fc2 75bf 1f85 6bbf ae47 61bf
00000010: 3d0a 57bf cdcc 4cbf 5c8f 42bf ec51 38bf
00000020: 7b14 2ebf 0ad7 23bf 9a99 19bf 295c 0fbf
00000030: b81e 05bf 8fc2 f5be ae47 e1be cdcc ccbe
00000040: ec51 b8be 0ad7 a3be 295c 8fbe 8fc2 75be
00000050: cdcc 4cbe 0ad7 23be 8fc2 f5bd 0ad7 a3bd
00000060: 0ad7 23bd 0000 0000 0ad7 233d 0ad7 a33d
00000070: 8fc2 f53d 0ad7 233e cdcc 4c3e 8fc2 753e
00000080: 295c 8f3e 0ad7 a33e ec51 b83e cdcc cc3e
00000090: ae47 e13e 8fc2 f53e b81e 053f 295c 0f3f
000000a0: 9a99 193f 0ad7 233f 7b14 2e3f ec51 383f
000000b0: 5c8f 423f cdcc 4c3f 3d0a 573f ae47 613f
000000c0: 1f85 6b3f 8fc2 753f 0000 803f
-1.0 -0.96 -0.92 -0.88 -0.84 -0.8 -0.76 -0.72
-0.68 -0.64 -0.6 -0.56 -0.52 -0.48 -0.44 -0.4
-0.36 -0.32 -0.28 -0.24 -0.2 -0.16 -0.12 -0.08
-0.04 0.0 0.04 0.08 0.12 0.16 0.2 0.24
0.28 0.32 0.36 0.4 0.44 0.48 0.52 0.56
0.6 0.64 0.68 0.72 0.76 0.8 0.84 0.88
0.92 0.96 1.0

fc1.weight f4 [64, 24]
00000000: 4a13 343e b31a 77bd ac9e e9bc f0ea 0fbd
00000010: 9bbf 67be a575 a43e df91 cc3c 3cad 5dbe
00000020: 60b5 813e 5277 50be 6037 003d 38cd adbd
00000030: bc3b c23b 4a42 663e fc07 c7bc 9349 f5bd
00000040: 73e5 3f3e 7596 9fbe 8676 963d bc15 20be
00000050: 9489 ee3e f34f 16bf 640c d83c 0bc4 23be
00000060: c74f a53e 52b2 893d ef40 493d 8465 0bbd
00000070: 7f2d aabd e447 a5be 7291 adbd b0c6 003d
00000080: 3bc1 b53e 40ab 253e 86a4 dd3d 1a04 df3b
00000090: 766b 5bbd 5f8c babe 185e 6fbd 5613 123b
000000a0: 2a21 6f3e 1d4f 6cbd 93b8 9ebc c631 31bd
000000b0: c18b d63d 1187 4dbf f2f0 2e3d 765e c7bd
000000c0: cb16 02bd 609d 553d fc93 fabc 42eb 183c
000000d0: a53f 663d ea92 923d 5127 793d 7674 04bd
000000e0: 3a22 203e 7a86 88bd 0a2e 24bd 9d88 a53d
000000f0: 3a20 943e 6a88 bc3c 249a 693d b906 123c
00000100: 3be5 0c3e 7253 3b3b e119 a0bc 002c 8bbd
00000110: bca5 fb3e c2d1 70be 1ca4 1e3d c488 ac3d
00000120: 5e02 8b3e 11d9 9f3e 110c b9bd 90f8 b13d
00000130: 5995 293e b924 d5bd ba1f 103e 9efa 753e
00000140: 6585 3e3e b8a7 cc3e cfc9 823d 6264 403e
00000150: e3d9 bd3d 2357 31be 14a2 c8bd d288 843b
00000160: 25c2 843e 366c d13e b2ef 83bd 26cd 263c
00000170: a2b9 9fbb ad23 5fbf 1a0e 7f3c 66ba 1bbc
00000180: 4dcb 9b3d c0d2 753d faf8 46bd f79f 99bd
00000190: 666f ad3d efb1 43bf 88ce 873c 31a1 8d3d
000001a0: df0b b73c ddab 753d e78f 88bd ef9f c0bd
000001b0: 1e26 23be 243b c5bd 6bca 913d 7624 11bc
000001c0: 2046 fabd 79b6 82bc 6371 583d d96c a43d
000001d0: d774 8b3e 73ec 1f3f 51b9 02bd 16d7 4c3e
000001e0: 0a8e b0bd 09d0 b53b c405 803d 43e9 06bd
000001f0: bc89 273f 4f82 b43d de5a 81bd 13f7 a83b
00000200: d8e7 fcbc 8b6e ba3d f48f 7e3c 3217 bfbb
00000210: d0dc 073d 0a66 4b3c cece d3bc c20a 64bc
00000220: 2ee4 903d 067f 5e3d f5d1 d1bd ff44 d63d
00000230: 3b18 32bf 116c 473e c9af ce3d afd2 0dbd
00000240: 1323 3a3e 6263 9c3e 0d37 503d a48f 2d3a
00000250: 9c13 b5be 1b26 19be f1a2 20bd d2b5 8339
00000260: 8d56 983e 6b2f 023f 40f5 b93c d21c c73c
00000270: 4abe aabe ad86 e3bd f278 323c b411 893d
00000280: 44e7 fe3e 7946 d13e 9001 173e a910 ea3d
00000290: bd93 373e 6d4a 033f 4d64 78bd 7584 e73d
000002a0: ee1c a23e 6154 a23d c60d 2ebd 14da 833d
000002b0: 5c7c 753d 8780 53be e80a eb3c 3ffa 62bd
000002c0: 1d29 623e d237 163e 2aa3 c2bc d842 a33d
000002d0: ee61 b53d 2393 0dbe 7a35 f7bc 5deb 2bbd
000002e0: 78f8 913e 4989 2c3e c257 30bd 407b d03d
000002f0: 3211 013e 5836 f0be 70dc 2b3d d4fd ccbd
00000300: 6987 9f3d 5fd7 ab3d 4368 47bc 0aa8 debc
00000310: 2df9 083e ad00 7fbe 2bb3 0dbc 703c 5cbd
00000320: ba76 c4bc 64e5 a03d 985b 67bd 923c 23be
00000330: 45de a93d a41d d43d f020 363d 565e a0bb
00000340: 61c1 403d 69d9 053d 3bbd 173d c2c6 b6bd
00000350: d056 9cbe d63e 473f 5698 52bd 5cb3 b5bd
00000360: 52ec 5039 9a2e 96bd 2e51 22bd a3e7 b6bb
00000370: ff00 b23d f91c 3d3f a512 c83c 2515 04bc
00000380: 52e9 283d 6b5a 863c f99d d0bc cb94 a7bc
00000390: b040 76bd b4df 0a3f d40a 623c a72e d13c
000003a0: 9e43 a43b 26fc 073c a24e 1bbd 26e6 c23c
000003b0: cc85 a8bd 6998 93bf 0a5b e23c 483c e2bc
000003c0: 19ca 77bd dea1 53be 54ce 4e3c a96f dd3c
000003d0: 6e3e 433e a737 0cbf 2b8e 63bb 0f3b 7cbc
000003e0: 7bfb ab3d 952b 2ebe ad9d b53c 50b0 c13d
000003f0: a6a6 a33e 606d 5cbf 8382 bb3b 20b7 64bd
0.17585483 -0.060328197 -0.028518043 -0.035136163 -0.22631685 0.32121006 0.0249719 -0.21648115
0.2533369 -0.20358017 0.03130281 -0.08486408 0.005927531 0.22486225 -0.0242958 -0.11976924
0.18739872 -0.31169477 0.07346825 -0.15633291 0.4658934 -0.5871574 0.026373096 -0.15992753
0.32287428 0.06723465 0.04913419 -0.03403236 -0.08309459 -0.3228141 -0.08475007 0.031439483
0.35498986 0.16178608 0.10822396 0.006805909 -0.05356928 -0.3643522 -0.058439344 0.0022289357
0.23352495 -0.057692636 -0.019375121 -0.04326036 0.10475875 -0.8028422 0.042710252 -0.09734814
-0.03176002 0.052152038 -0.030588143 0.009333434 0.05621304 0.07156928 0.06082851 -0.03233763
0.15638056 -0.06666274 -0.04008297 0.080826975 0.28930837 0.023014266 0.057031766 0.008912736
0.1375932 0.0028583673 -0.01954359 -0.06795502 0.49149883 -0.23517516 0.038730726 0.084245235
0.27150244 0.31220296 -0.090355046 0.08689988 0.16560878 -0.10407395 0.14074603 0.24021384
0.18605573 0.3997171 0.06386148 0.18788293 0.09270074 -0.17318396 -0.09796539 0.0040446306
0.2592937 0.4090287 -0.06442203 0.010180747 -0.004874424 -0.8716381 0.015567327 -0.00950489
0.07607136 0.06001544 -0.048577286 -0.07501214 0.08468513 -0.7644338 0.016577974 0.069155104
0.022344528 0.059978355 -0.06668072 -0.09405505 -0.1593251 -0.09630421 0.07118686 -0.008858791
-0.122204065 -0.01595615 0.05284251 0.080285735 0.2723758 0.6247017 -0.031915013 0.20003924
-0.08620842 0.0055484814 0.062511 -0.0329373 0.6544454 0.08813917 -0.0631616 0.0051564067
-0.03087227 0.09103116 0.015537251 -0.0058316225 0.033169568 0.012414465 -0.025855448 -0.0139185805
0.07074772 0.054320358 -0.10245124 0.10462379 -0.6956822 0.19474818 0.10092122 -0.03462475
0.18177442 0.30544573 0.05083375 0.00066208304 -0.35366523 -0.14955942 -0.039217893 0.00025121734
0.29753533 0.50853604 0.022699952 0.024305735 -0.33348304 -0.11109672 0.010893093 0.0669283
0.49785817 0.4087408 0.1474669 0.11428959 0.17927451 0.5128544 -0.06064253 0.11304561
0.31662697 0.0792625 -0.042493604 0.064380795 0.05993305 -0.20654498 0.028691724 -0.055414435
0.22085996 0.14669731 -0.023759443 0.07971734 0.08856569 -0.1382566 -0.030176867 -0.041972507
0.2850988 0.16849245 -0.043052442 0.10179758 0.12604216 -0.4691646 0.041958272 -0.100093514
0.07789499 0.08390688 -0.012170854 -0.027179737 0.13376303 -0.24902602 -0.008648674 -0.053768575
-0.023982394 0.07856253 -0.056483835 -0.15941074 0.08294348 0.10357216 0.044465005 -0.004894058
0.04705942 0.03267804 0.0370457 -0.08924629 -0.30534983 0.77830255 -0.05141481 -0.08872101
0.00019924462 -0.07333107 -0.0396282 -0.0055818125 0.08691596 0.73872334 0.024422953 -0.008061682
0.041238137 0.016400537 -0.025465952 -0.020456692 -0.060120285 0.54247594 0.013796527 0.02553494
0.0050129434 0.008299863 -0.037916787 0.023791384 -0.08228645 -1.1530887 0.027631301 -0.027616635
-0.06049547 -0.20667216 0.012622435 0.027030783 0.19066784 -0.5477242 -0.003472219 -0.01539494
0.083975755 -0.17008813 0.022169912 0.09457457 0.3196308 -0.86104393 0.0057223453 -0.055838704

fc1.bias f4 [64]
00000000: e19f 463d c6f9 ecbd c531 8fbd cef5 4a3e
00000010: a00d 5f3b 829c 9abe 4bcf 233e 13ff 6a3d
00000020: 7242 b33d c58d de3e 25d7 dabd c7e1 443e
00000030: 5ab0 503d 7446 f93d 1810 21bc 22f1 cf3d
00000040: 33c2 8ebe f3f7 78be a997 103e 7f96 e43c
00000050: aaf6 e5bc d267 df3d 8160 8dbc 913b 81be
00000060: 118d f3be 5d8e bebc 2a29 87be d97c 98bd
00000070: b8a1 95bc 90db 033e 9c35 2a3e 7a48 9a3e
00000080: 5636 ac3e 6134 6a3e 8c60 f83b b3ea 8f3b
00000090: 351b 02bf b03e b6be a95e a3bd 5b13 133e
000000a0: 56bc 453e 38f6 8c3c 5b8f f73c e2e0 9c3e
000000b0: a56b 023e 2f43 04be bcc7 093e c781 acbe
000000c0: cb45 68bd d772 0abe db61 09be 63e9 85be
000000d0: 757d 323e 62d3 52be b323 81bc 0e0b bdbe
000000e0: 53b7 c13e 59b7 3bbd 47b3 63be cf24 f3be
000000f0: 6229 ecbd 899c 903b 2253 a23e 80b6 b4be
0.048492316 -0.11571078 -0.06991915 0.1982033 0.003403522 -0.3019753 0.15997045 0.057372164
0.08752908 0.43467537 -0.10685567 0.19226752 0.050949432 0.12171641 -0.009830497 0.10153414
-0.27882537 -0.24313335 0.14120354 0.027903793 -0.02807172 0.10908474 -0.01725793 -0.25240758
-0.47568563 -0.023261243 -0.26398593 -0.07445688 -0.01826559 0.12876725 0.16622013 0.3013342
0.33635205 0.22871543 0.0075798687 0.004391992 -0.50822765 -0.35594702 -0.07977039 0.14362852
0.19310126 0.01720725 0.030219724 0.30640322 0.12736376 -0.12916254 0.13455099 -0.33692762
-0.056707185 -0.1352037 -0.13416235 -0.26154622 0.1743067 -0.20588449 -0.015764093 -0.36922497
0.37835178 -0.04582915 -0.22236358 -0.4748902 -0.11531331 0.0044131917 0.3170405 -0.35295486
