p2-continuous-control/checkpoint/a2c_checkpoint.pth (torch_old, 52876 bytes, 7 tensors)

fc1.weight f4 [128, 33]
0.04128048 -0.006995465 -0.027660199 0.18733762 -0.02779136 0.16463059 0.089009844 -0.026769398
-0.17208672 0.18502039 -0.122500375 -0.086507514 -0.22912836 0.03211721 0.20163384 -0.20483424
0.056457575 -0.0067677014 -0.069156274 -0.025521249 -0.05738297 0.00064136006 -0.018964887 0.05612627
0.1151952 -0.18465815 0.05818679 -0.12965153 -0.15903261 0.05409947 0.0348977 -0.16221026
0.28908592 -0.0150519125 -0.071536794 0.11530717 0.11682 0.064517155 0.007830598 0.12698486
0.023682259 -0.0064390716 0.0091938535 0.165476 0.2071161 -0.026800524 -0.062000077 -0.03201328
-0.25981465 -0.013821432 0.120497845 0.10119385 -0.20719734 -0.17938739 0.05774962 0.16628025
0.14917232 0.0693738 -0.081720546 -0.15663126 -0.25019783 -0.24441272 -0.11948181 0.2283715
-0.074268065 0.40957603 -0.33007306 0.10288768 0.30556294 -0.029087098 -0.19012147 0.0918751
-0.06943408 -0.0029659914 0.15122156 -0.06884535 -0.18914315 -0.077002116 -0.0038321353 0.041236237
-0.12755947 0.054521166 0.25289613 0.030198868 -0.06248908 0.052309312 -0.0153908245 0.019416513
-0.092858285 -0.13120297 0.1380014 -0.16206752 0.21816829 -0.034831826 -0.044855144 -0.1288558
0.08955446 -0.12176157 -0.088905804 -0.17270193 0.17644478 0.08052537 -0.058060676 0.05064428
0.015310792 0.0009802873 0.047071308 -0.08545527 -0.105200335 0.0016077937 -0.0035904835 0.013186702
0.31842467 -0.17239977 -0.24036369 -0.09775169 0.06399673 0.09180608 0.0069130417 0.061558254
-0.008647997 0.03458859 0.02924464 -0.046351973 -0.042391583 -0.17339744 -0.033285137 0.15651894
-0.051158644 -0.070504926 0.08343649 0.000291345 0.25093004 0.047760043 0.06352282 -0.012786023
-0.10174249 -0.110118315 0.15015516 -0.2375259 0.18399769 0.19136088 0.20391922 0.08009458
0.14898202 -0.16310078 0.1720644 0.21063995 -0.1372381 0.082996346 -0.032717604 -0.082937084
0.07169412 0.045054883 -0.077779226 -0.25543284 -0.047972586 -0.17596652 0.1886782 -0.3698509
0.10891907 -0.046997234 0.09227557 -0.06788387 0.049779203 -0.02900777 0.09352227 0.3864313
0.021385856 -0.04330339 0.042917624 0.24336968 0.0074435566 0.090166 0.115652665 -0.017921746
0.21553211 0.0941789 -0.059845533 0.19975114 -0.02521244 0.036641423 -0.05883772 0.016048105
-0.033629633 -0.06729212 0.08767146 0.025679126 0.14169434 0.040752508 0.0021712952 0.0064409464
-0.15695632 -0.18341912 -0.0065288544 -0.11793171 -0.16018811 0.23498641 -0.06155131 0.13820527
-0.19289204 -0.09054318 -0.14334786 -0.112482585 0.124965355 -0.047144696 -0.122168444 0.05022621
0.036187135 -0.006217511 -0.0318974 0.07307377 -0.12734163 0.1940356 0.04475563 -0.04266153
0.004912543 0.026868727 -0.016166154 -0.019440237 -0.010405185 0.05734241 -0.017031152 0.028978921
-0.07720307 0.016460998 -0.15052158 -0.1091642 0.0038061093 -0.16409397 0.9437395 -0.15333202
0.059761208 -0.10059516 -0.0101933805 -0.16390882 0.1571062 -0.014987013 -0.101064615 0.0088662235
-0.12453356 0.0025967958 -0.029824933 0.14663444 -0.18100254 0.019364312 -0.051479775 -0.2609763
-0.09495243 -0.04683413 -0.0025172592 0.04463139 -0.016897516 0.15056495 0.110178016 -0.09090983
00000000: b815 293d 373a e5bb a497 e2bc 6fd5 3f3e
00000010: b5aa e3bc ec94 283e cb4a b63d 7f4b dbbc
00000020: 8037 30be fc75 3d3e 7ae1 fabd da2a b1bd
00000030: a0a0 6abe 568d 033d 1a79 4e3e 11c0 51be
00000040: 0f40 673d 98c3 ddbb cea1 8dbd f011 d1bc
00000050: 680a 6bbd f220 283a 405c 9bbc a9e4 653d
00000060: 76eb eb3d 0717 3dbe 4655 6e3d 5fc3 04be
00000070: 72d9 22be 6897 5d3d e4f0 0e3d 721a 26be
00000080: 1203 943e 4c9c 76bc e281 92bd 2a26 ec3d
00000090: 533f ef3d 9221 843d e94b 003c 5208 023e
000000a0: 4c01 c23c d9fe d2bb d1a1 163c 8a72 293e
000000b0: 3e16 543e c68c dbbc cbf3 7dbd 5b20 03bd
000000c0: 6d06 85be 4a73 62bc 93c7 f63d b93e cf3d
000000d0: 8a2b 54be 54b1 37be de8a 6c3d 5f45 2a3e
000000e0: a1c0 183e da13 8e3d 1a5d a7bd f263 20be
000000f0: ee19 80be 5447 7abe e1b2 f4bd 38da 693e
00000100: db19 98bd f3b3 d13e 56ff a8be c7b6 d23d
00000110: bf72 9c3e 1148 eebc 34af 42be 0329 bc3d
00000120: 7433 8ebd 1461 42bb d3d9 1a3e cafe 8cbd
00000130: beae 41be 49b3 9dbd 9024 7bbb 54e7 283d
00000140: f39e 02be 9651 5f3d 9a7b 813e 9e63 f73c
00000150: 8df4 7fbd 4a42 563d cc29 7cbc 610f 9f3c
00000160: 7c2c bebd 125a 06be 3d50 0d3e 07f5 25be
00000170: 8267 5f3e d1ab 0ebd 07ba 37bd c6f2 03be
00000180: 5468 b73d 215e f9bd 3f14 b6bd c6d8 30be
00000190: f1ad 343e 7cea a43d 08d1 6dbd 6070 4f3d
000001a0: 1eda 7a3c fc7c 803a d8cd 403d 2c03 afbd
000001b0: 4673 d7bd 9bbc d23a 514e 6bbb 090d 583c
000001c0: 8f08 a33e 9189 30be e621 76be 0a32 c8bd
000001d0: b810 833d d304 bc3d cc86 e23b 8224 7c3d
000001e0: 54b0 0dbc c4ac 0d3d 7592 ef3c 91db 3dbd
000001f0: cca2 2dbd 198f 31be ff55 08bd 8046 203e
00000200: ba8b 51bd e364 90bd c0e0 aa3d aabf 9839
00000210: e779 803e 09a0 433d 4118 823d 787c 51bc
00000220: 5e5e d0bd b685 e1bd 46c2 193e fd39 73be
00000230: e469 3c3e 1bf4 433e 33d0 503e a108 a43d
00000240: be8e 183e e403 27be a631 303e 00b2 573e
00000250: 2588 0cbe fdf9 a93d e502 06bd ebda a9bd
00000260: 5ed4 923d 788b 383d b74a 9fbd 18c8 82be
00000270: e77e 44bd 9130 34be dc34 413e 195d bdbe
00000280: f610 df3d 2c80 40bd f9fa bc3d b306 8bbd
00000290: 47e5 4b3d b4a1 edbc 9b88 bf3d 53da c53e
000002a0: 6431 af3c e55e 31bd 64ca 2f3d e735 793e
000002b0: 14e9 f33b f4a8 b83d 4edb ec3d a0d0 92bc
000002c0: 73b4 5c3e dee0 c03d 9720 75bd 908b 4c3e
000002d0: 528a cebc 5115 163d d2ff 70bd 5177 833c
000002e0: 3abf 09bd 73d0 89bd 188d b33d 085d d23c
000002f0: 5218 113e 1aec 263d 4a4c 0e3b 930e d33b
00000300: 28b9 20be 39d2 3bbe 00f0 d5bb 2e86 f1bd
00000310: 5a08 24be 47a0 703e 3a1d 7cbd af85 0d3e
00000320: 7e85 45be b46e b9bd c8c9 12be 455d e6bd
00000330: d6ed ff3d cc1a 41bd 7333 fabd 00ba 4d3d
00000340: f638 143d 43bc cbbb d9a6 02bd b3a7 953d
00000350: d865 02be 45b1 463e ae51 373d dbbd 2ebd
00000360: 66f9 a03b ce1b dc3c e26e 84bc 2241 9fbc
00000370: 827a 2abc e0df 6a3d ea84 8bbc 3465 ed3c
00000380: a51c 9ebd 37d9 863c 5422 1abe 7b91 dfbd
00000390: eb6f 793b 4008 28be e998 713f 1203 1dbe
000003a0: 2bc8 743d d604 cebd 2302 27bc b7d7 27be
000003b0: 73e0 203e 178c 75bc f7fa cebd a343 113c
000003c0: 730b ffbd 012f 2a3b 6b53 f4bc 5727 163e
000003d0: bb58 39be e8a1 9e3c 75dc 52bd b09e 85be
000003e0: 6b76 c2bd 25d5 3fbd 9af8 24bb 68cf 363d
000003f0: a96c 8abc b32d 1a3e 03a5 e13d ef2e babd

fc1.bias f4 [128]
0.14786501 0.065389134 0.16993475 -0.16643985 0.09386004 -0.030722938 -0.037436012 -0.08234526
-0.0072019054 -0.17517969 -0.08242544 -0.13521028 0.15439352 0.027472269 -0.12919247 0.1368033
0.08527223 -0.020859009 0.16760737 -0.04140976 -0.104315735 -0.18197899 0.1887315 0.07243219
0.31530997 -0.028461201 -0.16247314 0.019944714 0.09664577 0.038945887 0.13394715 0.06720704
0.09961566 -0.17144231 0.06397692 0.026989274 0.025148692 0.17183325 0.15846473 0.16100492
-0.05363836 0.14695542 0.074844845 -0.10325719 0.089833826 -0.16524938 -0.1426985 0.33560374
-0.14098905 -0.03676941 0.019784603 -0.1444624 0.054891415 0.030610567 -0.018519253 -0.028067326
0.044804152 0.06928812 0.076012924 -0.16074042 0.045108598 -0.19903927 0.30709082 -0.07987459
0.186535 0.06744852 0.17179547 -0.22090949 0.010409786 0.07971305 0.060870346 -0.011245976
0.007825186 -0.035772584 0.285793 0.15687534 0.20352457 -0.08031909 -0.04784007 -0.014373687
-0.00819815 -0.0953901 0.15089045 -0.21499904 -0.010010651 -0.13542962 0.13835719 0.07472085
0.31593066 0.070360094 -0.032968167 0.24569729 0.07205408 0.090520695 -0.16278562 0.029006334
-0.14972481 0.13141252 0.048758343 -0.0046932464 -0.03172931 -0.08600132 -0.27913776 0.06793295
-0.038358606 0.17659606 0.15496902 -0.027185977 -0.11911871 -0.14147232 0.020966796 -0.18640187
0.21675757 0.090887964 0.2793677 0.18948957 0.107453786 -0.14192356 -0.034370597 0.12180705
0.12860592 0.09212345 0.16350634 0.0003924451 -0.120736115 0.17471562 -0.18840066 -0.11941576
00000000: ed69 173e bdea 853d 6003 2e3e 356f 2abe
00000010: b139 c03d acae fbbc 8156 19bd a2a4 a8bd
00000020: f6fd ebbb 4e62 33be abce a8bd 9074 0abe
00000030: 5619 1e3e 860d e13c 084b 04be 2a16 0c3e
00000040: 35a3 ae3d 83e0 aabc 44a1 2b3e 489d 29bd
00000050: 7da3 d5bd b358 3abe d542 413e 5457 943d
00000060: 4f70 a13e 7727 e9bc 5c5f 26be 1963 a33c
00000070: 38ee c53d b985 1f3d 7129 093e d8a3 893d
00000080: 4c03 cc3d 938e 2fbe 5506 833d 9c18 dd3c
00000090: a104 ce3c 0ef5 2f3e 9444 223e 79de 243e
000000a0: e6b3 5bbd 7b7b 163e 4148 993d 8178 d3bd
000000b0: ccfa b73d 2237 29be 8e1f 12be 41d4 ab3e
000000c0: 6f5f 10be 859b 16bd 5213 a23c f4ed 13be
000000d0: d2d5 603d 03c3 fa3c b0b5 97bc 73ed e5bc
000000e0: 8f84 373d eee6 8d3d aaac 9b3d 2399 24be
000000f0: cbc3 383d f3d0 4bbe 023b 9d3e 4a95 a3bd
00000100: 0803 3f3e 7322 8a3d 27eb 2f3e 1936 62be
00000110: cf8d 2a3c 9840 a33d 2f53 793d 0b41 38bc
00000120: 3535 003c 4686 12bd 7653 923e eea3 203e
00000130: bf68 503e 567e a4bd f3f3 43bd 9d7f 6bbc
00000140: 8951 06bc e25b c3bd 0783 1a3e b528 5cbe
00000150: b703 24bc 10ae 0abe 82ad 0d3e 3f07 993d
00000160: aac1 a13e f418 903d a109 07bd 1298 7b3e
00000170: 1791 933d ea62 b93d 46b1 26be b19e ed3c
00000180: 7651 19be 0191 063e d4b6 473d cec9 99bb
00000190: 98f6 01bd 7621 b0bd 25eb 8ebe 6e20 8b3d
000001a0: ea1d 1dbd 99d5 343e 33b0 1e3e 20b5 debc
000001b0: 83f4 f3bd 1fde 10be 8fc2 ab3c 22e0 3ebe
000001c0: b2f5 5d3e 7823 ba3d 4809 8f3e 8e09 423e
000001d0: bb10 dc3d 6954 11be 2fc8 0cbd fa75 f93d
000001e0: 45b1 033e 38ab bc3d 356e 273e 17c1 cd39
000001f0: 7f44 f7bd a7e8 323e 1aec 40be 4090 f4bd

fc2.weight f4 [64, 128]
-0.011376774 0.09622963 0.00032067506 0.14093153 -0.034576543 0.13286443 0.011152301 0.008210491
0.12359517 0.12328937 -0.065204196 0.08026348 -0.1018742 -0.11062708 0.03686875 0.09397278
-0.00848426 0.022227116 0.035332844 -0.005754476 0.1288604 0.094818406 -0.02178995 0.11429839
0.08968003 0.027185775 0.067791454 -0.07008877 0.07448803 -0.022996651 -0.09850544 -0.006676966
0.29368553 0.09644691 -0.053667396 -0.040075865 0.037697803 0.10717933 0.045764755 0.0650987
0.031759787 -0.04031552 -0.05037999 0.105959274 0.092047125 -0.037344225 0.19348805 0.0555634
0.09937893 0.067565635 0.24089761 -0.05966969 0.012138456 0.049020443 -0.006662243 0.13876587
-0.00014552516 0.041493516 -0.0014338177 0.13496934 -0.046797942 0.103115864 0.050447274 -0.074909344
-0.036587823 0.13627009 0.14825372 -0.08523964 -0.11005683 0.013036164 0.026535213 -0.088499404
0.08437069 0.18119566 -0.03449768 -0.026832685 -0.067174464 0.030369177 -0.10682105 0.12215683
0.22534572 0.57912 0.13259123 0.14477217 0.03481379 0.24925785 -0.00565573 0.012224288
0.016779656 0.060120385 0.02901609 -0.0035985631 0.1756458 0.20816225 0.0026807594 0.0009568887
0.33655816 -0.056691237 0.10931639 0.03429297 0.023431532 -0.0020453986 0.1678815 -0.18162073
0.10237863 0.16505519 0.09321579 0.15208526 -0.067323945 -0.041011795 0.07066083 -0.0075323917
0.072090246 0.113652766 0.086337246 -0.077220514 0.0005448825 0.112202026 0.027783386 -0.004626085
0.038540624 -0.024305679 0.033029877 0.027672075 -0.046314634 0.16283555 0.0037104005 0.05041138
0.022263886 0.17810957 0.098277375 0.16880107 0.090288 0.09997369 0.3338072 0.027004614
0.06267896 -0.14121817 0.17791055 -0.01761686 -0.04914255 -0.02963636 0.06428151 -0.05342611
0.0071640485 0.026170371 0.008788749 0.08395682 -0.20008324 -0.15033568 0.050296523 -0.09660119
0.05804207 0.24552847 0.018895177 -0.10169329 -0.058897708 -0.06333188 -0.11319969 -0.060429946
-0.035464715 -0.017832112 -0.03403432 -0.14349523 -0.12116777 -0.06153258 0.09365237 0.014860633
0.07240729 0.003704898 -0.059081852 0.19190349 0.17347248 0.1532922 -0.0568265 0.10225646
0.18672803 -0.28278255 -0.11823794 -0.052323814 -0.105639756 0.15396245 -0.056239843 -0.02752786
0.034502942 -0.048538487 0.2119836 -0.10931235 -0.06742555 0.032247797 0.07477345 -0.17379287
-0.046895232 0.1679259 0.074886434 0.081097305 -0.31858164 -0.0036535794 0.107652895 0.09918386
-0.06550009 0.31714815 0.100141935 0.03809173 0.052580234 -0.010869379 0.09531903 0.102896184
-0.047919232 0.12270129 0.07362498 0.060129106 0.11116562 0.04460403 -0.0066391886 0.12470664
-0.017546343 0.06821745 0.059854966 -0.09820243 0.20245047 0.28862348 -0.3416693 0.10457284
0.43975234 0.07786479 0.16562456 0.05997772 0.022218829 0.17706607 0.1310565 -0.12025028
0.07982708 0.119720265 0.07087142 0.15334769 -0.08997344 0.05092755 0.06717176 0.11569816
0.03986143 0.04188141 0.11492903 0.047868174 0.102758944 -0.029430531 -0.022974156 0.043750532
-0.039780103 0.15364943 -0.04291346 -0.089513496 -0.07125014 -0.00034207915 -0.16186744 0.20391929
00000000: a665 3abc 0a14 c53d 4720 a839 5b50 103e
00000010: 22a0 0dbd 9d0d 083e 24b8 363c 4c85 063c
00000020: 771f fd3d 237f fc3d c789 85bd 2e61 a43d
00000030: 6ca3 d0bd 7390 e2bd b003 173d cd74 c03d
00000040: 9101 0bbc a415 b63c 2cb9 103d 0b90 bcbb
00000050: fbf3 033e 2730 c23d d680 b2bc 4615 ea3d
00000060: 2aaa b73d b4b4 de3c 3fd6 8a3d b38a 8fbd
00000070: 2e8d 983d 7963 bcbc 38bd c9bd 73ca dabb
00000080: f35d 963e f585 c53d 58d2 5bbd 9726 24bd
00000090: 0369 1a3d d680 db3d d373 3b3d 7852 853d
000000a0: 8d16 023d e321 25bd 405b 4ebd 2d01 d93d
000000b0: 3483 bc3d 42f6 18bd bb21 463e 7396 633d
000000c0: 2e87 cb3d da5f 8a3d ddad 763e 3468 74bd
000000d0: 60e0 463c a9c9 483d f24e dabb a418 0e3e
000000e0: 1d98 18b9 1bf5 293d f0ee bbba 6735 0a3e
000000f0: 33af 3fbd 692e d33d cda1 4e3d 126a 99bd
00000100: 1ddd 15bd 638a 0b3e d3cf 173e 1f92 aebd
00000110: 7a65 e1bd a395 553c 6060 d93c 2d3f b5bd
00000120: 8aca ac3d 5b8b 393e 704d 0dbd 38d0 dbbc
00000130: c492 89bd c8c8 f83c ffc4 dabd 5c2d fa3d
00000140: 07c1 663e 3541 143f ffc5 073e 283f 143e
00000150: e898 0e3d 733d 7f3e b453 b9bb 6148 483c
00000160: 7d75 893c cb40 763d 27b3 ed3c dfd5 6bbb
00000170: 7edc 333e 7c28 553e aeaf 2f3b b7d7 7a3a
00000180: 5a51 ac3e 1235 68bd 45e1 df3d c976 0c3d
00000190: 7cf3 bf3c 180c 06bb 21e9 2b3e c9fa 39be
000001a0: e3ab d13d 3a04 293e ece7 be3d 3dbc 1b3e
000001b0: 23e1 89bd fcfb 27bd a0b6 903d 48d2 f6bb
000001c0: 0da4 933d c8c2 e83d 95d1 b03d ca25 9ebd
000001d0: 72d6 0e3a 2dca e53d fc99 e33c 6a96 97bb
000001e0: c6dc 1d3d b41c c7bc 564a 073d 8cb0 e23c
000001f0: 6ab4 3dbd 5dbe 263e 312a 733b 2a7c 4e3d
00000200: c162 b63c 5b62 363e a645 c93d 30da 2c3e
00000210: eae8 b83d 02bf cc3d c7e8 aa3e c838 dd3c
00000220: d45d 803d 7f9b 10be 2f2e 363e 3c51 90bc
00000230: b349 49bd f4c7 f2bc 06a6 833d 56d5 5abd
00000240: 65c0 ea3b 3f63 d63c affe 0f3c 8ef1 ab3d
00000250: 9fe2 4cbe 99f1 19be ba03 4e3d d8d6 c5bd
00000260: 86bd 6d3d d16b 7b3e 0fca 9a3c 9244 d0bd
00000270: b93e 71bd 25b4 81bd 3dd5 e7bd 6485 77bd
00000280: 7343 11bd a614 92bc 9267 0bbd 6af0 12be
00000290: cf26 f8bd 9609 7cbd d0cc bf3d 037a 733c
000002a0: 464a 943d e0cd 723b d0ff 71bd 5982 443e
000002b0: c5a2 313e a1f8 1c3e e7c2 68bd d66b d13d
000002c0: a235 3f3e e0c8 90be bc26 f2bd 7f51 56bd
000002d0: a859 d8bd 55a8 1d3e c05b 66bd 1b82 e1bc
000002e0: f552 0d3d 4bd0 46bd 3b12 593e 27df dfbd
000002f0: 6816 8abd 4416 043d d322 993d c2f6 31be
00000300: 3715 40bd c4f4 2b3e 0f5e 993d 5816 a63d
00000310: 221d a3be e470 6fbb 1f79 dc3d e820 cb3d
00000320: e924 86bd 3e61 a23e 3717 cd3d 1306 1c3d
00000330: 5f5e 573d 7b15 32bc a036 c33d 3cbb d23d
00000340: f546 44bd d04a fb3d b2c8 963d f049 763d
00000350: cdaa e33d b7b2 363d 8d8d d9bb 3266 ff3d
00000360: 59bd 8fbc 97b5 8b3d 7b2a 753d 5b1e c9bd
00000370: 2d4f 4f3e 75c6 933e 47ef aebe 492a d63d
00000380: 3827 e13e 9377 9f3d 7c99 293e 33ab 753d
00000390: 4304 b63c cf50 353e ad33 063e c745 f6bd
000003a0: 617c a33d e62f f53d 0925 913d 2d07 1d3e
000003b0: ff43 b8bd 6899 503d 5991 893d 28f3 ec3d
000003c0: bd45 233d d78b 2b3d e95f eb3d 6b11 443d
000003d0: 4873 d23d 4c18 f1bc 4c34 bcbc c233 333d
000003e0: 76f0 22bd 4756 1d3e 06c6 2fbd da52 b7bd
000003f0: 98eb 91bd 1659 b3b9 94c0 25be 38d0 503e

fc2.bias f4 [64]
-0.015603648 0.15994513 0.2103846 -0.03994938 0.11578322 0.11736776 0.04576945 0.02792561
0.022253687 -0.026361188 0.05785272 0.13760458 0.025361355 0.072540075 0.11399138 0.0339264
0.08601174 0.11159722 0.13675652 0.040598597 0.1021459 0.037479416 0.08031793 0.038325913
0.12883776 -0.03703573 -0.0566363 0.03028692 0.13683948 0.098916 -0.006910035 -0.028630864
0.0067503355 0.08034911 -0.004867975 -0.04580166 0.10472013 0.043372985 -0.028272172 0.01614917
0.041287184 -0.028807793 0.14020197 0.014650597 0.16819912 0.059385773 0.11133614 0.07154556
0.09619221 -0.017924717 0.14652155 0.08495179 -0.015544604 0.12535898 0.01643171 0.095179245
-0.019050207 0.003250489 0.025155084 -0.039101806 0.085479416 0.08911291 0.020102656 0.11940126
00000000: 71a6 7fbc a8c8 233e 106f 573e f6a1 23bd
00000010: c11f ed3d 825e f03d bf78 3b3d 40c4 e43c
00000020: 5d4d b63c 6bf3 d7bc f9f6 6c3d 37e8 0c3e
00000030: 9ec2 cf3c e48f 943d 5074 e93d 69f6 0a3d
00000040: ec26 b03d 158d e43d e709 0c3e b74a 263d
00000050: df31 d13d 0484 193d ba7d a43d a2fb 1c3d
00000060: 0cee 033e c7b2 17bd 77fb 67bd 461c f83c
00000070: a61f 0c3e 7994 ca3d 936d e2bb 468b eabc
00000080: eb31 dd3b 138e a43d 8983 9fbb 859a 3bbd
00000090: 8277 d63d dfa7 313d 0b9b e7bc 444b 843c
000000a0: c01c 293d 52fe ebbc 1b91 0f3e 0f09 703c
000000b0: 643c 2c3e 7f3e 733d 3404 e43d 7b86 923d
000000c0: 6c00 c53d dbd6 92bc bf09 163e 34fb ad3d
000000d0: cbae 7ebc 1b5e 003e cb9b 863c 56ed c23d
000000e0: 2e0f 9cbc 2806 553b 0912 ce3c 3729 20bd
000000f0: d50f af3d d480 b63d 53ae a43c a688 f43d

actor.weight f4 [4, 64]
-0.16548696 0.0049882955 -0.15497974 0.024131067 -0.20045058 0.10076663 0.041621372 -0.2697789
-0.10433762 0.4182118 -0.06897481 0.09730231 0.060680177 0.03352664 0.010670018 -0.18506554
-0.0059901425 -0.20065148 0.09214631 0.0060957796 -0.1570616 0.2498115 -0.061902627 -0.116275914
-0.1053214 0.054080077 0.09719636 0.20375031 0.04338835 0.08515476 -0.018234711 0.14361033
-0.012454906 -0.0316207 0.24275613 -0.28917006 0.10566598 0.06761856 -0.056321755 -0.049464874
0.061824676 0.26441908 0.02308234 -0.22909358 -0.19992286 -0.015365342 -0.023077883 -0.07323003
0.21798243 0.10216886 0.008569686 -0.23736453 0.18451545 -0.022809783 -0.23619509 0.011372437
0.115401514 -0.09278614 0.1260391 0.054972272 -0.2241111 0.14418535 -0.08777996 0.073847875
0.0934635 -0.20235859 0.08108958 -0.15559606 -0.13615584 -0.095686205 0.1715466 0.18808873
-0.034078617 -0.036747232 -0.096240185 -0.18553178 0.18751629 -0.11118126 0.165088 0.08284503
-0.1310927 0.2680396 -0.14011005 -0.096206225 -0.12854701 -0.22149613 -0.06968365 -0.1036924
0.094788104 0.013471768 0.19457096 -0.112153135 0.14437324 0.11051933 -0.12819934 0.05196675
0.31083906 0.080269076 0.013119124 -0.041954856 0.0467348 0.037086852 -0.1660427 -0.092135824
-0.035564896 0.14080685 -0.114450894 -0.25277215 0.13748652 -0.023161149 0.17342451 0.12319283
-0.05243354 0.065270394 -0.10419167 0.22288029 0.0029518895 0.34120402 -0.039994754 0.16921537
-0.06405419 -0.05573668 -0.12851603 -0.24619448 -0.13569854 0.06252459 -0.06128531 -0.032535262
-0.21171275 0.07319298 -0.089996226 0.15141457 -0.20426418 -0.018960757 0.054139175 0.32387537
-0.03733091 -0.25669226 -0.18249707 0.026114037 0.295507 0.03684999 -0.018584609 -0.14149337
-0.038465075 0.3155683 0.006555045 -0.047006235 -0.22222622 0.14205478 -0.011563522 0.0851589
0.021585384 -0.2426446 0.084139824 0.13666818 -0.24943846 -0.2462488 0.13090146 -0.0968675
0.031635676 0.011499015 0.15517092 0.19629307 -0.024629543 -0.03316348 -0.053171087 -0.21392934
0.13018984 -0.10843149 0.069500655 0.15296718 0.31871814 -0.09148719 0.29592347 -0.22015116
-0.07826832 0.0055483063 -0.20100299 0.025481274 0.28941828 -0.2363279 0.29617324 0.10417971
0.103004664 -0.20693107 -0.0146645205 0.03273297 -0.16752334 0.16010188 -0.028502302 0.043651115
0.13611734 0.101551905 0.0022675593 -0.14098369 -0.20908734 0.13609713 -0.040829998 -0.062198743
0.10472672 -0.111188106 -0.17146371 -0.079142615 0.17800292 0.089151405 -0.032758653 0.28707594
0.049853794 -0.15785141 -0.12995395 -0.14611559 0.22623715 0.06622636 0.047048274 -0.09039278
-0.19894399 0.3527051 -0.023853997 -0.1668312 -0.121547796 -0.16415928 0.035828616 0.16166624
-0.10748312 0.12667702 0.40941155 0.02683628 -0.12948437 0.07735011 -0.1787172 -0.02849252
-0.14962795 -0.2315845 -0.01763541 0.2236701 -0.08135445 -0.07275389 -0.14687473 -0.15306585
-0.06502439 0.06746766 -0.0134176295 0.10688832 0.123880155 0.042018443 -0.006610214 0.07888355
0.071935765 0.20499206 0.29042307 -0.049770925 0.03791222 0.25398314 -0.029793626 -0.05464105
00000000: 6a75 29be db74 a33b 02b3 1ebe 84ae c53c
00000010: eb42 4dbe bc5e ce3d 2c7b 2a3d 7620 8abe
00000020: f6ae d5bd db1f d63e aa42 8dbd 6f46 c73d
00000030: c78b 783d 3b53 093d 4dd1 2e3c d281 3dbe
00000040: f548 c4bb 9577 4dbe 34b7 bc3d 1bbf c73b
00000050: c2d4 20be 96ce 7f3e 9c8d 7dbd 1122 eebd
00000060: bfb2 d7bd 1283 5d3d e30e c73d eca3 503e
00000070: fcb7 313d 9e65 ae3d f660 95bc 960e 133e
00000080: a90f 4cbc b584 01bd 1095 783e 190e 94be
00000090: 6867 d83d 997b 8a3d a4b1 66bd ae9b 4abd
000000a0: df3b 7d3d f061 873e 2d17 bd3c 8297 6abe
000000b0: 94b8 4cbe eabe 7bbc d40d bdbc a0f9 95bd
000000c0: c936 5f3e e83d d13d de67 0c3c b00f 73be
000000d0: 9ef1 3c3e 95db babc 20dd 71be 7553 3a3c
000000e0: a157 ec3d a906 bebd 6510 013e 9b2a 613d
000000f0: 617d 65be 53a5 133e fbc5 b3bd 8e3d 973d
00000100: cb69 bf3d 1737 4fbe 4b12 a63d 9354 1fbe
00000110: 706c 0bbe 21f7 c3bd e9a9 2f3e 559a 403e
00000120: 0596 0bbd 4484 16bd 9319 c5bd 0bfc 3dbe
00000130: 4504 403e 00b3 e3bd d40c 293e a8aa a93d
00000140: 2a3d 06be 7d3c 893e 0279 0fbe c507 c5bd
00000150: d4a1 03be e2cf 62be 4db6 8ebd ae5c d4bd
00000160: 4420 c23d b1b8 5c3c 9c3d 473e 8bb0 e5bd
00000170: 94d6 133e f557 e23d b046 03be 16db 543d
00000180: 4c26 9f3e 1d64 a43d 98f1 563c dbd8 2bbd
00000190: fd6c 3f3d 62e8 173d 1907 2abe b5b1 bcbd
000001a0: 7fac 11bd ac2f 103e 3b65 eabd 5a6b 81be
000001b0: 44c9 0c3e 73bc bdbc 3296 313e 864c fc3d
000001c0: 8dc4 56bd 7cac 853d 7162 d5bd bb3a 643e
000001d0: 7d74 413b 4bb2 ae3e 8ad1 23bd cb46 2d3e
000001e0: d82e 83bd 254c 64bd b599 03be 681a 7cbe
000001f0: 8ff4 0abe e40c 803d 4e06 7bbd b243 05bd
00000200: 3acb 58be 33e6 953d f14f b8bd 6c0c 1b3e
00000210: a12a 51be 9753 9bbc 0ac1 5d3d fed2 a53e
00000220: 4ce8 18bd 2b6d 83be 83e0 3abe 1bed d53c
00000230: b24c 973e 04f0 163d c03e 98bc a3e3 10be
00000240: 8e8d 1dbd 2b92 a13e b4cb d63b 9c89 40bd
00000250: 458f 63be cf76 113e ed74 3dbc ca67 ae3d
00000260: d5d3 b03c d377 78be 8051 ac3d bef2 0b3e
00000270: cc6c 7fbe a528 7cbe 080b 063e 7862 c6bd
00000280: 6994 013d 5d66 3c3c 20e5 1e3e 0d01 493e
00000290: e5c3 c9bc 6ed6 07bd edc9 59bd 4b10 5bbe
000002a0: 7c50 053e 5411 debd 5c56 8e3d 6ea3 1c3e
000002b0: 062f a33e a35d bbbd 4883 973e 4e6f 61be
000002c0: 244b a0bd 91ce b53b bad3 4dbe 1bbe d03c
000002d0: a22e 943e f1ff 71be 05a4 973e 2c5c d53d
000002e0: 1cf4 d23d bde5 53be 7543 70bc 0213 063d
000002f0: 3d8b 2bbe bff1 233e a97d e9bc 83cb 323d
00000300: 5862 0b3e 72fa cf3d 559b 143b 075e 10be
00000310: fe1a 56be 0c5d 0b3e 5b3d 27bd 1cc4 7ebd
00000320: f67a d63d 97b6 e3bd 2f94 2fbe 8615 a2bd
00000330: 6646 363e 0395 b63d f02d 06bd 9efb 923e
00000340: 7e33 4c3d cda3 21be a612 05be 539f 15be
00000350: b6aa 673e b0a1 873d b1b5 403d da1f b9bd
00000360: f9b7 4bbe c395 b43e 7569 c3bc ccd5 2abe
00000370: 0dee f8bd 5f19 28be 07c1 123d d68b 253e
00000380: 1c20 dcbd 9fb7 013e 649e d13e c2d7 db3c
00000390: 8d97 04be bc69 9e3d a401 37be 2569 e9bc
000003a0: 1238 19be 7d24 6dbe 2378 90bc c609 653e
000003b0: 299d a6bd feff 94bd 5466 16be 4bbd 1cbe
000003c0: 822b 85bd 7c2c 8a3d 9ed5 5bbc 43e8 da3d
000003d0: e1b4 fd3d 881b 2c3d 7e9a d8bb b38d a13d
000003e0: 0f53 933d 70e9 513e 55b2 943e 99dc 4bbd
000003f0: d849 1b3d 140a 823e c311 f4bc 4bcf 5fbd

actor.bias f4 [4]
-0.021107402 -0.028912073 -0.027524825 -0.014653726
00000000: 6ee9 acbc 03d9 ecbc be7b e1bc 2e16 70bc

critic.weight f4 [1, 64]
-0.3272369 -0.4110952 1.1182816 0.55841213 -0.24318567 0.8955782 -0.32258812 -0.2545686
-0.3611586 -0.7215815 -0.31820518 0.5405342 -0.304557 0.95432615 0.7352962 -0.54737216
0.70782524 0.75956905 -0.33446807 -0.2848323 0.4035685 0.6374152 -0.6039058 -0.22616553
-0.40028664 -0.28139886 -0.5809707 -0.29792702 1.0715731 -0.44809538 0.6041179 -0.8901696
0.49699518 -0.6544902 -0.16013408 -0.56710786 0.62857425 0.5158411 0.48236743 0.7725375
-0.21917231 -0.374221 0.52499646 -0.62335545 0.6168694 0.7070061 -0.38581404 0.63508755
-0.38115397 -0.38341033 -0.35116017 0.36459243 -0.2067921 0.28321117 -0.45370457 0.7247089
0.042345542 -0.435146 0.77366656 0.38851932 -0.29924697 0.898426 0.5529532 0.79218715
00000000: 988b a7be 127b d2be da23 8f3f 19f4 0e3f
00000010: aa05 79be 9d44 653f 452a a5be d156 82be
00000020: c8e9 b8be 91b9 38bf caeb a2be 7360 0a3f
00000030: e5ee 9bbe b84e 743f 5f3c 3c3f 9520 0cbf
00000040: 0934 353f 1e73 423f 663f abbe 8ad5 91be
00000050: 88a0 ce3e a42d 233f 9299 1abf f097 67be
00000060: 5ff2 ccbe 8313 90be 7fba 14bf e489 98be
00000070: 4f29 893f c26c e5be 78a7 1a3f 28e2 63bf
00000080: 2776 fe3e ab8c 27bf 30fa 23be fb2d 11bf
00000090: 3eea 203f 2a0e 043f ddf8 f63e 05c5 453f
000000a0: b56e 60be e599 bfbe 2b66 063f 3994 1fbf
000000b0: 27eb 1d3f 5afe 343f 6b89 c5be 1995 223f
000000c0: 9d26 c3be 5c4e c4be 44cb b3be dcab ba3e
000000d0: 4fc1 53be 0e01 913e f74b e8be 8686 393f
000000e0: 8572 2d3d 75cb debe 030f 463f 01ec c63e
000000f0: e636 99be 3fff 653f 578e 0d3f c7cc 4a3f
