p2-continuous-control/checkpoint/best_d4pg_critic_checkpoint.pth (torch_old, 66081 bytes, 7 tensors)

supports f4 [51]
000000 00 00 20 c1 9a 99 19 c1 33 33 13 c1 cd cc 0c c1
       -10.0 -9.6 -9.2 -8.8
000010 66 66 06 c1 00 00 00 c1 33 33 f3 c0 66 66 e6 c0
       -8.4 -8.0 -7.6 -7.2
000020 9a 99 d9 c0 cd cc cc c0 00 00 c0 c0 33 33 b3 c0
       -6.8 -6.4 -6.0 -5.6
000030 66 66 a6 c0 9a 99 99 c0 cd cc 8c c0 00 00 80 c0
       -5.2 -4.8 -4.4 -4.0
000040 66 66 66 c0 cd cc 4c c0 33 33 33 c0 9a 99 19 c0
       -3.6 -3.2 -2.8 -2.4
000050 00 00 00 c0 cd cc cc bf 9a 99 99 bf cd cc 4c bf
       -2.0 -1.6 -1.2 -0.8
000060 cd cc cc be 00 00 00 00 cd cc cc 3e cd cc 4c 3f
       -0.4 0.0 0.4 0.8
000070 9a 99 99 3f cd cc cc 3f 00 00 00 40 9a 99 19 40
       1.2 1.6 2.0 2.4
000080 33 33 33 40 cd cc 4c 40 66 66 66 40 00 00 80 40
       2.8 3.2 3.6 4.0
000090 cd cc 8c 40 9a 99 99 40 66 66 a6 40 33 33 b3 40
       4.4 4.8 5.2 5.6
0000a0 00 00 c0 40 cd cc cc 40 9a 99 d9 40 66 66 e6 40
       6.0 6.4 6.8 7.2
0000b0 33 33 f3 40 00 00 00 41 66 66 06 41 cd cc 0c 41
       7.6 8.0 8.4 8.8
0000c0 33 33 13 41 9a 99 19 41 00 00 20 41
       9.2 9.6 10.0

obs_net.0.weight f4 [128, 33]
000000 ef 26 9a bd c8 89 ea bd 59 71 dd bd dc 5c 21 bd
       -0.07526957 -0.11452061 -0.10812635 -0.0393952
000010 79 39 29 be 2e 92 e7 3d 55 e2 24 bd 16 b8 81 3d
       -0.1652583 0.113071784 -0.04025491 0.0633394
000020 f9 39 0f be e7 13 98 3e 13 96 c8 bd 0c 72 b8 3d
       -0.13986959 0.29702684 -0.097942494 0.09006128
000030 f8 bb 68 bd ae 1f bb bd b8 fe 1a 3e fe bd 01 3e
       -0.056819886 -0.09136902 0.1513623 0.12670133
000040 ce 0a 9b bc 5b 8b ac 3d f1 90 be 3b f1 51 55 3c
       -0.01892605 0.084250174 0.005815618 0.013020025
000050 66 40 89 3c 6c 5e b7 3d 4e 0c c5 39 ca d9 8e bd
       0.01675434 0.089535564 0.00037583936 -0.06975134
000060 a9 dc 02 3d dd 0e 15 3e 11 5c a8 bc 6e c0 c3 3e
       0.03194872 0.14556451 -0.020551713 0.3823275
000070 98 31 0b 3c 83 c5 e7 bd ec 20 18 be fb eb 1f be
       0.008495711 -0.11316969 -0.14856309 -0.15617363
000080 5f 2e d0 be b8 c5 2d be 0a f1 d1 bd 4c e6 a4 be
       -0.40660378 -0.16969955 -0.10251053 -0.32206953
000090 8d e4 92 bd 0a b9 d3 bc 1b 18 07 ba 19 bb 1b 3e
       -0.07172499 -0.02584507 -0.00051534333 0.15208091
0000a0 84 69 bb bb 5e d3 ee 3d fe 23 93 3d 84 6e c2 bd
       -0.0057193656 0.11661409 0.07184599 -0.094937354
0000b0 a3 c7 d2 bc ea cd 05 be b5 fd 5c bd c8 7f 2b 3d
       -0.02572996 -0.13066831 -0.05395289 0.04186991
0000c0 00 72 80 3d 40 4c 1b 3e 4e 20 86 3c 6b 77 0f be
       0.06271744 0.15165806 0.016372826 -0.14010398
0000d0 8a 4f 93 bc 27 92 12 be 01 7a 4b be 1e 83 d0 3d
       -0.017982263 -0.14313565 -0.1987076 0.101812586
0000e0 67 90 3f 3d 66 ca 07 3c fd 34 67 3d 90 2e b7 3c
       0.046768572 0.008288002 0.056447018 0.02236107
0000f0 86 d0 7b 3e 4e 86 82 3d 18 a5 1b bd c7 cd 10 3c
       0.24591264 0.06373273 -0.037999243 0.008838124
000100 d8 de b3 3c 3e 34 0d bf ea a9 fc 3c 73 49 5f 3c
       0.021956846 -0.5515784 0.03084274 0.0136283515
000110 fc 6d 16 3e 09 22 da bb 96 ef 04 bd 27 5b b8 3d
       0.14690393 -0.0066568893 -0.03245505 0.09001761
000120 7b 35 94 3d 99 d8 5d 3d 82 c8 bd bd 67 da c2 3c
       0.07236763 0.05416164 -0.092667595 0.023785783
000130 5d c8 c6 3d 37 3d 39 3d 03 1a 81 3c 19 e8 ea 3d
       0.09706185 0.045224395 0.015759474 0.1147005
000140 e9 54 9c bc e6 50 17 3d 92 0e 0a 3e ce a7 df 3c
       -0.019083457 0.036942385 0.1348212 0.027301695
000150 27 e4 c0 3d f4 e5 1e be c9 73 cc bd d9 ae 01 bd
       0.094185166 -0.15517408 -0.09983022 -0.03166089
000160 1f ba f7 3d 42 09 4f 3e f0 77 a2 bc 81 9e 0f 3d
       0.12096047 0.20218375 -0.019832581 0.03506327
000170 64 83 5f be be 48 ef be df 16 46 ba 67 99 23 3d
       -0.21827465 -0.46735185 -0.00075565086 0.039941218
000180 c0 02 0a 3f 1a 72 53 bd 7e 67 6c be 97 d4 7c 3e
       0.53910446 -0.051622488 -0.23086354 0.24690472
000190 4a d4 05 3e 02 cc cb bd 8e 5f 2c bd bb da 0e 3e
       0.13069263 -0.09951021 -0.042083316 0.13950627
0001a0 ab 46 e9 bd ea 43 d7 bd c7 9f 0f 3d 30 09 aa 3d
       -0.11390432 -0.105110005 0.035064485 0.083025336
0001b0 45 7c d7 bc be a1 c6 3d 3e c2 89 bc fe 40 5d 3d
       -0.026304374 0.096988186 -0.016816255 0.05401706
0001c0 c2 88 bf bd f0 d1 5e be 75 2d 36 bd 84 b4 22 3e
       -0.09352256 -0.21759772 -0.044476945 0.15889174
0001d0 1d 3f 95 bd 01 d1 8a 3c d0 04 8f 3d b7 18 97 3b
       -0.072874285 0.016945364 0.0698334 0.0046111005
0001e0 6d 85 fa bc 5a 53 b7 bd 98 27 cd 3d 9d cc 38 3b
       -0.0305812 -0.08951445 0.100173175 0.002819813
0001f0 85 95 e7 3d a2 b3 a2 3d 70 06 ad 3e ad 1c 1c 3d
       0.113078155 0.079444185 0.33793974 0.038113285
000200 c8 a4 5c bd fa 34 c5 be c6 01 ac 3d fb 4c e7 3e
       -0.053868085 -0.3851698 0.08398776 0.4517592
000210 46 b8 24 be af 69 00 3e 8c ff a4 3c ec 6b ce 3c
       -0.1608592 0.12540315 0.020141385 0.025197946
000220 af a6 ce bd 94 38 45 3e b1 9a c1 bb c7 16 db bc
       -0.10090386 0.19259864 -0.005908333 -0.02674426
000230 7a da b1 3d 91 8a 7c bd 4c 43 ed bb 62 e2 5b 3d
       0.08684249 -0.061655585 -0.0072406884 0.053682692
000240 89 78 91 bd fb c3 0d be 96 86 5f 3d e4 d6 6c be
       -0.071030684 -0.13844292 0.05457171 -0.2312885
000250 6f 3a 8e 3d 32 c0 c1 bd 81 e9 b3 bd 6b 14 ca 3d
       0.06944739 -0.094604865 -0.08784772 0.09867176
000260 08 de eb 3c 30 b7 45 3c bf 8d 02 bd 86 7e 5b be
       0.028792396 0.012067601 -0.03187346 -0.21434984
000270 12 c1 94 3d d8 fa d3 bd e8 d3 6b 3e 1a ca 48 3e
       0.07263388 -0.10350579 0.23030055 0.19608346
000280 08 c3 f7 bc a8 ed 40 3d 56 22 d2 3c 15 21 c8 3c
       -0.030244365 0.047101647 0.025651138 0.024429837
000290 fd 82 3c 3e df 29 92 be e7 39 1b 3e 27 b9 44 3e
       0.18409343 -0.2854757 0.15158807 0.19211255
0002a0 db 0f 07 3c 37 41 cd bd dd c5 6a 3e ec d8 36 3c
       0.008243526 -0.10022204 0.22927041 0.011160117
0002b0 04 98 67 bd 65 87 99 3c e2 62 97 bc 82 82 0a be
       -0.056541458 0.018741319 -0.018479768 -0.13526347
0002c0 96 ff 31 3d 89 d1 23 3d 27 2b a0 bd 29 70 97 bd
       0.043456636 0.03999475 -0.07820731 -0.0739444
0002d0 f1 fe 02 be d1 fe 01 be 88 7c 2f be dd 69 65 bb
       -0.12792565 -0.12694861 -0.17137349 -0.0035005726
0002e0 2f 1e 44 bd 86 e6 d4 3d 29 4f a0 b8 8f e0 bc bc
       -0.047880348 0.10395531 -7.644139e-05 -0.023056297
0002f0 06 b4 c3 3d 74 3b 56 3d 27 e4 3b 3d 3f 9c 9e 3d
       0.09555821 0.052302793 0.04587188 0.07744645
000300 1a ff fa bd 9e dd ad bd 7c b0 ff 3d b1 3a 23 3d
       -0.12255688 -0.08489536 0.124848336 0.039850894
000310 24 e3 e3 3d 77 ca e6 3d 32 79 b1 bd 0b e4 fe bd
       0.11127308 0.11269086 -0.08665694 -0.124458395
000320 2e e3 e6 3b 73 00 50 bd 82 ef 24 bd 11 54 e5 bd
       0.007046125 -0.05078168 -0.040267475 -0.11197675
000330 be 24 53 bd 99 55 d9 3c b6 33 16 bd d2 fa d7 bb
       -0.051548712 0.026530074 -0.03667041 -0.0065911794
000340 1e 66 55 bd 5d 64 ef 3b 8e bd 15 3c ef aa fe 3d
       -0.05209934 0.0073056654 0.009139432 0.12434947
000350 59 bd 18 3e dc 07 2a bc f0 8c 2b 3c a7 ec 72 bd
       0.1491598 -0.01037785 0.010470614 -0.05930772
000360 51 9a 97 3d a3 d2 d7 3b 89 3a f9 3a 23 30 8c bd
       0.074024804 0.006586389 0.0019014637 -0.06845119
000370 0c c8 8f 3d d8 f0 bb bc 24 bc 94 3d 70 75 10 be
       0.07020578 -0.022941992 0.072624475 -0.14107299
000380 57 77 81 be 91 dc 03 bf 21 9b d2 3d 60 3f 01 3d
       -0.25286362 -0.5150843 0.10283495 0.03155458
000390 6c 46 0c 3f f4 4a 26 be 77 64 c5 bd 70 a0 07 3c
       0.54794955 -0.1623953 -0.09638303 0.008277997
0003a0 aa 5f 0b be d5 54 8d 3d 25 1c 86 3d 67 e6 6e bd
       -0.13610712 0.06900946 0.06548337 -0.058325198
0003b0 25 cc 65 be 4d 4d c9 bd ef b9 51 3e b8 53 94 3e
       -0.22441156 -0.09829197 0.20481084 0.28970122
0003c0 4c 00 39 be 16 e0 db bd b7 4f bd bd 49 21 06 bc
       -0.1806652 -0.107361004 -0.0924372 -0.008186647
0003d0 6c 15 a9 bd 6b 05 13 bd 3f 8e 03 3e 0f ce 42 3b
       -0.08256039 -0.03589384 0.12847231 0.0029724871
0003e0 96 87 7d 3d c3 3a d8 3c c0 c8 ee bd 91 c3 af bd
       0.061896883 0.026395207 -0.11659384 -0.08582223
0003f0 58 2d 5d 3c e8 ca c8 bd 4b e8 19 bd 84 08 07 be
       0.01349958 -0.09804326 -0.037575047 -0.13186842

obs_net.0.bias f4 [128]
000000 c9 b5 bb bd c1 4d 9f bd 04 21 e4 3e 05 35 af be
       -0.09165532 -0.07778502 0.4455644 -0.34220138
000010 7d 9f 40 bd 6e 80 9d 3d fc 8a 02 3f 5d 55 37 be
       -0.0470271 0.07690512 0.50993323 -0.17903657
000020 a1 3e f7 3e 40 2d 72 3e f1 56 a5 bd 6e b7 cb bd
       0.4828997 0.23650074 -0.080732234 -0.09947096
000030 d9 9e 57 be d0 a0 52 bd d6 29 25 3e f2 76 f5 bd
       -0.2105669 -0.051422894 0.1612924 -0.11985578
000040 8b 19 fe 3e bb 9c 42 bd 1b b5 dc bd 3e 37 95 3e
       0.49628863 -0.04751275 -0.107767306 0.2914371
000050 71 be 14 3e 1b 62 45 3e bd fe 42 3d 36 50 cd 3e
       0.14525773 0.19275706 0.04760622 0.4010026
000060 99 09 08 be 3b 5c 82 3e 82 aa 62 be 89 36 af 3e
       -0.13284911 0.2546099 -0.22135356 0.34221295
000070 32 4e bf 3c f6 13 b0 3e e2 b9 2b be a7 22 3b 3e
       0.023352716 0.3439023 -0.16770127 0.18274938
000080 b2 a2 5a 3d 79 70 0e be 3e 44 ef 3d 45 34 ea bd
       0.053377815 -0.13910092 0.11682938 -0.11435751
000090 40 71 b5 bd 9d a1 33 be af fc 8b 3e c2 a0 87 3e
       -0.08859491 -0.1754212 0.2734122 0.26489836
0000a0 61 5a 7f 3e d4 8a 6f 3d b4 bd c0 bc 94 b1 2b 3e
       0.2493682 0.058482006 -0.023527957 0.1676696
0000b0 35 87 aa 3c 91 17 ab be 40 df 08 be 40 e6 85 3e
       0.020816425 -0.33416417 -0.13366413 0.2615223
0000c0 22 90 1b 3e d8 00 45 3e 1a 30 bf 3d c4 e3 f5 3e
       0.15191701 0.19238603 0.093353465 0.48025334
0000d0 05 f9 53 3c be 59 e3 bd 54 6f a9 3d a3 cb f0 bd
       0.012937789 -0.11101101 0.08273187 -0.117575906
0000e0 5b 14 b1 bd 4d bc 88 3d f8 7c bc bb ab d6 a7 be
       -0.086464606 0.066765405 -0.005752202 -0.32780966
0000f0 d5 78 db 3e 61 18 28 3e 3a 43 fc 3e da 53 10 be
       0.42865625 0.1641555 0.4927004 -0.14094487
000100 c1 9a 3c 3e a3 98 35 bd fc 83 b1 3e 26 56 a9 3e
       0.18418409 -0.04433502 0.3467101 0.3307354
000110 3d 78 0d bd 0c 0a 66 3c 4c 57 22 3f e1 28 6c be
       -0.034538496 0.014040481 0.63414454 -0.23062469
000120 d5 4c 20 3e b6 42 1a be 4a ef 61 3e 80 45 79 3e
       0.15654309 -0.1506451 0.22063938 0.24342918
000130 e8 6c 72 3d 6f db ff 3d 3d 97 8e 3e f7 59 0f 3e
       0.059185892 0.124930255 0.2784976 0.13999163
000140 12 ef f9 bd 4d d9 a0 3e e9 ef d3 be 08 f5 32 3e
       -0.12203802 0.31415787 -0.41393974 0.17476285
000150 9b 49 9c be bb 18 8e bd 7b 5c a6 bc a5 e2 64 3e
       -0.30524907 -0.06938311 -0.02030777 0.22352083
000160 74 f1 b1 3e 56 ed d3 bb fc 59 68 3e aa 9e 9a 3e
       0.34754527 -0.0064675016 0.22690576 0.30199176
000170 a0 cf a6 3d be b2 97 3e db df 80 3e 94 ab b0 3e
       0.0814507 0.29628557 0.25170788 0.34505904
000180 30 e9 de bc f9 90 42 bd 32 15 a0 3e 58 7d 9e 3e
       -0.027210802 -0.047501538 0.3126617 0.30955005
000190 a0 2f 7d 3d fb f9 13 3d de 58 85 be e5 57 4b 3d
       0.061812997 0.03612707 -0.26044363 0.04964437
0001a0 f5 97 d4 bd 55 06 84 3c 7e 45 5e 3c 7e 7a 50 be
       -0.10380546 0.0161163 0.013566373 -0.20359227
0001b0 2f ab 85 3e 38 d5 96 bd fe b3 05 bd 4f e8 78 3e
       0.26107165 -0.07364887 -0.032642357 0.24307369
0001c0 da 2c 27 3e 16 b6 7a be 6b d4 97 3e 7c d1 50 3d
       0.16325703 -0.24483523 0.2965425 0.05098103
0001d0 9a 52 16 3e ed 48 06 3e 53 36 f3 bc c7 6b be bd
       0.14679947 0.13113756 -0.02968899 -0.09297901
0001e0 c1 73 d9 3d f9 c4 2a 3e 4e 29 38 3d 77 15 c1 bd
       0.106177814 0.16676702 0.044961266 -0.09427922
0001f0 c3 9c 0b be 81 46 04 3e ef 31 cd 3e 92 59 ac 3d
       -0.13634019 0.1291752 0.4007716 0.08415522

out_net.0.weight f4 [64, 132]
000000 1f b3 37 3c d6 b7 9b bd 20 b5 c5 bc 39 43 af 3e
       0.011212139 -0.07603423 -0.024134219 0.34230974
000010 7a 89 15 3d 10 bd 9e bd 41 77 49 bd 44 26 57 bd
       0.03650806 -0.077509046 -0.049185995 -0.052526727
000020 ee e7 af 3d 26 2d a2 3d 5d 98 22 3e ab 48 e7 3d
       0.08589159 0.07918768 0.15878434 0.11293157
000030 ef 33 77 3d 3e 06 0b 3e d0 cc bd 3d 50 c6 d1 bd
       0.060352262 0.135766 0.092675805 -0.10242903
000040 46 bd 2e bd 70 91 96 bc 9d 70 dc bd 50 b1 c9 3d
       -0.042660974 -0.018379897 -0.10763667 0.09848273
000050 80 26 8a 3d a6 e9 8b 3d 79 c8 1c 3e 4a ee df 3d
       0.067456245 0.06831674 0.15310849 0.10934122
000060 00 26 1d bd 1b e5 17 b8 24 d8 8a 3c be 40 4c bd
       -0.038366318 -3.6214577e-05 0.016948767 -0.04986643
000070 a0 4d 6b 3d 34 2c 05 be f6 e7 28 3d 6c e8 c1 bd
       0.057447076 -0.13005143 0.04123684 -0.09468159
000080 e4 6a 2b bd fa 00 91 3d d7 23 6f bd 3d e3 f1 3c
       -0.041849986 0.070802644 -0.05838379 0.029527301
000090 d5 e9 cf 3c 34 8e 28 bc 55 11 01 be c1 d6 80 3d
       0.025380054 -0.01028781 -0.12604268 0.06290961
0000a0 88 a7 d9 3d 0d 77 9b bb 71 af 98 3d 5e 53 15 3e
       0.10627657 -0.0047444166 0.07455338 0.14582583
0000b0 a9 4f 6c bd a6 12 39 3e 3d e1 54 3d 80 30 6b be
       -0.057693157 0.1807352 0.051972616 -0.2296772
0000c0 6a 4e 95 3d 5d 3c 89 bd 20 bc cb 3b 05 18 00 bc
       0.07290347 -0.067009665 0.0062174946 -0.007818227
0000d0 50 35 f9 bc 77 79 e4 bc b9 ac 48 bd a3 87 2d 3e
       -0.03042093 -0.02788995 -0.048992846 0.16946273
0000e0 2c 7d c5 bc 1d 0d 71 3c 38 8f 10 3d b2 eb 3d 3d
       -0.024107538 0.014712599 0.035292834 0.046367355
0000f0 a0 04 bb 3c 7f b9 4c 3d 86 d1 87 bd 25 79 16 3c
       0.022829354 0.04998159 -0.0663176 0.009184157
000100 52 3b 08 be e2 39 03 3e 15 57 d7 3c c1 13 79 3d
       -0.13303879 0.1281505 0.026286641 0.060809854
000110 39 8f bd bc 08 f1 97 3b b3 a9 2f bd a4 12 ee 3c
       -0.023139583 0.0046368875 -0.042886447 0.029061623
000120 04 3f ee 3a 09 0e 87 bc ac 4b 97 3d 5d 3b bd bb
       0.0018176739 -0.016486185 0.0738748 -0.005774899
000130 ae 8a a5 bd 97 f1 7a bd c5 e9 d1 bd 21 1e 93 3c
       -0.08083092 -0.061265554 -0.10249666 0.017958703
000140 ea d4 42 3e 08 a2 2b 3d 6f ca 93 bd da 8c 33 3d
       0.19026533 0.041902572 -0.072163455 0.0438355
000150 cc 27 c0 3d c9 10 b7 bd 05 d0 87 3d b7 a8 f8 bc
       0.09382591 -0.089387484 0.066314735 -0.030353887
000160 e5 8b e4 3c 90 dd 3e bd 06 6a 0d bd b6 05 37 be
       0.027898738 -0.046598017 -0.03452494 -0.17873272
000170 4e c2 9e 3d 18 b2 74 bc 7e d6 33 bc 3f 7d 8e 3d
       0.077519044 -0.014935039 -0.010976432 0.069574825
000180 8d f1 c4 3d d8 b3 05 be a9 d5 01 3d 64 5c 05 3a
       0.09616385 -0.13056886 0.031697903 0.00050873146
000190 71 fb 80 ba 82 c2 3d bd 53 79 87 3d 60 af 57 bb
       -0.000984056 -0.046328075 0.06614938 -0.0032910928
0001a0 68 9b f9 bd fe d1 37 3d 39 4f 13 3d 14 36 58 3e
       -0.121878445 0.044878 0.035964224 0.21114379
0001b0 46 87 f4 bb 29 8a c3 bc 44 67 af 3d 76 96 87 bd
       -0.007462415 -0.02386959 0.08564618 -0.06620495
0001c0 9e 6d 0d be 2f 0c 94 bd 81 ae fd 3c 61 3d e9 bd
       -0.13811347 -0.07228886 0.030966999 -0.1138866
0001d0 da bf df bd f1 24 68 bc 63 07 85 bd 26 98 53 3d
       -0.10925265 -0.014168964 -0.064955495 0.051658772
0001e0 10 5d 42 bc 2d 9c a5 3d f5 3c 19 3e 51 a6 6d 3e
       -0.011863008 0.08086429 0.1496466 0.23207976
0001f0 5e 96 aa 3c 2d 05 07 3e 1c 70 7f ba cf 94 09 be
       0.020823654 0.13185568 -0.00097441836 -0.13435672
000200 ae 6d 19 bb 2e 40 37 bd ed 57 54 3d bd ee 30 be
       -0.0023411321 -0.04473894 0.051841665 -0.17278571
000210 0f 1b 42 3c 63 9e 3a bd 74 95 ac 3b 4c 6a 7d 3a
       0.011847272 -0.045561206 0.0052668396 0.00096670236
000220 98 f9 e9 bd b3 92 8d bd bb f7 2b 3d 06 b8 c4 bd
       -0.11424559 -0.06912746 0.0419843 -0.09605412
000230 8c 27 28 3d e5 8d e4 bc 0b 89 d5 bd 04 e3 3f be
       0.04105334 -0.027899692 -0.104265295 -0.18738943
000240 bb 9a 8d bb b0 d9 97 bd 11 ea d8 bd 8b f6 05 3d
       -0.004321424 -0.074145675 -0.105915196 0.032705825
000250 6c 60 b1 3c 90 cc 29 bd 14 d0 11 3d 48 d1 9d 3c
       0.021652423 -0.04145485 0.03559883 0.019264832
000260 8f e0 9d bd aa 2c fa bc 01 4c d2 bd 0f 8c 1d be
       -0.07708847 -0.030538876 -0.10268403 -0.1538546
000270 4e 9f 1e 3b 80 7a 92 bd d4 04 9c 3d 43 2f fe 3c
       0.002420384 -0.07152271 0.076181084 0.031028396
000280 1a 76 59 be 9b 34 fa 3d 08 3f 16 bd dc 77 5a 3d
       -0.21236458 0.12217065 -0.036681205 0.053336963
000290 7d db ed 3d a0 32 89 bc bf 37 7b bc 1b d3 e0 39
       0.1161413 -0.016747773 -0.015333115 0.00042881895
0002a0 2c ad 26 be 5d 20 85 3d 77 76 dc 3b 28 eb ee bd
       -0.16276997 0.065003134 0.0067279893 -0.11665946
0002b0 8f da 63 bd 3a fa 10 be 8c 11 35 be 16 26 bd bb
       -0.055628356 -0.14157954 -0.17682475 -0.0057723625
0002c0 6d 2d 29 be 4c 0e 6f bb c4 83 f8 3c cf 34 98 3c
       -0.16521235 -0.0036477027 0.030336268 0.018579869
0002d0 ca dd 4b be 6b dd 2c 3c e6 af 2d 3e 17 88 71 3d
       -0.19908825 0.010550837 0.16961631 0.058967676
0002e0 31 86 12 3d ed ed a0 3d d7 8d 3d bd 8c 7a da bd
       0.035772506 0.07857881 -0.046277847 -0.10667905
0002f0 97 0d d6 b8 c0 d0 f4 bc 2e 4a 23 3e 63 34 f1 3d
       -0.000102068465 -0.029884696 0.15946266 0.1177757
000300 b5 91 8c 3c aa 01 42 bd 72 85 dc 3d 7a b0 ab bd
       0.017159322 -0.04736487 0.1076764 -0.083832696
000310 83 da 92 bd 6d 7b d5 bd 01 94 8d 3b 48 80 b7 3d
       -0.07170584 -0.10423932 0.004320622 0.089600146
000320 f2 d8 e1 3b 89 61 b5 bc f6 6e ab 3c f7 05 79 3d
       0.006892317 -0.022141235 0.020926934 0.060796704
000330 ab 2a 88 3d cd aa c1 3c 83 75 c7 bc b8 6b 8c be
       0.06648763 0.023641014 -0.024348026 -0.27425933
000340 60 e8 00 be 78 fa 8f 3d c0 1d be bd ee 09 09 bb
       -0.12588644 0.07030195 -0.09283018 -0.002091046
000350 0d c6 6d bd 8f d7 9d bc 37 15 4c 3c dd a9 40 bd
       -0.058050204 -0.019267825 0.01245623 -0.047036994
000360 40 c4 ca bc 40 78 57 bd fb 95 bd bd ce d3 b7 3d
       -0.024751782 -0.052604914 -0.09257122 0.089759454
000370 2e 6e 11 bd 0b a3 57 bd 3b 98 11 be 51 54 d4 3c
       -0.035505466 -0.052645724 -0.14218228 0.025919111
000380 2d 11 0a be 0e 2d 35 3d 98 ad 44 bd 10 1b bb 3b
       -0.13483115 0.04423242 -0.048017114 0.005710013
000390 4e b2 b2 3d 23 2e 00 3e 74 d7 c1 3d 07 64 5e 3d
       0.08725415 0.125176 0.094649225 0.054294612
0003a0 71 1b 0b be 77 01 c4 3d f0 cf 97 3d 23 be 26 be
       -0.13584687 0.09570592 0.07412708 -0.16283469
0003b0 5e ba 47 be 82 ba 2b bc c6 d9 10 3d 34 24 6b be
       -0.19504687 -0.010481479 0.035363935 -0.22963029
0003c0 72 09 8c 3c 62 04 2d bd 61 bd f6 bb 7f f0 5d 3d
       0.017094348 -0.042240508 -0.0075299 0.054184433
0003d0 bd df ab 3b 53 60 20 3d 34 b1 37 3c d4 9c df bd
       0.0052451775 0.039154362 0.011211682 -0.109185845
0003e0 9d c5 b8 3c 02 57 db 3c bd 07 f5 3d 53 ca 46 be
       0.022555167 0.026774887 0.119643666 -0.19413118
0003f0 8a a0 83 bd 09 f6 51 3b 04 6a 5e bd 4f 40 5a bd
       -0.06427105 0.0032037518 -0.054300323 -0.053283986

out_net.0.bias f4 [64]
000000 5c 6b 87 be 0b 32 31 3e 31 51 7e 3e 75 9d 29 3e
       -0.26449096 0.17304246 0.2483566 0.16563971
000010 f1 75 e3 3d dc 97 d3 bd fb e2 d9 39 f2 92 1c 3e
       0.1110648 -0.10331699 0.0004155858 0.1529043
000020 af 5e 51 be 2a 18 c0 3c c4 a8 dd 3c d9 99 40 3e
       -0.20446275 0.023449022 0.027058013 0.18808688
000030 6d 11 c7 3e 32 5b c8 3d 97 b2 0b 3e 94 df 23 3e
       0.38880482 0.09783019 0.13642345 0.16003257
000040 df 13 89 3e 7e 0a 6d be 27 43 c5 bc 50 48 c5 bc
       0.26772973 -0.23148534 -0.024079872 -0.024082333
000050 86 7f aa 3e f4 50 ee 3d 3b b8 4a 3e 46 43 c0 3d
       0.33300418 0.11636534 0.19796841 0.093878314
000060 4a 6f 13 3e 64 a4 b8 3d c7 b5 9b 3e 2c 17 dd 3d
       0.14397922 0.0901573 0.30412123 0.10795435
000070 4d 67 b6 3e d6 55 3c 3e b2 a9 4f 3e 62 b8 9a 3d
       0.35625687 0.18392119 0.20279577 0.075546995
000080 18 05 a0 3d 8d 23 30 3e 71 d7 10 bd f3 1c 09 be
       0.078134716 0.17201062 -0.03536171 -0.1338995
000090 04 d4 c8 3d 43 96 9e 3e f9 ac 23 bd 23 ad 4e bd
       0.09806064 0.30974016 -0.03995988 -0.050458085
0000a0 3e e8 2c be dd 14 46 3e 79 82 41 3e eb 96 71 3e
       -0.16885468 0.19343896 0.18897428 0.23592727
0000b0 23 6b 38 3e 17 fa c7 3d 71 43 59 3e 1c e6 58 be
       0.1800962 0.09764498 0.21217133 -0.2118153
0000c0 50 07 63 3e df 85 c4 3e da 65 48 3e 1d c7 2b 3e
       0.22170758 0.38383386 0.19570103 0.16775174
0000d0 92 7d 01 3e 18 b5 4d 3a f9 fb 56 3e 78 e3 13 bc
       0.12645558 0.00078471145 0.20994557 -0.009026401
0000e0 15 9b 52 3c 51 fb bd 3e b4 a1 ae 3e 15 cf 41 3e
       0.012854357 0.37105802 0.34107745 0.18926652
0000f0 40 e7 40 3e 8e 83 7d 3c 6e 9b 0a 3f 38 85 9e 3e
       0.18838215 0.01547326 0.54143417 0.30961013

out_net.2.weight f4 [51, 64]
000000 ab 68 ba 3e 16 a2 02 be 27 b9 a6 be 55 df b4 be
       0.3640798 -0.12757143 -0.32563135 -0.3532664
000010 8c ae 1b be 0d 01 23 3e c9 b6 cd 3d 81 66 97 be
       -0.15203303 0.1591837 0.10044629 -0.29570392
000020 47 dc 94 3e 76 a9 12 be a2 21 71 be 05 4c 78 be
       0.29074308 -0.14322457 -0.23547986 -0.24247749
000030 31 00 3c bf f0 51 ef be c8 6a ab be ca 08 ad be
       -0.7343779 -0.467422 -0.33479905 -0.33795768
000040 a4 a9 e1 be 64 d2 04 3e 39 d4 5d bc a6 0b 30 3d
       -0.44074738 0.12970883 -0.013539367 0.04297986
000050 8d 2f 07 bf 1c c0 91 3c 30 a6 dd be 0f 17 c9 be
       -0.5280693 0.0177918 -0.43290854 -0.39275405
000060 fd 6d 98 be f3 29 3f be 16 a2 b1 be 6f 82 9b be
       -0.29771414 -0.18668346 -0.34693974 -0.3037295
000070 a6 80 09 bf ad aa 29 be aa 04 ce be aa 3f 57 be
       -0.53711927 -0.16569014 -0.40237933 -0.2102038
000080 9f aa 21 3d ff a5 01 bf 48 a6 27 be e7 16 90 bd
       0.039469358 -0.50643915 -0.16372025 -0.07035618
000090 c0 2b a5 be 5d cd b4 be e7 80 cc bc dd 8b 44 bd
       -0.3225994 -0.3531293 -0.02496381 -0.047984947
0000a0 bd ff 48 3e 6a 4a 0a bf dc f9 16 be c9 a3 16 bf
       0.19628806 -0.54019797 -0.14743751 -0.58843666
0000b0 a2 eb b6 be 90 0a 85 be ff ee 91 be 5d b4 b4 bd
       -0.3572665 -0.2598462 -0.28502652 -0.08823464
0000c0 03 6f 96 be 30 ac d9 be f4 ab 8d be eb 6e 83 be
       -0.2938157 -0.4251418 -0.27670252 -0.2567056
0000d0 c9 6d 91 be 9d 8e 8e be fe 10 dc be 70 db 3a bd
       -0.28404072 -0.2784318 -0.42981714 -0.04561943
0000e0 e1 b9 2b bd 35 8b d1 be 03 18 12 bf 4d ac e5 be
       -0.041925315 -0.4092652 -0.5706789 -0.44858018
0000f0 07 b2 05 be b9 5f 13 be d5 ef 61 bf 91 03 2a bf
       -0.13056193 -0.14391984 -0.8825658 -0.6641169
000100 03 94 9a 3e 16 fb 63 be 93 fb 75 be a2 b9 8c be
       0.3019105 -0.2226375 -0.24021749 -0.27485377
000110 a7 b7 dd bd 14 b5 3d 3e 30 17 be 3c 2b 1c 83 be
       -0.108260445 0.18526107 0.023204416 -0.25607428
000120 f8 32 52 3e de 38 ef bd de d9 7f be 2c 7a 00 be
       0.20527256 -0.116807684 -0.24985453 -0.12546605
000130 56 46 49 bf 88 7e 85 be df 66 f1 be 29 4f ca be
       -0.7862295 -0.26073098 -0.47148797 -0.3951352
000140 90 15 f3 be 57 05 92 3d 73 cb 82 3c 0f 06 1c bd
       -0.47477388 0.07129925 0.015966153 -0.038091715
000150 3b 22 01 bf 36 ed 71 bd 5d da d9 be 60 69 b2 be
       -0.50442857 -0.059064113 -0.4254941 -0.3484602
000160 55 ec 5c be a7 65 81 be a2 9b 5f be 68 03 99 be
       -0.21574529 -0.25272867 -0.21836713 -0.2988541
000170 8d ca 00 bf 70 8b 8f be 00 d1 bb be 60 db c5 bd
       -0.5030907 -0.2803607 -0.36682892 -0.09660983
000180 51 84 70 3d 77 8e d6 be 97 71 04 be 46 73 6e bd
       0.058719937 -0.41905567 -0.12933956 -0.058215402
000190 72 ef 94 be b6 97 b8 be 26 31 d3 bb cc 0d ca 3c
       -0.29088932 -0.36053246 -0.006445068 0.024664782
0001a0 34 91 34 3e 2e be f6 be 6d 1a 66 be d7 16 0c bf
       0.17633516 -0.4819197 -0.22471018 -0.5472235
0001b0 8b 28 c2 be b9 a1 6b be 69 41 7d be 9b 62 b2 bd
       -0.37921557 -0.23010911 -0.24731983 -0.08710214
0001c0 fc f5 bf be b1 4d dd be 8b 72 6c be da 0a 31 be
       -0.3749236 -0.43223336 -0.2309057 -0.17289296
0001d0 60 68 88 be 7e 97 f8 bd c0 27 a9 be bd 4a b8 bd
       -0.26642132 -0.1213827 -0.3303814 -0.0899863
0001e0 12 d1 da 3c 08 b7 00 bf 73 fa e6 be 22 b2 8f be
       0.02671102 -0.50279284 -0.45112953 -0.28065592
0001f0 0c 2c 2d be 00 b5 b5 bd 88 ac 4f bf 18 17 0b bf
       -0.16911334 -0.08872414 -0.81122637 -0.54332113
000200 a5 0d 8d 3e aa a5 81 be 19 ce 71 be d0 0c 38 be
       0.27549472 -0.25321704 -0.23613776 -0.17973638
000210 ca 66 0b be cf 41 2f 3e 26 91 4d bd 0c 82 5d be
       -0.1361343 0.17114948 -0.050187252 -0.2163164
000220 d3 be 40 3e 75 c8 06 be f9 88 74 be 14 03 64 bd
       0.18822794 -0.13162406 -0.23880376 -0.055666998
000230 f6 84 43 bf f4 b7 0d be a8 3f 02 bf 45 50 cc be
       -0.7637476 -0.13839704 -0.5087838 -0.3990499
000240 21 d2 d1 be d1 9f 71 3d 70 43 c9 bc 56 49 12 bd
       -0.40980628 0.058990303 -0.02456829 -0.03571447
000250 bd e4 ed be c0 1b 10 be 97 b4 db be 12 9a 9a be
       -0.46463576 -0.14073086 -0.42911217 -0.3019567
000260 d7 ea 0d be 09 9f 54 be 53 fe 3a be 1b 74 8f be
       -0.13859116 -0.20763792 -0.1826108 -0.2801827
000270 6e 9c f6 be c1 0d ab be 5c 42 a2 be 0c c8 fc bd
       -0.4816622 -0.3340893 -0.31691253 -0.123428434
000280 c8 36 1e 3d 90 76 ab be 8e 74 9c bd a2 f6 85 bd
       0.038626462 -0.33488894 -0.076394185 -0.06541182
000290 27 8a 92 be 21 d1 a6 be 26 89 ac ba a1 b1 40 bc
       -0.28621027 -0.32581428 -0.0013163432 -0.0117611
0002a0 e3 6c 20 3e 3f e9 e1 be bf 40 5c be e0 34 f8 be
       0.15666537 -0.44123265 -0.21509074 -0.4847784
0002b0 ed 7f d0 be 01 fa 80 be 17 54 8a be 4f 47 87 bd
       -0.407226 -0.25190738 -0.2701728 -0.06605398
0002c0 dc d8 ab be 1a 50 df be 0a c1 60 be 56 e8 dd bd
       -0.33563888 -0.436158 -0.21948639 -0.1083533
0002d0 1f 20 62 be e1 a2 1e bd 56 84 da be 3a 9f e1 bd
       -0.22082566 -0.038729552 -0.4267909 -0.11016698
0002e0 e8 6b 27 3d ab c5 0f bf 0b ce fe be 50 2c 5d be
       0.04087439 -0.5616099 -0.49766573 -0.21598935
0002f0 d6 ba 4f be 38 d1 a8 bd e9 82 4f bf 7c 9e ef be
       -0.20286116 -0.0824303 -0.8105913 -0.468006
000300 30 98 81 3e e0 00 88 be 26 35 77 be f6 ec 00 be
       0.25311422 -0.26563168 -0.24141368 -0.12590393
000310 96 eb 26 be cb 7b 17 3e 32 56 cb bd aa d6 36 be
       -0.16300806 0.14793317 -0.0992855 -0.17855325
000320 b4 06 11 3e 0e a0 e9 bd fa 29 5f be fc 56 70 bc
       0.14162713 -0.11407481 -0.21793357 -0.014669176
000330 c4 5a 48 bf cc 75 b5 bd b7 e4 fb be c2 51 c6 be
       -0.782635 -0.088603586 -0.49197933 -0.3873425
000340 6b 9c c1 be 80 17 58 3d 01 b5 91 bd d9 06 c0 bc
       -0.3781465 0.052756786 -0.07114602 -0.023440765
000350 ef 20 df be ac da 32 be 50 91 dd be 65 c9 78 be
       -0.43579814 -0.17466229 -0.43274927 -0.24295576
000360 57 63 da bd c3 a2 48 be 9c 0f 29 be aa 74 7d be
       -0.10663479 -0.19593339 -0.16509861 -0.24751535
000370 cc 22 e3 be 45 b8 b7 be 1d 73 93 be 61 6a 5f be
       -0.44362485 -0.35882774 -0.28798762 -0.21817924
000380 92 dd 9f 3c 55 85 8d be 8a 55 28 bd 35 ad a1 bd
       0.019514833 -0.27640787 -0.0410972 -0.07894365
000390 72 77 8c be b5 1a 92 be 39 0b cf 3c e0 12 97 bd
       -0.2743488 -0.28536 0.025273906 -0.07376647
0003a0 58 6b 1d 3e 76 c9 d0 be 7b 44 53 be b3 13 e7 be
       0.1537298 -0.40778702 -0.20631592 -0.45132217
0003b0 07 3d be be e5 ba 6e be 0d 98 8e be 90 c1 1b bd
       -0.37155935 -0.23313482 -0.2785038 -0.038026392
0003c0 f5 73 a3 be 01 51 e6 be ab dc 6a be fc 1f 35 bd
       -0.31924406 -0.44983676 -0.2293574 -0.044219956
0003d0 ee f0 28 be 3a 27 76 bc 04 4c d9 be f2 fd 0d be
       -0.16498157 -0.015024001 -0.42440808 -0.13866404
0003e0 56 b4 91 3c d5 ac 15 bf 4e 66 04 bf fd 98 49 be
       0.017786186 -0.58466846 -0.51718605 -0.19687267
0003f0 32 32 5a be e2 f8 89 bd 1e 15 53 bf a1 a5 e2 be
       -0.2130821 -0.06736924 -0.824541 -0.4426699

out_net.2.bias f4 [51]
000000 bf 90 26 bf 8b 51 2c bf 51 18 18 bf c8 28 00 bf
       -0.65064615 -0.67311925 -0.59412104 -0.5006223
000010 37 49 f9 be c7 46 ef be 01 3c fd be c0 fb ee be
       -0.4868867 -0.46733686 -0.49459842 -0.46676445
000020 f1 3e e4 be 01 df e0 be 4d 48 f1 be f0 a2 e2 be
       -0.4457927 -0.43920138 -0.47125474 -0.44264936
000030 d2 02 bb be 0a 8c b6 be 10 fb c7 be a8 44 cc be
       -0.3652559 -0.35653716 -0.39058733 -0.3989613
000040 d1 4f d9 be df 03 cd be a5 7a e1 be 35 ca da be
       -0.42443708 -0.40042016 -0.44038883 -0.42732397
000050 56 f1 f0 be 8e 03 f3 be b9 bf e9 be 0e 22 9c be
       -0.47059125 -0.4746365 -0.45654085 -0.30494732
000060 34 18 a7 be 4f 3c b1 3d 5b 1a 5e bd f3 f7 1d 3e
       -0.32635653 0.08654081 -0.054224353 0.15426616
000070 bc d8 23 3e 97 cc ca 3d 4b 32 d1 3d 09 49 ad 3d
       0.16000646 0.09902304 0.10214671 0.08461196
000080 57 fa 4d 3d 2b 6e cb 3c 88 a2 64 3a 68 cd 20 bd
       0.05028757 0.024832806 0.0008721729 -0.03925839
000090 7a c6 04 bf e0 be 1c bf 05 ca 0f bf 6a 63 fa be
       -0.5186535 -0.6122875 -0.5616763 -0.48903972
0000a0 89 33 de be c7 85 e3 be 60 cb d4 be ef 4e ed be
       -0.43398693 -0.44438002 -0.41561413 -0.46349284
0000b0 51 e6 06 bf cc 54 05 bf 3e fd f7 be ef 3a 13 bf
       -0.52695185 -0.52082515 -0.48435396 -0.575118
0000c0 43 a6 1d bf 7e 64 49 bf 5c 81 21 bf
       -0.6158182 -0.78668964 -0.6308801
