p2-continuous-control/checkpoint/best_d4pg_actor_checkpoint.pth (torch_old, 52493 bytes, 6 tensors)

net.0.weight f4 [128, 33]
00000000: e661 a63d cbf2 31be 9e0a 4c3b 29a1 b43d
00000010: 0963 3fbe 3914 9bbd 21ea 8cbc 0731 2b3e
00000020: 0272 55bb 7d2d 073e de4b 0c3e 2b70 933d
00000030: 0955 003e 6c3e 3d3e 653f 5e3d e3d0 d43d
00000040: 7e59 6bbe 3034 793c 1420 823e a1ca 463c
00000050: 7340 483e fd5b 6ebe 5b58 71bc ce71 25bc
00000060: 5106 d63a 2ea7 6d3d 5601 e5bd 263e 433e
00000070: 41e7 793e 83c5 e7bd 9b84 303d fbeb 1fbe
00000080: 1a58 bfbe ebf1 3abe 6a40 50be 1b4c 65bd
00000090: c296 98bc 9efa cdbd 9d08 4bbe 3632 e53d
000000a0: 61e2 abbd d0ba 07be 530d 10be abd4 8abe
000000b0: b997 263d dd3e 9c3e e329 89be 3d33 d7be
000000c0: e221 c6bb dd0a 88be fe2c 3d3e 3019 b4bd
000000d0: 1d6a 22be 027d 0d3b 2622 583c 3a0b 423e
000000e0: 62b4 3fbd 5fcd 893c ab28 10bd 983f fb3d
000000f0: de1a 743e ff71 c43d 18a5 1bbd b215 863c
00000100: d8de b33c b3c0 a039 8d76 3a3e fd93 613e
00000110: c920 0b3f d9d6 d53c 9a7e f73d 490a a93d
00000120: bfc8 9e3d 1996 cf3e a426 443e ed42 563d
00000130: 3a15 533e 3f31 8fbe 3214 22bd 56e1 573e
00000140: 2f5c 5dbd a22b 62be 193b 18bd 7a61 08be
00000150: 864c 62bd a36c 88bc c3ef 82bd fceb 543d
00000160: 8150 a4bd f690 033e 5c86 08be 87a2 a3be
00000170: 7667 aebe bc56 85be 832a a3be 6799 233d
00000180: 9b13 aa3e 1a72 53bd 010f ac3e a22e 96bd
00000190: 03e7 ae3e ff56 47be 3ea4 d43b 23e6 9fbd
000001a0: 2e78 21be a61c 2ebe 2f88 38bd 82ca a5be
000001b0: a4f1 963e 1e44 2abe 242c 9bbc cef5 bc3c
000001c0: a411 a6be fc58 cdbd 1bf4 40be b7bd b53d
000001d0: 43d4 903c 5a86 a6bd 7db5 4b3d 817e 2abc
000001e0: 2836 783e 5a75 293d 656b 843d 1ade 2c3e
000001f0: cc3d 87bd 2df9 ba3e 9b40 c2be 8220 193e
00000200: c8a4 5cbd b511 aa3e c601 ac3d 6058 513e
00000210: 57ba 723e d0fb a03c d7f2 983d e059 073e
00000220: d8d9 acbd 0b88 29be b63f 07be 2ca2 1e3e
00000230: 28e3 9fbd bef2 b23e a883 cbbd 19e3 233e
00000240: 326c 09be 466a 48be 7ac0 0cbe d17b b5b9
00000250: 1233 8e3d 17d4 abbc aa4c f53d 76a8 63bd
00000260: d619 3d3d e9f7 83bb 252c 863c abb1 bebd
00000270: 2f50 9abc ec18 46be e494 a23e 69bc bb3e
00000280: 4e86 29bd a8ed 403d e869 14be 1521 c83c
00000290: 2715 a0bf 14d3 cfbd 33a3 bcbd bf75 b13e
000002a0: 7b7e 803d 0620 633e 1579 d63c e090 ad3e
000002b0: 50b7 e3bd b1f6 80be 6cbc 4e3e b4fa 343e
000002c0: b38f b83c 6244 2dbe 5c33 503e ae6e bcbd
000002d0: d45c 2e3e 78f0 85be a2c5 e0be bdec 60be
000002e0: 6faf 5c3e cae9 1a3e bbf3 953d c38e 97bd
000002f0: 0352 893e 9ff4 b73d 8e00 693d 1bc3 4b3e
00000300: 062c a63d 4dd8 1abd 7cb0 ff3d c3c6 27be
00000310: 24e3 e33d bd41 903e b338 c6be eb43 87be
00000320: e5c9 f33d 7b67 0f3d 6965 8abd 7a7f 0abe
00000330: ae25 69be 86b9 933e 03ef 3c3c 75e7 49be
00000340: 6dd1 48bd e26b 0bbc 42eb 0abc 3b30 103e
00000350: 3a3a 8e3d e7fb 27be faad 9b3b 4175 9d3d
00000360: 46f5 d93c 4959 c73d 7369 17be 0962 c73d
00000370: efdc 1ebd f090 753d cc31 bc3b b1e8 df3d
00000380: 3899 3ebe 5ae4 27be a700 d03d 603f 013d
00000390: 6b8a 493e f44a 26be ac51 ab3f dc89 4e3d
000003a0: eec7 01be 4790 83be 1d51 543d 73a3 cf3d
000003b0: 54be 403e 38ee 8dbd 7246 3e3e 984a 36be
000003c0: f6dc d93d 6e39 21be d069 2dbe f70a c23d
000003d0: 71cc 943d 5b38 9f3e bd71 843e 925f da3c
000003e0: 43cb 3bbe 167e 1f3e 42c7 ecbc 816b 07be
000003f0: 6940 313d 15ed a73d df8b 89bd b01f 0d3e
0.081241414 -0.17377774 0.0031134258 0.08819801 -0.18690123 -0.075722165 -0.017201485 0.16717921
-0.0032569175 0.13200946 0.13700816 0.07199129 0.12532438 0.18480843 0.054259676 0.103914045
-0.22983357 0.015210196 0.254151 0.012133271 0.19555835 -0.23277278 -0.014730538 -0.010097934
0.0016328787 0.058020763 -0.111818954 0.19066676 0.24404623 -0.11316969 0.043095212 -0.15617363
-0.37371904 -0.18256347 -0.20337072 -0.055980783 -0.018626574 -0.10057567 -0.19827504 0.111912176
-0.08392788 -0.13254857 -0.14067583 -0.27115378 0.040672038 0.3051671 -0.2678977 -0.4203128
-0.0060465196 -0.26570788 0.18474194 -0.08793867 -0.15860792 0.0021589403 0.013191735 0.18949595
-0.046802886 0.016821561 -0.035195034 0.12267989 0.23838374 0.095920555 -0.037999243 0.016367767
0.021956846 0.0003066115 0.18209286 0.2202911 0.543469 0.026103424 0.12084694 0.08253915
0.07753133 0.40544203 0.19155365 0.05230992 0.20613566 -0.2796726 -0.03957004 0.21082053
-0.05404299 -0.22086957 -0.037165735 -0.13318434 -0.05524876 -0.016653365 -0.06393387 0.051982865
-0.080231674 0.12848267 -0.13332504 -0.31959936 -0.3406331 -0.26042736 -0.3186837 0.039941218
0.33218083 -0.051622488 0.33605197 -0.07333113 0.34160623 -0.1946678 0.0064893058 -0.07807567
-0.15768501 -0.17003116 -0.04505175 -0.32381064 0.29481232 -0.16627547 -0.018941946 0.023066428
-0.32435334 -0.10026738 -0.18843119 0.08874076 0.01767934 -0.08131094 0.049733628 -0.010406137
0.24239409 0.04137168 0.064657964 0.168816 -0.06603584 0.3651823 -0.37939915 0.14953807
-0.053868085 0.33216634 0.08398776 0.20443869 0.23703896 0.019651324 0.07468193 0.13217878
-0.08439988 -0.16555803 -0.13207898 0.15491551 -0.078069985 0.34950823 -0.09937221 0.160046
-0.1342018 -0.1957179 -0.13745299 -0.0003461526 0.06943335 -0.020975156 0.11977513 -0.05558058
0.046167217 -0.004027356 0.016378472 -0.09311231 -0.018837063 -0.19345444 0.3175422 0.36667183
-0.04138785 0.047101647 -0.14493525 0.024429837 -1.2506455 -0.10147682 -0.09210815 0.34660146
0.06274124 0.22180185 0.026180783 0.33899593 -0.111189485 -0.2518821 0.20189065 0.1767376
0.022529459 -0.16920617 0.20332092 -0.09200798 0.17027599 -0.26160026 -0.43900782 -0.21965308
0.21551298 0.15128246 0.073218785 -0.074002765 0.26820382 0.08982205 0.056885295 0.19898646
0.081138656 -0.037803937 0.124848336 -0.16384415 0.11127308 0.28175154 -0.38715133 -0.26419005
0.11903743 0.035010796 -0.06757624 -0.13525191 -0.2276828 0.2885248 0.011531594 -0.197172
-0.04902785 -0.008509608 -0.008478941 0.14080898 0.069446996 -0.16404687 0.004750964 0.0768838
0.026606213 0.09733827 -0.1478632 0.097354956 -0.038784917 0.059952676 0.005743241 0.10933054
-0.18613136 -0.16395703 0.101563744 0.03155458 0.19681709 -0.1623953 1.3384299 0.05042444
-0.12673923 -0.25696012 0.05183517 0.10138597 0.18822604 -0.06930202 0.1858156 -0.17801893
0.10637848 -0.15744564 -0.16934896 0.09474748 0.072655566 0.31097683 0.25868025 0.0266569
-0.18339257 0.15575442 -0.028903607 -0.13224603 0.043274317 0.08199517 -0.067161314 0.13781619

net.0.bias f4 [128]
00000000: d4cb cc3d 1fe2 8fbd c45d 743e 0b12 c03e
00000010: e6d5 5ebe 68d5 01be bb9d 223e 3355 febc
00000020: 0c6c 643e 2291 e83d 2b68 7f3e 4af2 853e
00000030: 5a63 edbd 927a 7dbe da18 1a3e 6b68 87bc
00000040: a927 6ebd 5f34 86be 9004 e5bd 20e8 1ebd
00000050: 8632 613e d031 883e e54e f13c 2b8c 763e
00000060: 815a 6c3d 2d18 1b3e 1a54 7abe 6126 d43c
00000070: 3786 5a3e 901a 543e f91d d53d f8d1 d53d
00000080: 8e13 5ebe 1894 4b3e 6aab c6bd 9015 bdbd
00000090: 7c45 36be d0d0 de3e 58f4 483e 9b67 e83d
000000a0: 71e8 273e a3ce 833e 1e5d ca3d 4de1 713e
000000b0: 90b4 9a3c cad8 5e3e f3c4 4f3d 4695 bc3d
000000c0: bb10 31bc 461e 923e e779 2e3e cd91 0f3e
000000d0: 1b4a 103e 7028 643d d4ef 8d3e 0839 1a3d
000000e0: 058f c03e 557a e8bd a653 a53e 2374 f3bd
000000f0: 8d53 c43e 4f6f 943e 353b 4f3e 4ee2 c13e
00000100: 06ee d43b e126 3dbe 1dc9 7e3e 5174 9ebb
00000110: da1d af3e 9fde fd3c 942c a13e 901d a4be
00000120: 2c11 d03e 1231 6c3e b0d9 873e 049a cb3e
00000130: 0d5d ba3e 55b3 0f3e d80a 803e 5540 b5bd
00000140: fefd 283d f614 f03e 2c2d c93d f012 d23d
00000150: 6813 d73c 56e6 a0bc fd1e 4a3e 7066 8abd
00000160: aa19 603e aee3 a63e 6654 a73e c1f5 af3c
00000170: 7bf3 6c3e 4b9c 24be 9135 e23d 79fa 843d
00000180: 4f39 08be dfe3 983e e86a 05bd 6f62 093d
00000190: d328 a63d 80ba 283d a0a0 993d 8f1e 073e
000001a0: 0d64 08be 7b28 8cbd c29a 9d3e 973f 473e
000001b0: 5e28 f9bd 66ee 113e a644 1e3e 394c ba3e
000001c0: 9fba c93d 6813 06be 6618 943e a61e 8ebe
000001d0: 9461 193e 0385 7abe 0a1b 1f3e 3bc6 ee3c
000001e0: e24e 0d3f 7b43 dcbc b7bc 603e 4991 b4be
000001f0: 7a54 99bd c5c8 023f 88ff 403d d78e fcbc
0.09999815 -0.07025551 0.23863894 0.37513766 -0.21761283 -0.12679064 0.15880482 -0.031046486
0.22306842 0.11355807 0.2494208 0.26161414 -0.115912154 -0.24753788 0.15048543 -0.016529283
-0.05814329 -0.2621183 -0.11182511 -0.03879559 0.2199193 0.26600504 0.029456565 0.24076907
0.0577035 0.15145941 -0.24446145 0.025897207 0.21340261 0.20713258 0.104061075 0.10440439
-0.21687147 0.19880712 -0.097006634 -0.09232628 -0.17799944 0.43518686 0.1962446 0.11347886
0.16397263 0.2574359 0.09881042 0.23621102 0.018884927 0.21762386 0.050724935 0.09208159
-0.0108072115 0.28538722 0.1703869 0.14020462 0.14090769 0.055702627 0.27722037 0.037652045
0.37609115 -0.11351458 0.3229038 -0.11887386 0.38344994 0.28991172 0.2023743 0.3786797
0.006498101 -0.18471862 0.24881406 -0.0048356433 0.34202462 0.030989943 0.31479323 -0.32053804
0.406381 0.23065594 0.2653327 0.39765942 0.36399117 0.14033253 0.25008273 -0.08850161
0.04125785 0.46890992 0.09823069 0.10257518 0.02625437 -0.019641083 0.19738384 -0.0675782
0.2188479 0.3259558 0.32681578 0.02147949 0.23139755 -0.16075246 0.11045373 0.06493086
-0.13303111 0.29861352 -0.032572657 0.03354114 0.08113255 0.041193485 0.0750134 0.13195251
-0.13319416 -0.068436585 0.30782133 0.19457851 -0.121659026 0.14251098 0.15455875 0.36386278
0.09850048 -0.1309334 0.28924865 -0.27757758 0.1497863 -0.24464802 0.15537658 0.029147258
0.5519849 -0.026887646 0.21946989 -0.35267094 -0.07486816 0.510876 0.047118694 -0.03082983

net.2.weight f4 [64, 128]
00000000: 2040 a33e 7f44 733d fafa 233e 4fa5 a93d
00000010: 1d86 533d ef08 4a3e 7069 153d dc30 84be
00000020: 9a35 073e 9cd2 2e3e 704f 683e c2ca aa3c
00000030: 5d9b 1b3b 9b36 5c3d 7dad 03be 45c1 023e
00000040: 6613 a6bd f170 c7bd 8cd4 9c3e 2b28 083e
00000050: aab2 f4bc 63a8 123e 63c9 cd3e 3ad8 d4bb
00000060: 8b79 39bd 4576 553d d8f5 5bbe 5bf6 a1bd
00000070: 58fa 113e d74d 58bd e1fa 61bd e22b a93d
00000080: 971a 463e 8e98 023e 9ab5 a73d 7761 243d
00000090: f03f 03bf ed94 6bbe b555 76be baa5 f5be
000000a0: 9a1b dc3d 7da0 5b3d b647 323e ea7d 83bd
000000b0: c57f 123e 63f6 abbe a1d5 37be 9ea5 893d
000000c0: b0c7 f63d 6134 bfbe 3228 0cbd 713f 443b
000000d0: f6cd 393e d926 973e 8c8e 3dbe 1c6e 32bd
000000e0: f719 ec3d d2ea 86bd e018 ec3d 7fda 58be
000000f0: 74f5 bbbd 0449 b23b 363a 583e aec0 d43c
00000100: be1c f83d bc91 8dbd ef79 613d f5cc 2abe
00000110: 55af e73d 089b b53d 70d0 903d ffb6 3c3e
00000120: ab83 04bf de8d bcbd 0dd3 3ebd e945 2f3d
00000130: 4c06 043e 1c5a 72bd 35bf fe3c 9ef5 fd3b
00000140: 98ba 643c b2c7 123e 5d5c b9bd 0e4b 7b3c
00000150: b56b a2bd 9b48 033d bebe 77be e57e bd3b
00000160: 774b 813e f474 e93d 58bf 6abe 331f c8bd
00000170: 4211 003e 4cb6 a0bc 27e1 323d 6643 a53e
00000180: 5aa9 1dbd 831c 95bc a230 8fbc bd5f 1dbe
00000190: 3247 fb3c ce66 723e a11c f03d 4e22 783e
000001a0: 329c afbd 94c8 483d e36e 65bd 4d50 4f3e
000001b0: 8031 b83d e190 e03d 50e0 e5bd 2ec0 7b3e
000001c0: c941 1b3e 751e 013d d164 15be 493d eebd
000001d0: 1c25 143d f292 263e 5766 91bd edbd 9c3d
000001e0: be33 29be 4db0 943d cf88 dabd d355 573c
000001f0: caf5 4a3d cd8b 293d 1ff8 603e c86d 95bd
00000200: 6ae8 563e 7c9f 0e3e 706e bdbc d904 363d
00000210: d90b e13d 5122 6ebe 6628 6d3d 18e2 84bd
00000220: 9ef2 bf3d cbcc 1a3c e833 333e 5863 28be
00000230: 6d6b 0c3a 3a74 47bd 3f9d 813d b97c 993e
00000240: dfba dcbb aad1 ab3d 0e67 33bd 43d8 27be
00000250: 796f 1abc 82e2 e7bd 3d07 56be 6f81 4cbe
00000260: 31ec b9bd dd8e 373e 64e6 2dbe 88cb bf3b
00000270: 95e0 f9bd 6e05 78bd ce1e 8b3c bd70 24be
00000280: 7a1c 3abd 0160 533e 77c6 90be 5499 3dbe
00000290: 272c dd3d 94b5 363d 02da c53d e2fb ca3d
000002a0: 1bd5 bfbd ba9a e2bd dc86 bc3e 8918 3c3e
000002b0: f641 7abe 32cc 063d 813f 263e c1c0 cc3d
000002c0: 2496 1e3e 52ac be3d cdd2 58bc c99d f5be
000002d0: 3bfc 8dbe 74b1 a2bd 45ad c43e ec29 6f3e
000002e0: 76c3 6fbd ee61 453d 2389 0d3c ab14 85be
000002f0: 75a3 cbbd 2429 923d c1af 663d 5fd5 a1be
00000300: 09ed 40be a135 be3e 63c0 efbd 0dbd 91be
00000310: e591 d8be baf2 7cbe d93d 4e3e 2a4e ad3e
00000320: 0107 143e 2759 943e 14c3 12be f0f1 223e
00000330: 84e0 723d 949c 10be 7120 09be 2eb4 82be
00000340: 9861 2b3d e333 6bbe b27a 1bbe aa29 4cbd
00000350: 95dd 013d 9aba 17be 9e80 d73d 4a06 363d
00000360: 5480 273d 184c 1abe 2dfb 1dbc 5664 f33d
00000370: 6298 013e ac3f cdbc 57b0 493e 3b3c e9bd
00000380: eca6 8ebe 9122 073d 2a9b 5a3d e34f 4fbe
00000390: c38f 653c 5b6c 423e 1e7b 123e c825 893d
000003a0: f1d4 eb3d 7d2f 703e 85a3 3dbe dbbf 443c
000003b0: 4a7d bebc 7731 ce3b f333 92bd 4c12 543e
000003c0: e5a6 8f3e b7e6 bdbd a408 183d 63df 5c3d
000003d0: 365a 3dbe fe31 48be 69bc 17bf 4a87 b43d
000003e0: 92a0 393e 9e5c e5be 3d9a 9d3e 3fa8 e83d
000003f0: c231 59bd eee2 ec3d 307b 133e a78b 16bd
0.3188486 0.059391495 0.16013709 0.08283483 0.051641572 0.1972997 0.036477506 -0.25818527
0.13204041 0.17072529 0.22686553 0.020848636 0.0023743727 0.053763013 -0.1285915 0.12769039
-0.08109169 -0.09738339 0.3063091 0.13296573 -0.02987035 0.14322047 0.40192708 -0.006495503
-0.045281928 0.052114744 -0.214805 -0.07908317 0.14255655 -0.05280861 -0.055170897 0.08260323
0.1934608 0.12753507 0.081889346 0.040132012 -0.51269436 -0.2300603 -0.24056132 -0.47978002
0.10747452 0.05361985 0.17410168 -0.064205006 0.14306553 -0.33586416 -0.17952587 0.06721042
0.12049806 -0.3734465 -0.03421802 0.002994504 0.18144974 0.29521826 -0.18511409 -0.04356204
0.1152839 -0.06587757 0.11528182 -0.211771 -0.09177676 0.005440833 0.21115956 0.025970783
0.12114857 -0.06912562 0.055047926 -0.16679747 0.11312739 0.088674605 0.07071006 0.18429182
-0.5176341 -0.092067465 -0.046587992 0.04279128 0.12893027 -0.059167966 0.031097034 0.007750227
0.013960503 0.1433399 -0.0905082 0.015337719 -0.079307 0.032051664 -0.24193856 0.0057829493
0.25252888 0.1139926 -0.22924554 -0.09771576 0.12506583 -0.019618176 0.043671753 0.32277983
-0.038491584 -0.018202072 -0.017479245 -0.15368553 0.030673597 0.2367203 0.117242105 0.24231836
-0.08574714 0.04901941 -0.056013953 0.20245476 0.089938164 0.109651335 -0.11224425 0.2458503
0.15161814 0.031523187 -0.1458924 -0.11632783 0.036168203 0.16266993 -0.07099598 0.07653413
-0.16523644 0.07260189 -0.106706254 0.013143021 0.04955081 0.04139309 0.2196965 -0.0729633
0.20987096 0.13928026 -0.02312395 0.044438217 0.10988588 -0.23255278 0.057899855 -0.064884365
0.093724474 0.0094482405 0.1750027 -0.16444147 0.0005356584 -0.048694827 0.063288204 0.29977968
-0.006736144 0.083895996 -0.043799452 -0.16391091 -0.009425991 -0.113225 -0.20901199 -0.1997125
-0.09078253 0.17925592 -0.16982418 0.0058531202 -0.12201039 -0.060552053 0.016982462 -0.16058631
-0.045437314 0.20642091 -0.28276417 -0.18515521 0.10799437 0.04460676 0.09660722 0.09911324
-0.093668185 -0.11064668 0.3682164 0.18368734 -0.24439225 0.03290958 0.16235162 0.099977024
0.15486962 0.09310211 -0.013233853 -0.47971943 -0.277315 -0.07944003 0.38413444 0.23355836
-0.058536015 0.048189096 0.008638653 -0.2599233 -0.09943286 0.07136753 0.056319956 -0.31608102
-0.18840422 0.3715029 -0.11706617 -0.28464547 -0.4229881 -0.24701968 0.2014078 0.33848697
0.14455797 0.28974268 -0.14332229 0.15912604 0.059296146 -0.1412223 -0.13391282 -0.2552809
0.04184112 -0.22969012 -0.15183523 -0.04984442 0.031705458 -0.14817277 0.10522579 0.04443959
0.040893868 -0.1506809 -0.0096424045 0.11884372 0.12655786 -0.025054775 0.19696175 -0.11388441
-0.27861726 0.03299195 0.053370632 -0.20245318 0.014011326 0.18986647 0.14304778 0.06696659
0.11515225 0.23455615 -0.18519409 0.0120086325 -0.023253102 0.0062925178 -0.07138815 0.20710105
0.28057018 -0.09272521 0.037117615 0.053923976 -0.18491444 -0.1955032 -0.59271866 0.08814867
0.18127659 -0.44797224 0.30781737 0.113602154 -0.05302597 0.11566721 0.14402461 -0.036754277

net.2.bias f4 [64]
00000000: 72c3 1239 d633 8fbc d7f4 19be aa9b ac3c
00000010: 9579 87bd 9861 e8bb 96d4 213e 9ce4 babc
00000020: 3a33 92bb 48cc c63d 9571 a63d 8b9f 8e3d
00000030: ce7e 67bd d8e8 36be 52b9 403d da7b b9bd
00000040: 1521 42bd db84 bebc 0292 213e e463 e13d
00000050: fa5a ca3d 1271 d2bd f493 50be 45da 2bbe
00000060: a837 9cbd 1985 debd fa00 7d3e b8d5 1dbe
00000070: 10da 9dba 0ebb 823c b7f3 383b 79e5 b33d
00000080: f75d aa3d f690 6f3e 619b 603d 276d 273d
00000090: e6af 43be 6050 153e 34e6 653d 46af 7b3e
000000a0: bb06 cfbd e1bc f13d e64c 973e e4dd 00be
000000b0: 4bb2 633d ae33 383e 795f 27bd 278e c03c
000000c0: ddd5 3cbc 039a 0d3e 6ac3 903e ba38 17be
000000d0: e4ac 643e 42d0 323e 3c28 59bd 9315 09be
000000e0: d090 c33d f435 bc3d 18fd 72bd 80e7 88bc
000000f0: 86bd 163d 2bd7 18be 8853 bb3d abc1 bcbd
0.00013996454 -0.017480772 -0.15034805 0.02107032 -0.06614987 -0.007091712 0.15803751 -0.022814088
-0.004461673 0.09706932 0.08127133 0.06964024 -0.056517415 -0.1786226 0.047051735 -0.09056826
-0.04739483 -0.02325671 0.15778354 0.11005381 0.09880634 -0.10275473 -0.2036894 -0.16782482
-0.07627803 -0.1086523 0.24707404 -0.15413558 -0.0012043137 0.015958335 0.0028221437 0.08784003
0.083187036 0.23395142 0.05483568 0.04087558 -0.19110069 0.14581442 0.056127742 0.2457858
-0.101087056 0.11803604 0.29550856 -0.12584645 0.055589955 0.17988464 -0.040862534 0.023505284
-0.011525598 0.13828282 0.2827409 -0.14767733 0.22331578 0.17462257 -0.053016886 -0.13387136
0.09549105 0.09189978 -0.0593234 -0.01671195 0.036801837 -0.1492583 0.09146792 -0.09216627

net.4.weight f4 [4, 64]
00000000: 8879 3dbe a444 35bf 1c03 903d 21ce 11bd
00000010: c8eb 05bf 5704 4fbe 881b b7be 32fa 723e
00000020: 063f 6dbe 93b8 07be ee81 043e 0293 c93d
00000030: bc19 e5be 3e8d 563e 1b70 0b3f 8f7e 0fbf
00000040: 009d 6cbf 1cc6 08bf 5ec5 1a3f d3f8 fbbd
00000050: 0c6e 08bc e2f1 39bf f529 a9bd d7f1 283f
00000060: 87e1 b53e cd3f da3d 0eb5 f4be 4ee6 863e
00000070: ad66 6e3f cd77 eebe e5a2 99be 500f 0c3f
00000080: 3d0b 5d3f c51e 133e 5c04 8abe 4ef1 08bf
00000090: 08d4 c23d 691e b1bd cabd 62bf ce2e 7e3e
000000a0: a68b 40bc cce8 0abe f4bd 06be 7513 c63d
000000b0: 722f f2bd a1cc 353f 9280 25bf 0b3f 3e3e
000000c0: 721c 993e d370 263f e3bb 783d 8058 24be
000000d0: c761 a93c 2b5e 7cbe 12f5 9abe fbb7 f93e
000000e0: beac eb3d 0327 1abe 3a68 c3be 7faa 8d3e
000000f0: 3623 9cbe 1460 de3e 8ae7 66be c9e6 313f
00000100: 505d 45bf 8be1 0b3c 657b 173e 5ef9 9f3d
00000110: afc7 11bf ac06 423f 923d 49bb 2a0c bebe
00000120: c99a d13c 1d1d d6be 0835 cb3e 0217 f1be
00000130: 2320 253c 981d a0be 0b4b 5dbe 9ebd a1be
00000140: f577 133e 90bd ac3d 6ce9 88be 95af e7be
00000150: 3c15 f2be d32b 8abe 0e34 c23d 4689 3cbf
00000160: 9491 073e 7079 d73e c83e b0be ac8f 933e
00000170: 3a22 fd3d 8fc2 a73d c8d8 bdbe 9ff4 a2be
00000180: 9b86 e3be 9243 2ebf cf88 443e eb55 073e
00000190: 7454 60be 09ee d2be 40eb a13e 4387 28be
000001a0: c208 b2bd 4bee 243f 1605 c93e 8c29 1c3f
000001b0: e090 36be 4824 683e 2724 febe c6d6 5bbd
000001c0: 3244 a8be 1088 a5bd 629b 73be 6513 5a3d
000001d0: ca82 a23e 2056 483e 5c93 63be 96fa 9f3c
000001e0: 5a62 c73d 2285 423c 7463 f43e ef72 8dbd
000001f0: 323f b6bc 4d6d 973d 307e d23e 9768 6b3e
00000200: 0552 6b3d 718b b1bd dc1a 143e bc5a ac3d
00000210: abb2 9bbe 89d2 8c3d 2fe2 83be f030 ca3e
00000220: 3208 153e a737 96be 2efb ccbd 8292 8f3d
00000230: 7734 133e 9b82 173f 446d df3d 9e26 bc3d
00000240: bfb9 3f3e 4dc2 6abd 318b 7a3c 2f8a 15bf
00000250: 32ab 2b3f bb6e 06be 8f16 cd3e ebdc a23e
00000260: ac66 923c 63c1 843e 4d9b 5abe 75a2 043f
00000270: caf1 bf3d 6e57 6f3e 6020 f2bc 8236 2abe
00000280: ff53 753d 95dd a63d 83b0 38bf 7f44 a1be
00000290: baa9 923e 0cbf 86bf 2f5c 253e 1ae8 153e
000002a0: cb2d cf3c aa1c 47be dd32 4bbe cdb7 1a3f
000002b0: af2f 913c b664 2b3d 322c 6bbe 76f1 f7be
000002c0: e07a 263e d254 0abd 1b31 71be a1dd be3e
000002d0: 89c8 1abf 1de2 bcbc cc6e 0fbf ffa8 06be
000002e0: 8772 893d 9548 92be c7cf 3b3e 7dd4 b23e
000002f0: 92e8 aebe 7e02 133f 0655 7dbd 54bd 79be
00000300: 6817 89be 4163 6e3b 5e5e 163e 7061 383e
00000310: 30cd 53bd 5c4d 0bbe f69b 3cbe afc7 5abd
00000320: b8bf ff3d 7d21 833f 09ec 00be 0e91 213f
00000330: 4c07 2ebe 9dee d8be 055f cebe dd11 c5be
00000340: 84b2 5bbe d01e 2abf 5ccc dbbd 1e54 a5be
00000350: 8ce3 4fbf a6c0 0b3d 4476 5ebd 7029 933e
00000360: fcf9 bb3e 158c 933d 83dd 95be 542b 93be
00000370: 82a5 c73e cb42 3fbe 36cd 7d3d 7a9c 1dbf
00000380: 9a3f e1be 04be b1be f85b 133c b8be f83d
00000390: 17da 30be a315 d33c ab55 bcbe dff7 9bbe
000003a0: 46ac b6bd a56d e6be 301b 2a3e 5bde 7ebd
000003b0: d0d1 113f 9640 e63d 5531 133f 2fde 83be
000003c0: 4987 473f 44c7 b43e 7057 b5be 551e c73d
000003d0: 10e4 b33e b8dc 573a 6e22 d7be dcb5 09bf
000003e0: d2c6 cd3e b8f0 c03e 5f59 023e 8d6d 893d
000003f0: b9ff 603f 85d8 a03d 6503 1d3f 7c5c b7be
-0.18503392 -0.7080786 0.07031843 -0.03559697 -0.523129 -0.202165 -0.35763192 0.23728254
-0.23168573 -0.13254003 0.12940189 0.09842493 -0.44746196 0.20952317 0.54467934 -0.5605249
-0.92427063 -0.5342729 0.6045741 -0.12303319 -0.0083270185 -0.7263471 -0.08259956 0.6599402
0.35523626 0.106567 -0.47794384 0.26347584 0.9312542 -0.46575776 -0.3000709 0.54710865
0.86345273 0.14367206 -0.2695645 -0.534932 0.09513098 -0.086483784 -0.88570845 0.24822542
-0.011752045 -0.13565367 -0.13158399 0.0967168 -0.11825456 0.71015364 -0.6464931 0.18578736
0.29904515 0.65015906 0.060726058 -0.16049385 0.020676507 -0.24645297 -0.302651 0.48773178
0.11507557 -0.15053944 -0.38165456 0.2766914 -0.30495614 0.43432677 -0.22549263 0.69492775
-0.7709551 0.00853766 0.14793165 0.07811235 -0.5694532 0.7579143 -0.0030706865 -0.37118655
0.025586503 -0.41819087 0.39688897 -0.47087866 0.010078463 -0.31272578 -0.21610658 -0.3158998
0.14401229 0.08434594 -0.26740587 -0.45251146 -0.47281826 -0.2698656 0.09482585 -0.7364696
0.13239127 0.42084837 -0.34422898 0.2882055 0.12360044 0.08191406 -0.37079453 -0.31827256
-0.44438633 -0.68071854 0.19192813 0.13216369 -0.21907216 -0.4119723 0.31624794 -0.16457848
-0.08693077 0.64426106 0.39261693 0.61000896 -0.17828703 0.2267009 -0.49636957 -0.05367162
-0.3286453 -0.080825925 -0.23789743 0.053241152 0.3174041 0.19564104 -0.22224182 0.019528668
0.09735556 0.011872562 0.47732127 -0.069066875 -0.02224693 0.07393894 0.41111898 0.22989117
0.057451267 -0.086691745 0.14463371 0.08415744 -0.3040975 0.06876094 -0.25758502 0.3949046
0.14553908 -0.29339334 -0.10008846 0.07010366 0.14375482 0.59183663 0.10909513 0.09187053
0.187232 -0.057314206 0.015291975 -0.58413976 0.670581 -0.13128178 0.40056273 0.31809172
0.017871223 0.25928792 -0.21348305 0.5181039 0.093722895 0.23373196 -0.029556453 -0.16622356
0.059894558 0.08147732 -0.72144336 -0.3149757 0.28645116 -1.0527053 0.16148447 0.14639321
0.02529039 -0.19444528 -0.19843622 0.6043671 0.017722933 0.041844092 -0.22966078 -0.48426408
0.1625781 -0.033772297 -0.23553888 0.37278464 -0.6046224 -0.023057038 -0.5602844 -0.13150404
0.067112975 -0.28571 0.1834098 0.3492774 -0.34161812 0.5742568 -0.061848663 -0.24388629
-0.2677567 0.0036375078 0.14684436 0.1800592 -0.051709354 -0.13603729 -0.1841887 -0.05341309
0.12487739 1.0244595 -0.1259004 0.6311196 -0.16994971 -0.42369547 -0.4030687 -0.3849019
-0.21454817 -0.66453266 -0.10732338 -0.3229074 -0.81206584 0.03411927 -0.054312006 0.28742552
0.3671416 0.07204453 -0.29270563 -0.28743994 0.3899346 -0.18677823 0.061963283 -0.6156689
-0.43993837 -0.34715283 0.008994095 0.12145752 -0.17270695 0.025767153 -0.3678411 -0.30462548
-0.08919577 -0.45005527 0.16611934 -0.062223773 0.56960773 0.112427875 0.5749715 -0.2575545
0.77940804 0.35308278 -0.35418272 0.09722582 0.35134935 0.0008234489 -0.42018455 -0.5379312
0.4019075 0.37683654 0.12729405 0.06710348 0.878902 0.07853798 0.61333305 -0.35812747

net.4.bias f4 [4]
00000000: 2c66 b23d c107 a23d 8603 30be 7137 7a3c
0.08710894 0.07911635 -0.17188844 0.015272007
