p2-continuous-control/checkpoint/d4pg_actor_checkpoint.pth (torch_old, 52493 bytes, 6 tensors)

net.0.weight f4 [128, 33]
0.14202113 -0.19789113 0.0578749 -0.020144312 0.062056318 -0.12142935 -0.06767367 -0.03277581
-0.24174437 0.20834082 0.3067371 -0.3227521 0.080258876 -0.15536912 -0.16941781 0.06838096
-0.116812594 -0.00910272 -0.031445514 -0.012055903 0.022899428 0.13564332 -0.041697994 0.17514437
0.25400653 0.17031954 0.18184151 -0.19647847 0.13326177 0.11342245 0.26010215 -0.030599937
0.6613514 -0.19265068 -0.23672658 0.027455697 -0.004918492 0.1362113 -0.118408464 0.06251395
0.04085796 -0.317175 0.2891129 0.19493106 0.10464197 0.028885895 0.023272986 0.04117898
0.28588703 -0.036757547 0.005826871 -0.030764109 -0.084358804 0.02894175 -0.056932043 -0.08787763
0.08164473 0.116659306 0.015703866 0.081530824 -0.35599077 -0.36800134 0.04671277 0.16934723
-0.068929486 0.8086936 0.002062202 0.06834382 0.16369994 0.016580632 0.19625603 -0.17722122
-0.12981959 0.1065987 -0.34274116 0.17352499 0.12150628 0.008595163 0.11754856 -0.087747626
-0.1628112 -0.3262228 0.026354054 0.088767104 -0.060362216 -0.13197921 -0.034264233 -0.0033859075
0.10999871 0.092719026 -0.026896667 -0.087733105 0.31647065 -0.12048636 0.08925983 -0.01130861
0.10688015 0.12650174 -0.7111914 -0.27074474 -0.17478542 -0.50100666 0.09425554 -0.12531926
-0.12281921 -0.07480037 0.13438594 0.20289509 -0.10116 -0.18750267 -0.11415037 -0.14411384
-0.16588406 -0.13755926 0.1112053 0.08617131 -0.02518186 0.07745835 0.03073001 0.06937543
-0.057221968 -0.11602645 -0.12192363 -0.08387244 0.15634145 0.37919548 -0.10576707 -0.047146827
0.14323857 -0.030932024 0.009362742 -0.07336632 -0.14750014 -0.076982714 0.13960104 0.07980267
0.13398243 -0.19557637 0.21635084 0.15861717 0.16930933 0.1958978 0.015758578 0.16510461
-0.30655602 -0.018440362 -0.045005493 -0.17817777 0.19796735 0.095834024 -0.17160287 0.22410421
-0.13540918 -0.16939144 -0.19645298 0.32917017 -0.10798214 -0.4401185 -0.020893363 -0.05441908
-0.20849489 0.05138251 -0.09055008 0.055677325 -0.5471591 -0.036545828 -0.043789554 0.30867547
0.24393721 0.16047944 -0.061785705 -0.13002323 -0.0041854363 -0.27669793 0.17487168 0.08335783
0.020560386 0.07390988 0.07614714 0.016588863 -0.21755902 0.013855862 -0.10991324 -0.13908441
-0.11129857 0.13762951 0.10470899 0.038061813 0.3312974 -0.20391808 -0.07440665 0.21214125
-0.3935656 0.06368485 0.04545501 0.40267634 0.06421006 0.27641702 -0.015878735 0.22062217
0.19078639 -0.011142637 -0.052744266 -0.14587179 0.07153124 0.22792621 0.13495626 0.017044796
0.05385977 0.0330604 0.22826983 0.21131372 0.11526501 0.14346892 -0.06275347 0.022846788
0.0041780816 0.121312276 0.122615024 0.083055966 -0.2403736 -0.3751344 -0.03257407 0.09356078
0.014627713 -0.008895227 -0.3552145 -0.09058448 -0.17498073 0.057730302 -0.40917218 0.10859063
-0.06893463 -0.5592356 -0.21765843 0.17383806 -0.04017861 -0.15026936 0.23373833 -0.157916
-0.19279887 -0.06449653 0.46960005 -0.33310026 0.08265906 0.018652227 -0.15527502 0.26683664
-0.03487929 0.03301844 0.08003548 0.31363896 -0.21592298 0.10747683 -0.29036373 -0.07820047
00000000: fd6d 113e f9a3 4abe 3b0e 6d3d af05 a5bc
00000010: c42e 7e3d f3af f8bd 7e98 8abd ee3f 06bd
00000020: d68b 77be 4c57 553e a50c 9d3e c33f a5be
00000030: c45e a43d 1519 1fbe dd7b 2dbe 510b 8c3d
00000040: 713b efbd 9323 15bc 03cd 00bd 1f86 45bc
00000050: 9597 bb3c 15e6 0a3e 84cb 2abd 0c59 333e
00000060: 250d 823e 3f68 2e3e a934 3a3e a731 49be
00000070: c675 083e 084a e83d 1c2c 853e b8ac fabc
00000080: 534e 293f 3846 45be 7468 72be c5ea e03c
00000090: 4d2b a1bb fa7a 0b3e 2380 f2bd 5007 803d
000000a0: ad5a 273d c364 a2be 9b06 943e 029c 473e
000000b0: 874e d63d 1da2 ec3c fda6 be3c 4aab 283d
000000c0: c95f 923e 158f 16bd 56ef be3b 0305 fcbc
000000d0: 4fc4 acbd 4017 ed3c 9331 69bd 30f9 b3bd
000000e0: 5a35 a73d 13eb ee3d 65a5 803c a2f9 a63d
000000f0: 6c44 b6be ac6a bcbe e455 3f3d 5c69 2d3e
00000100: e72a 8dbd 8b06 4f3f 0226 073b d8f7 8b3d
00000110: f5a0 273e 1bd4 873c 57f7 483e 7b79 35be
00000120: 6def 04be 6b50 da3d c57b afbe 89b0 313e
00000130: 49d8 f83d bad2 0c3c 4dbd f03d 07b5 b3bd
00000140: fbb7 26be ad06 a7be 75e4 d73c 87cb b53d
00000150: 5f3e 77bd 8f25 07be a758 0cbd 1ae6 5dbb
00000160: 0147 e13d 79e3 bd3d 6656 dcbc 6aad b3bd
00000170: 7108 a23e 8dc1 f6bd dccd b63d c047 39bc
00000180: fbe3 da3d ac89 013e a410 36bf 0e9f 8abe
00000190: f3fa 32be f941 00bf 0c09 c13d b153 00be
000001a0: a388 fbbd f030 99bd 789c 093e bbc3 4f3e
000001b0: f92c cfbd b300 40be abc7 e9bd 9492 13be
000001c0: 83dd 29be 56dc 0cbe 9bbf e33d 957a b03d
000001d0: 304a cebc 7ca2 9e3d 80bd fb3c b514 8e3d
000001e0: 9561 6abd 479f edbd 19b3 f9bd 50c5 abbd
000001f0: f917 203e e925 c23e 689c d8bd 081d 41bd
00000200: 22ad 123e 2865 fdbc 3066 193c 1541 96bd
00000210: 470a 17be 1da9 9dbd 93f3 0e3e 956f a33d
00000220: b132 093e 2c45 48be 138b 5d3e 8a6c 223e
00000230: 6d5f 2d3e 6f99 483e 2218 813c 2f11 293e
00000240: e9f4 9cbe 3e10 97bc ae57 38bd 3c74 36be
00000250: f4b7 4a3e a144 c43d aab8 2fbe 937b 653e
00000260: b4a8 0abe f374 2dbe f82a 49be fe88 a83e
00000270: bd25 ddbd 3657 e1be 8f28 abbc 8be6 5ebd
00000280: af7f 55be 7876 523d 5272 b9bd e80d 643d
00000290: 9e12 0cbf 14b1 15bd ad5c 33bd b60a 9e3e
000002a0: adca 793e b954 243e 0213 7dbd cf24 05be
000002b0: fc25 89bb 5aab 8dbe 9011 333e 83b7 aa3d
000002c0: 416e a83c 105e 973d 08f3 9b3d 5ee5 873c
000002d0: cbc7 5ebe b303 633c 311a e1bd 256c 0ebe
000002e0: 81f0 e3bd c0ee 0c3e ab71 d63d b4e6 1b3d
000002f0: d09f a93e e7cf 50be 8462 98bd 8e3b 593e
00000300: 6e81 c9be 346d 823d 082f 3a3d 982b ce3e
00000310: 9080 833d 8886 8d3e 1f14 82bc c7ea 613e
00000320: 825d 433e 9b8f 36bc 5f0a 58bd 6a5f 15be
00000330: f97e 923d 7d65 693e f931 0a3e 87a1 8b3c
00000340: 109c 5c3d 586a 073d 91bf 693e a062 583e
00000350: 1010 ec3d 84e9 123e e484 80bd 3029 bb3c
00000360: 4ae8 883b 9272 f83d 961d fb3d 3f19 aa3d
00000370: 7f24 76be 9e11 c0be 636c 05bd cb9c bf3d
00000380: 13a9 6f3c 49bd 11bc adde b5be 5b84 b9bd
00000390: 262e 33be 9c76 6c3d 047f d1be c464 de3d
000003a0: 992d 8dbd 102a 0fbf dae1 5ebe 9b02 323e
000003b0: 5392 24bd 36e0 19be 1a59 6f3e bbb4 21be
000003c0: 116d 45be c216 84bd 6b6f f03e 1e8c aabe
000003d0: 2749 a93d 8ecc 983c 6a00 1fbe d09e 883e
000003e0: 96dd 0ebd 583e 073d a4e9 a33d 4995 a03e
000003f0: ea1a 5dbe d01c dc3d 8eaa 94be 9127 a0bd

net.0.bias f4 [128]
0.14417334 0.413359 0.1809357 0.14472035 -0.18694426 0.3897462 -0.10559613 0.08522381
-0.09159046 0.068601094 0.17317119 0.035679415 -0.06689388 0.31903595 0.017210498 0.20090899
0.1526111 0.22231041 0.5013525 -0.0279463 -0.15056059 0.05017461 0.10292386 0.21311285
-0.22945805 0.38632816 0.18825509 0.056913696 -0.10128188 0.05496305 0.119208224 0.038345538
0.1221574 0.16741808 0.15969251 0.15179339 0.49345702 0.17202254 -0.17510341 0.16420403
0.19901665 0.04019883 -0.07922799 0.24353951 -0.037607055 0.28703278 -0.058928873 0.044271804
0.37103227 0.27450815 -0.1644013 0.29410467 0.0895181 -0.063531525 0.0059555434 0.026458446
0.30998838 -0.3031552 0.2553489 0.043678023 0.13427888 0.3013008 0.08013635 -0.20819959
0.023114327 0.029593179 0.06332482 0.26651096 -0.0077737654 0.017697843 -0.14784545 0.11967652
0.17456026 0.37461233 0.068916686 0.2095043 0.126477 0.30672207 -0.12945044 -0.07626736
0.09183974 0.027667355 0.045836143 -0.10040257 -0.11019024 0.10621504 0.39080527 0.18279096
0.09611258 0.18626301 -0.11654202 0.05454749 0.19885713 -0.17805645 0.2034345 0.0029101379
0.030514609 -0.0933276 0.3552517 0.2208028 0.16423604 0.102768354 -0.14610219 0.100629024
-0.21416312 0.18294351 0.26210687 -0.08415588 0.11075029 0.12602884 -0.09360555 0.30759478
0.29958785 0.17426261 0.1432142 0.039179202 -0.008639658 0.04184676 0.24939105 0.2301818
0.11295472 0.10185868 0.17823334 0.2672819 0.28348625 0.103263 0.11840507 -0.27681023
00000000: 2da2 133e caa3 d33e 3547 393e 9231 143e
00000010: 516e 3fbe d08c c73e c942 d8bd d289 ae3d
00000020: c793 bbbd bb7e 8c3d ca53 313e 9424 123d
00000030: a9ff 88bd ae58 a33e 08fd 8c3c 16bb 4d3e
00000040: 1646 1c3e 57a5 633e a358 003f a4ef e4bc
00000050: 8e2c 1abe e483 4d3d bfc9 d23d 413a 5a3e
00000060: 0df7 6abe cecc c53e f1c5 403e 561e 693d
00000070: e06c cfbd ef20 613d 7123 f43d 3610 1d3d
00000080: a92d fa3d a56f 2b3e 6f86 233e ba6f 1b3e
00000090: 66a6 fc3e ad26 303e 4f4e 33be 1a25 283e
000000a0: 05cb 4b3e 87a7 243d 4942 a2bd 6c62 793e
000000b0: db09 1abd f6f5 923e 675f 71bd 5a56 353d
000000c0: f1f7 bd3e 558c 8c3e d058 28be e394 963e
000000d0: 4455 b73d d11c 82bd b826 c33b 62bf d83c
000000e0: ccb6 9e3e 2937 9bbe 17bd 823e bae7 323d
000000f0: 6780 093e 1944 9a3e 871e a43d 4632 55be
00000100: 425a bd3c 656d f23c 71b0 813d 2074 883e
00000110: 12bb febb 11fb 903c cc64 17be f718 f53d
00000120: edbf 323e 30cd bf3e 3124 8d3d 4c88 563e
00000130: 3083 013e ad0a 9d3e a88e 04be 1032 9cbd
00000140: 7916 bc3d a6a6 e23c aebe 3b3d dd9f cdbd
00000150: 6cab e1bd 4587 d93d a117 c83e 8e2d 3b3e
00000160: acd6 c43d bbbb 3e3e 95ad eebd 306d 5f3d
00000170: 34a1 4b3e 6e54 36be 2251 503e 03b8 3e3b
00000180: c6f9 f93c 8a22 bfbd 8de3 b53e 211a 623e
00000190: 7e2d 283e 3778 d23d d09b 15be 9716 ce3d
000001a0: 944d 5bbe 8b55 3b3e df32 863e eb59 acbd
000001b0: 0cd1 e23d b40d 013e 44b4 bfbd 107d 9d3e
000001c0: 9463 993e e671 323e bea6 123e 5f7a 203d
000001d0: 5a8d 0dbc 8267 2b3d 5e60 7f3e c7b4 6b3e
000001e0: ce54 e73d 499b d03d cd82 363e 2cd9 883e
000001f0: 1c25 913e 8d7b d33d 5b7e f23d 12ba 8dbe

net.2.weight f4 [64, 128]
-0.12268115 -0.015387319 -0.17917909 0.12209375 0.17504041 -0.113756925 0.23133542 0.08984565
-0.08929125 -0.0067453138 0.15323623 0.00828608 -0.0062889075 0.023786386 -0.14061116 -0.015120762
0.0046211765 0.11210822 0.050924443 0.002725125 0.09112889 0.07840327 0.066255525 -0.026266363
-0.13896878 0.099695824 -0.0044529494 0.122845136 0.19732316 0.04801192 -0.09003587 0.13619536
0.115774706 0.04766363 -0.028918577 -0.045351665 -0.10809696 0.11362942 -0.07558747 -0.15216379
0.088124916 -0.11690797 0.106335506 -0.0014801142 0.0040587774 -0.21406844 0.26935643 -0.87065244
0.13847247 0.15828101 0.020576889 -0.023101034 -0.13693772 -0.13527869 0.12362044 0.06434409
-0.07944091 -0.10183231 0.13510445 -0.19226252 0.09336702 -0.066707596 -0.11444422 0.29986036
-0.12189216 0.07131788 0.10516964 0.008234134 -0.18755542 0.00014474014 0.060368404 -0.09837508
0.009785195 0.23976424 -0.008010972 0.013040506 0.06878669 -0.086080916 0.007154037 -0.08017957
-0.37432304 0.039750796 0.21008953 0.15810518 -0.08378377 -0.090525456 0.047949675 -0.12798148
0.0011509258 0.18022057 0.026571948 0.03835165 0.14045127 0.13735199 0.042633317 -0.057466406
0.19760072 0.13582298 -0.26622692 0.0948091 -0.17641525 0.07414622 0.07102105 0.22336435
-0.01231822 -0.17460153 -0.07187521 0.04825236 0.1954861 0.0947439 0.13443503 -0.5063364
-0.118364446 -0.118150495 -0.11049391 -0.056234807 -0.13189293 -0.23690088 -0.08651729 0.16853105
0.00041869853 -0.17585778 0.051715575 0.19360267 -0.14716868 0.22385013 0.018070398 -0.7522018
0.03861847 0.14335431 -0.32096735 -0.3497743 -0.08603303 0.003517637 -0.12090818 -0.1763885
-0.1738472 0.039454494 0.020675387 0.055930678 0.12606873 -0.065659106 0.19087274 -0.15462863
-0.021530746 -0.05798648 -0.0035177262 -0.02432031 -0.24505676 -0.0131056635 0.011669049 0.112406455
-0.31517306 0.10739127 -0.317326 0.16470635 0.04179956 -0.019505443 0.101520345 -0.15794092
0.0071395645 0.061402664 0.052307192 -0.018629424 0.03217887 -0.047695387 0.027942149 -0.14117731
0.3242888 -0.06625819 0.13726462 -0.120721325 -0.18449919 -0.2164424 -0.06917233 0.21915556
0.09101183 -0.10562554 0.06773139 -0.28371564 -0.0951717 -0.038603853 -0.2513572 -0.11737647
0.2011255 -0.14907543 -0.074538395 0.24375713 -0.00984691 -0.07202974 0.12864801 -0.30864355
-0.24554639 -0.5240339 0.1772058 0.08325928 0.32106054 -0.10072141 0.12229237 -0.22346313
-0.080919065 -0.105595775 -0.089737214 0.03662149 -0.30582643 0.06613085 -0.24680395 -0.1458251
0.24520773 0.021864804 0.21378823 -0.03342464 -0.13378774 0.2602957 0.1240712 0.20694089
-0.085029446 -0.2636785 -0.18380207 -0.20607309 -0.1349804 0.22097121 0.068956584 0.23457395
0.15373965 -0.09345191 0.2043583 -0.035062604 0.048236612 -0.0007942793 -0.026531752 0.11635848
-0.02653409 0.028809207 -0.13964881 0.16228217 0.09389243 -0.026667478 -0.17458946 0.2230922
-0.16343282 0.19739243 -0.09251014 -0.16797438 -0.28308487 0.14499941 -0.15524462 -0.16187698
-0.22615084 -0.109771736 0.0042688767 0.010481423 0.16587798 -0.044551972 0.05806423 -0.074579455
00000000: 4140 fbbd 181b 7cbc b97a 37be 4a0c fa3d
00000010: cb3d 333e 64f9 e8bd 31e3 6c3e ff00 b83d
00000020: 55de b6bd cb07 ddbb f5e9 1c3e 57c2 073c
00000030: 2e13 cebb abdb c23c 5ffc 0fbe 13bd 77bc
00000040: 3d6d 973b ff98 e53d 2696 503d 0398 323b
00000050: c9a1 ba3d e591 a03d fab0 873d 8e2c d7bc
00000060: d54d 0ebe 532d cc3d 0cea 91bb 3b96 fb3d
00000070: 150f 4a3e 26a8 443d ba64 b8bd cc76 0b3e
00000080: 4a1b ed3d f03a 433d a7e6 ecbc abc2 39bd
00000090: f061 ddbd 8bb6 e83d 9acd 9abd d3d0 1bbe
000000a0: d67a b43d 726d efbd 6ec6 d93d 6400 c2ba
000000b0: 7eff 843b c234 5bbe 16e9 893e 14e3 5ebf
000000c0: bacb 0d3e 6b14 223e dd90 a83c 613e bdbc
000000d0: 6739 0cbe 7f86 0abe b72c fd3d d6c6 833d
000000e0: eab1 a2bd 758d d0bd d258 0a3e 77e0 44be
000000f0: 3537 bf3d fe9d 88bd bb61 eabd 4c87 993e
00000100: 99a2 f9bd 1c0f 923d 2e63 d73d 76e8 063c
00000110: 870e 40be 63c5 1739 dc44 773d e078 c9bd
00000120: 1552 203c c284 753e 7440 03bc d9a7 553c
00000130: 09e0 8c3d 314b b0bd 696c ea3b 3035 a4bd
00000140: 45a7 bfbe bbd1 223d b621 573e 53e6 213e
00000150: d396 abbd 6965 b9bd e166 443d 940d 03be
00000160: a9da 963a be8b 383e 6aad d93c 9f16 1d3d
00000170: 75d2 0f3e 00a6 0c3e 46a0 2e3d e561 6bbd
00000180: d857 4a3e 2e15 0b3e e54e 88be 462b c23d
00000190: 33a6 34be f9d9 973d 7c73 913d a0b9 643e
000001a0: 5cd2 49bc beca 32be 4f33 93bd 44a4 453d
000001b0: 822d 483e 1709 c23d 56a9 093e 439f 01bf
000001c0: 0f69 f2bd e3f8 f1bd a24a e2bd 7856 66bd
000001d0: f10e 07be 2596 72be fa2f b1bd 6793 2c3e
000001e0: c484 db39 1014 34be b6d3 533d c73f 463e
000001f0: 63b3 16be f838 653e 5f08 943c 4c90 40bf
00000200: 672e 1e3d 79cb 123e d555 a4be 9e15 b3be
00000210: 1632 b0bd 2888 663b b59e f7bd 309f 34be
00000220: 0005 32be 099b 213d 6e5f a93c 9117 653d
00000230: 2918 013e 4878 86bd 2574 433e f856 1ebe
00000240: 3f61 b0bc 3b83 6dbd a789 66bb 633b c7bc
00000250: 29f0 7abe 23b9 56bc 8a2f 3f3c 5b35 e63d
00000260: 5d5e a1be f4ef db3d 8e78 a2be c8a8 283e
00000270: 0436 2b3d e1c9 9fbc e6e9 cf3d 44bb 21be
00000280: 02f3 e93b 5c81 7b3d 1140 563d bc9c 98bc
00000290: fecd 033d 3d5c 43bd efe6 e43c c990 10be
000002a0: 2e09 a63e 60b2 87bd 198f 0c3e be3c f7bd
000002b0: 5bed 3cbe 14a3 5dbe 39aa 8dbd 516a 603e
000002c0: 6964 ba3d 3452 d8bd c1b6 8a3d 2d43 91be
000002d0: 61e9 c2bd 131f 1ebd e4b1 80be 1363 f0bd
000002e0: d8f3 4d3e 3ba7 18be 96a7 98bd 789b 793e
000002f0: ef54 21bc 5484 93bd 4ebc 033e 8706 9ebe
00000300: 8370 7bbe 1627 06bf 7075 353e d783 aa3d
00000310: 0c62 a43e 0747 cebd 6c74 fa3d 85d3 64be
00000320: e5b8 a5bd 9942 d8bd 25c8 b7bd 6a00 163d
00000330: 4895 9cbe 9c6f 873d 2dba 7cbe 2d53 15be
00000340: bc17 7b3e d11d b33c 4deb 5a3e 46e8 08bd
00000350: a7ff 08be 7a45 853e 0b19 fe3d 50e8 533e
00000360: eb23 aebd de00 87be 9c36 3cbe d304 53be
00000370: 4d38 0abe 4746 623e 1c39 8d3d 2734 703e
00000380: ed6d 1d3e b763 bfbd 4d43 513e ce9d 0fbd
00000390: c193 453d 2e37 50ba 1e59 d9bc 5b4d ee3d
000003a0: 055e d9bc 4901 ec3c 1900 0fbe 4c2d 263e
000003b0: ad4a c03d c175 dabc 94c7 32be 4872 643e
000003c0: ef5a 27be 3e21 4a3e f575 bdbd 7a01 2cbe
000003d0: 80f0 90be ba7a 143e 72f8 1ebe 14c3 25be
000003e0: 1694 67be 01d0 e0bd efe1 8b3b 46ba 2b3c
000003f0: ebdb 293e 217c 36bd c2d4 6d3d 1dbd 98bd

net.2.bias f4 [64]
-0.016044846 0.019480173 0.068008326 -0.16420628 -0.1054021 -0.021665404 -0.052256465 -0.093520224
0.023834534 0.07735145 0.07552424 0.20560664 0.05038726 0.068965055 0.048275396 -0.01783559
0.12200675 -0.030023642 0.04117367 0.027884444 -0.105717614 0.043580614 -0.021556761 0.064496934
0.0613405 -0.04742527 0.17974198 0.021194194 0.08565203 -0.021302138 0.092849486 0.028022343
0.032351032 -0.05973735 -0.0854684 -0.12483151 -0.01083242 0.09261461 0.07790462 0.008814649
-0.03091304 0.07082851 -0.021526638 -0.28790253 0.15833166 0.099753365 0.080036245 0.15762079
0.05176821 0.06757639 0.009567593 0.07802714 0.07735075 -0.03355578 -0.019707205 0.18328732
0.021844644 0.10968873 -0.018848518 0.038060524 -0.09747732 0.007918708 0.11364463 -0.12868129
00000000: 7b70 83bc e294 9f3c f347 8b3d b125 28be
00000010: 0edd d7bd a57b b1bc e00a 56bd 8887 bfbd
00000020: a440 c33c 706a 9e3d 74ac 9a3d 8c8a 523e
00000030: df62 4e3d 8d3d 8d3d 6cbc 453d f11b 92bc
00000040: adde f93d 24f4 f5bc b9a5 283d eb6d e43c
00000050: 7a82 d8bd 9681 323d ce97 b0bc f816 843d
00000060: 2d40 7b3d 0041 42bd 480e 383e 729f ad3c
00000070: 556a af3d d281 aebc df27 be3d 1d8f e53c
00000080: 8482 043d 27af 74bd 0e0a afbd aaa7 ffbd
00000090: 767a 31bc bbac bd3d 758c 9f3d 516b 103c
000000a0: 583d fdbc 8a0e 913d a258 b0bc f667 93be
000000b0: b221 223e 7e4b cc3d 0bea a33d 5867 213e
000000c0: e70a 543d 7e65 8a3d 65c1 1c3c b1cc 9f3d
000000d0: 126a 9e3d c971 09bd 0171 a1bc acaf 3b3e
000000e0: 8af3 b23c 7ca4 e03d 3568 9abc 5ae5 1b3d
000000f0: 30a2 c7bd 78bd 013c 84be e83d 07c5 03be

net.4.weight f4 [4, 64]
-0.24647684 0.07310374 -0.04867786 -0.13384512 0.0860145 -0.42361766 0.41891435 -0.53623253
-0.0284133 0.2524207 -0.14223795 0.3107484 0.38553613 -0.08108564 0.38485476 -0.55156475
0.2329733 0.49599832 -0.23151638 0.21177182 -0.5490631 -0.5719755 0.20244937 0.22948791
0.12166143 -0.5623866 0.05293389 0.4543459 -0.2557747 -0.045529444 -0.15386747 0.05939964
-0.77400494 0.40815258 0.1309209 -0.50436044 0.19045468 -0.0062103206 0.3000986 0.10925391
-0.42789513 -0.29458395 -0.121237084 0.74005395 -0.18199633 0.10160764 0.29071993 0.2806401
0.11912405 0.31441683 -0.111982234 0.04421804 0.05276872 -0.24735332 -0.6282357 0.11779797
-0.20077385 0.26477948 -0.35783133 -0.04946915 -0.2715515 -0.4193066 -0.50782216 -0.2434291
0.3241547 -0.11133051 0.041155923 -0.29812002 0.27328947 0.5091445 0.6530896 -0.44204485
-0.40790048 0.2626905 0.1729364 -0.23127894 0.34612855 -0.28124678 0.13059421 0.079719715
-0.12773179 0.46513504 0.16870801 0.17898242 -0.15844311 -0.10797464 0.2513732 -0.18776073
-0.19343154 0.16136067 -0.08636164 0.39580733 -0.63004786 0.29072952 0.010286813 -0.19425434
-0.36278933 -0.31910554 -0.3588694 -0.00033492243 0.30585295 -0.4036875 -0.054364804 0.23957884
-0.2959799 0.29179487 0.06905356 0.8813077 -0.02214406 0.5437827 -0.38281426 -0.29441157
0.35497198 -0.0041378476 -0.11565077 -0.39290303 -0.11885707 -0.13710223 0.10780389 -0.1989191
0.5915913 -0.89933205 0.16655177 0.12939575 0.32872874 0.18575197 0.10482687 -0.5115903
-0.34262452 0.11785933 -0.6077804 -0.27100217 0.3959619 -0.37003246 1.0329549 0.06541509
-0.105754085 0.06567912 0.14600815 -0.14378479 0.14822511 -0.15606615 0.25338504 -0.3578595
0.5517991 -0.010205112 0.53885525 -0.5237896 -0.21235321 0.39741185 0.5245514 -0.2579095
0.08005569 -0.12543121 0.43194333 -0.054435782 -0.013478174 0.5271462 0.3768027 -0.043469574
-0.1920819 0.34718144 -0.47296888 -0.101316154 -0.662726 -0.39212972 -0.06180075 0.13263762
0.44999337 -0.21841215 0.068049744 0.29635355 -0.5099233 -0.034545403 -0.12830675 -0.5445934
0.71433985 0.20185895 0.9290493 -0.2688339 -0.096313626 0.41832325 0.11664215 0.062108066
-0.18956204 -0.701804 0.06923685 -0.2590184 -0.63978434 -0.35960674 -0.32369664 -0.5282692
-0.42930657 0.48996502 -0.7301913 0.6104512 0.16482657 -0.20402758 -0.296805 -0.052215945
-0.12513347 -0.3053475 -0.5035829 -0.13254324 -0.37005576 0.15967953 0.3214804 0.38922292
-0.7489688 0.09364717 0.00023406325 0.67719173 0.7982183 0.78583115 0.2244323 0.22650598
-0.27030164 0.1454237 -0.46735537 0.09447076 0.32596126 0.21711901 0.52167755 0.3406465
0.05376474 -0.20208476 0.015424814 0.045016393 -0.17260456 0.24988534 0.14711489 0.46012843
0.4168587 0.41511837 -0.784456 0.1761731 0.12630361 -0.113055736 0.65156543 0.22350575
0.051800143 0.14905964 -0.6524423 -0.08105237 0.47448024 0.1685446 -0.105345905 -0.26611263
0.4058328 0.23328929 -0.49170688 -0.45558873 0.2636067 -0.34118325 -0.44562104 0.4147735
00000000: 6d64 7cbe 6ab7 953d 7062 47bd b20e 09be
00000010: 5f28 b03d 6ae4 d8be f17b d63e 8946 09bf
00000020: 02c3 e8bc 493d 813e d3a6 11be 6a1a 9f3e
00000030: fe64 c53e 3a10 a6bd af0b c53e 5933 0dbf
00000040: 8e90 6e3e 7ef3 fd3e a112 6dbe b6da 583e
00000050: 668f 0cbf fd6c 12bf e34e 4f3e e1fe 6a3e
00000060: a129 f93d 91f8 0fbf 35d1 583d 07a0 e83e
00000070: e7f4 82be 157d 3abd 6f8f 1dbe 094d 733d
00000080: 3025 46bf 60f9 d03e 2110 063e c41d 01bf
00000090: 8d06 433e f27f cbbb 86a6 993e 84c0 df3d
000000a0: 1215 dbbe b5d3 96be 264b f8bd 2d74 3d3f
000000b0: 3f5d 3abe ab17 d03d 3ed9 943e 0fb0 8f3e
000000c0: 4ff7 f33d 3efb a03e f156 e5bd fa1d 353d
000000d0: 0324 583d 304a 7dbe 0ed4 20bf 1040 f13d
000000e0: a997 4dbe 2d91 873e ab35 b7be 2aa0 4abd
000000f0: cc08 8bbe 5baf d6be a200 02bf 7a45 79be
00000100: 9bf7 a53e 4001 e4bd 1d93 283d 30a3 98be
00000110: 99ec 8b3e 4b57 023f e130 273f b453 e2be
00000120: 55d8 d0be 5f7f 863e 3d16 313e 63d4 6cbe
00000130: c337 b13e 94ff 8fbe 7dba 053e 1744 a33d
00000140: 1fcc 02be 2e26 ee3e cbc1 2c3e 2b47 373e
00000150: e93e 22be cf21 ddbd fdb3 803e 5944 40be
00000160: eb12 46be bb3b 253e 5fde b0bd 42a7 ca3e
00000170: d14a 21bf 80da 943e 058a 283c 9cea 46be
00000180: 86bf b9be cd61 a3be bbbd b7be 8798 afb9
00000190: c298 9c3e 21b0 cebe a1ad 5ebd 2854 753e
000001a0: ad8a 97be 2366 953e f46b 8d3d 629d 613f
000001b0: 7667 b5bc 5835 0b3f 3b00 c4be 1dbd 96be
000001c0: e3be b53e c896 87bb 50da ecbd 962a c9be
000001d0: 566b f3bd 8764 0cbe 49c8 dc3d 73b1 4bbe
000001e0: 8772 173f a03a 66bf 8c8c 2a3e 5280 043e
000001f0: 224f a83e c435 3e3e 78af d63d 95f7 02bf
00000200: 7b6c afbe 3b60 f13d 7f97 1bbf ccc0 8abe
00000210: 85bb ca3e e574 bdbe de37 843f 59f8 853d
00000220: 9995 d8bd c682 863d 2983 153e 523c 13be
00000230: 53c8 173e cecf 1fbe afbb 813e 5c39 b7be
00000240: b542 0d3f 5833 27bc 6bf2 093f 1317 06bf
00000250: 1f73 59be 9179 cb3e 0049 063f b70c 84be
00000260: 3df4 a33d 0a71 00be ad27 dd3e 0ef8 5ebd
00000270: 8fd3 5cbc 0ef3 063f 49ec c03e 270d 32bd
00000280: 1eb1 44be c4c1 b13e fa28 f2be d87e cfbd
00000290: 69a8 29bf 3ac5 c8be c922 7dbd 28d2 073e
000002a0: 8865 e63e 6fa7 5fbe aa5d 8b3d a7bb 973e
000002b0: 558a 02bf 7b7f 0dbd d862 03be 796a 0bbf
000002c0: fade 363f 1db4 4e3e 2dd6 6d3f 99a4 89be
000002d0: 1440 c5bd 772e d63e 14e2 ee3d 0765 7e3d
000002e0: 8d1c 42be 6da9 33bf 0dcc 8d3d 0f9e 84be
000002f0: e8c8 23bf 601e b8be 91bb a5be a63c 07bf
00000300: 12ce dbbe b2dc fa3e d1ed 3abf 8846 1c3f
00000310: 4cc8 283e 9bec 50be d3f6 97be 63e0 55bd
00000320: fd22 00be 8256 9cbe cfea 00bf 6ab9 07be
00000330: f377 bdbe 0883 233e 1499 a43e 3a48 c73e
00000340: 6bbc 3fbf 16ca bf3d e06e 7539 705c 2d3f
00000350: 0958 4c3f 3b2c 493f 95d1 653e 2ff1 673e
00000360: fa64 8abe f3e9 143e 3449 efbe e379 c13d
00000370: 65e4 a63e 7254 5e3e a98c 053f 3869 ae3e
00000380: 6a38 5c3d 4fef 4ebe 5cb8 7c3c 1c63 383d
00000390: 40bf 30be f1e1 7f3e 49a5 163e f495 eb3e
000003a0: 816e d53e 658a d43e 1cd2 48bf b966 343e
000003b0: bc55 013e c489 e7bd fecc 263f b1de 643e
000003c0: 632c 543d 17a3 183e 7506 27bf c9fe a5bd
000003d0: 13ef f23e f596 2c3e 98bf d7bd ea3f 88be
000003e0: 51c9 cf3e 63e3 6e3e 01c1 fbbe ed42 e9be
000003f0: 75f7 863e 92af aebe 7128 e4be 315d d43e

net.4.bias f4 [4]
0.0845322 0.009459422 -0.029455343 -0.1340002
00000000: 381f ad3d b1fb 1a3c 554c f1bc 5937 09be
