p2-continuous-control/checkpoint/d4pg_critic_checkpoint.pth (torch_old, 66081 bytes, 7 tensors)

supports f4 [51]
0	0xc1200000	-10.0
1	0xc119999a	-9.6
2	0xc1133333	-9.2
3	0xc10ccccd	-8.8
4	0xc1066666	-8.4
5	0xc1000000	-8.0
6	0xc0f33333	-7.6
7	0xc0e66666	-7.2
8	0xc0d9999a	-6.8
9	0xc0cccccd	-6.4
10	0xc0c00000	-6.0
11	0xc0b33333	-5.6
12	0xc0a66666	-5.2
13	0xc099999a	-4.8
14	0xc08ccccd	-4.4
15	0xc0800000	-4.0
16	0xc0666666	-3.6
17	0xc04ccccd	-3.2
18	0xc0333333	-2.8
19	0xc019999a	-2.4
20	0xc0000000	-2.0
21	0xbfcccccd	-1.6
22	0xbf99999a	-1.2
23	0xbf4ccccd	-0.8
24	0xbecccccd	-0.4
25	0x00000000	0.0
26	0x3ecccccd	0.4
27	0x3f4ccccd	0.8
28	0x3f99999a	1.2
29	0x3fcccccd	1.6
30	0x40000000	2.0
31	0x4019999a	2.4
32	0x40333333	2.8
33	0x404ccccd	3.2
34	0x40666666	3.6
35	0x40800000	4.0
36	0x408ccccd	4.4
37	0x4099999a	4.8
38	0x40a66666	5.2
39	0x40b33333	5.6
40	0x40c00000	6.0
41	0x40cccccd	6.4
42	0x40d9999a	6.8
43	0x40e66666	7.2
44	0x40f33333	7.6
45	0x41000000	8.0
46	0x41066666	8.4
47	0x410ccccd	8.8
48	0x41133333	9.2
49	0x4119999a	9.6
50	0x41200000	10.0

obs_net.0.weight f4 [128, 33]
0	0xbd946704	-0.07246211
1	0x3e34936b	0.1763436
2	0x3d256333	0.040377807
3	0x3d667fc4	0.05627419
4	0x3d466329	0.04843441
5	0xbc28a3ae	-0.0102929305
6	0x3e632de6	0.22185478
7	0xbcde1355	-0.027108828
8	0xbe0cdc01	-0.137558
9	0xbe4c5b17	-0.19956623
10	0xbd198378	-0.037478894
11	0xbc72e1a4	-0.014824305
12	0xbd23a096	-0.03994807
13	0xbada08c7	-0.0016634696
14	0xbe96c9ba	-0.2945078
15	0xbde49921	-0.111620195
16	0xbd8265a4	-0.06367043
17	0xbd28919d	-0.041154493
18	0x3c3d0b57	0.011538348
19	0x3c55b8ed	0.013044578
20	0xbdc7eed0	-0.09762347
21	0xbda86f1a	-0.08224316
22	0x3d2bf37a	0.041980244
23	0x3db4f936	0.08836596
24	0xbceef509	-0.029169576
25	0xbabb6382	-0.0014296623
26	0x3cfe3607	0.031031622
27	0x3e47e360	0.1952033
28	0x3d9ab235	0.075535215
29	0x3de84a08	0.11342245
30	0xbe06bbb2	-0.13157538
31	0xbcfaacb8	-0.030599937
32	0x3ec1bebd	0.37840834
33	0xbe031143	-0.12799554
34	0xbe374821	-0.17898609
35	0x3e30e86e	0.17276165
36	0xbd6255ea	-0.055257715
37	0x3e1a1d95	0.15050347
38	0x3df64176	0.120242044
39	0x3d307ebf	0.043089624
40	0x3e20f3f5	0.15718062
41	0xbcf529c7	-0.029927148
42	0x3d973415	0.07382981
43	0xbcac56dc	-0.021037512
44	0xbd863f01	-0.06554986
45	0x3c6a06fb	0.014283891
46	0x3de13968	0.109972775
47	0x3d5d2635	0.053991515
48	0x3df4a061	0.11944652
49	0x3dbff9f7	0.09373849
50	0xbddcd626	-0.10783033
51	0xbe0dd4b2	-0.13850668
52	0x3d9d691f	0.07686066
53	0xba817b32	-0.0009878634
54	0x3c8f3203	0.017479902
55	0x3d8b67cd	0.06806908
56	0x3e2f11e4	0.17096668
57	0x3d7940af	0.060852703
58	0xbd462594	-0.04837568
59	0x3e3149e9	0.1731335
60	0xbe73a7d3	-0.23794489
61	0xbe78dd7d	-0.24303241
62	0x3d3f55e4	0.04671277
63	0x3d522285	0.05130245
64	0xbd8d2ae7	-0.068929486
65	0x3edc5551	0.4303384
66	0x3e22149c	0.15828174
67	0x3df66f0c	0.12032899
68	0x3d8a3b2b	0.06749567
69	0xbd543ff8	-0.051818818
70	0xbe0ab796	-0.13546595
71	0x3de93463	0.11386945
72	0xbe3f0d7b	-0.18657486
73	0x3d840578	0.064463556
74	0xbd33e675	-0.043920953
75	0xbc649fd2	-0.01395412
76	0xb97f3dc9	-0.00024341712
77	0x3d0d2eff	0.034468647
78	0x3d04c514	0.03241451
79	0xbe7cec7b	-0.24699585
80	0x3dcd900d	0.10037241
81	0xbd59482a	-0.053047337
82	0x3d731175	0.05934282
83	0xbcebf0d0	-0.028801352
84	0x3c4e0e33	0.012576628
85	0x3dc49c74	0.096001536
86	0x3aa7231d	0.0012751553
87	0xbde61a4b	-0.11235484
88	0x3c2d3041	0.010570587
89	0xbd5cbb61	-0.053889636
90	0xbc0a0838	-0.008424811
91	0xbd7a106d	-0.06105082
92	0x3df6c572	0.120493785
93	0x3c7c2151	0.015388803
94	0x3dc73033	0.0972599
95	0xbc3947c0	-0.01130861
96	0xbced8653	-0.028994715
97	0x3e0189ac	0.12650174
98	0x3f460d96	0.7736448
99	0xbd75d7a2	-0.060020097
100	0x3d3af1c3	0.04564072
101	0xbe14748e	-0.14497587
102	0x3daf51b6	0.08560507
103	0xba2201f9	-0.00061801035
104	0x3cbb3758	0.022853538
105	0x3d15e163	0.0365919
106	0xbc38bccb	-0.0112754805
107	0xbcd9f8c9	-0.026607888
108	0x3d1d9448	0.03847149
109	0xbd6a51d1	-0.057206932
110	0xbd6fbbb8	-0.058528632
111	0xbc62c021	-0.013839752
112	0x3d1166c6	0.035498403
113	0x3d14ba13	0.036310267
114	0x3d43df69	0.047820482
115	0x3d1e1d5c	0.038602218
116	0xbc3a52d3	-0.011372286
117	0x3d448254	0.047975853
118	0x3d662e5e	0.056196563
119	0x3a8a40c4	0.0010547866
120	0x3c99b655	0.0187637
121	0xbd7289fa	-0.059213616
122	0xbe14293a	-0.14468852
123	0x3cc138ce	0.023586657
124	0x3d3890b6	0.045059882
125	0xbd23a2d0	-0.039950192
126	0xbc93f6dc	-0.018062048
127	0xbc5f3403	-0.01362324
128	0x3e12ad22	0.14323857
129	0xbdf2f4b1	-0.118630774
130	0x3c196630	0.009362742
131	0x3f86a4b4	1.0519013
132	0x3e298e2e	0.16558143
133	0xbe18e93a	-0.14932719
134	0x3e35e03c	0.1776132
135	0xbc5f1899	-0.013616704
136	0x3e203d30	0.15648341
137	0xbc340560	-0.01098761
138	0x3bf08369	0.007339884
139	0x3d8f7081	0.0700388
140	0x3e033a4a	0.12815204
141	0x3d0066a0	0.03134787
142	0xbcbdab79	-0.023153054
143	0xbbf674ac	-0.0075212326
144	0x3d220649	0.039556775
145	0xbdaf222d	-0.085514404
146	0x3d1ed5f3	0.038778257
147	0xbcd78ddc	-0.026312761
148	0xbbf00038	-0.007324245
149	0x3d13d3ca	0.03609065
150	0x3d05bc4c	0.032650277
151	0x3d29c407	0.041446712
152	0xbc857182	-0.016289476
153	0xbc9bbc24	-0.01901061
154	0x3c1477c5	0.009061758
155	0xbdb8a822	-0.09016444
156	0x3c9b3155	0.018944422
157	0xbd7a23f7	-0.061069455
158	0xbd5d76b6	-0.05406829
159	0xbde28126	-0.11059789
160	0xbe60e7b0	-0.21963382
161	0x3d527678	0.05138251
162	0xbd0ccc39	-0.03437445
163	0x3d640de8	0.055677325
164	0xbf775255	-0.96610004
165	0x3d8de4b7	0.069283895
166	0x3e24d57b	0.16097061
167	0x3e5f59cf	0.21811603
168	0xbe1f0b25	-0.15531595
169	0x3e1fe5f9	0.15615071
170	0xbe091122	-0.13385442
171	0xbe481315	-0.19538529
172	0x3ce698e9	0.028149085
173	0x3d502091	0.050812308
174	0x3d71fea0	0.05908072
175	0x3db14523	0.08655765
176	0xbc98d826	-0.018657755
177	0x3dd25b83	0.10271361
178	0xbdc3c2d0	-0.09558642
179	0xbb8626cb	-0.00409398
180	0xbe09ce47	-0.13457595
181	0xbdd27eef	-0.10278117
182	0xbcd90565	-0.02649183
183	0xbd886159	-0.066591926
184	0x3d0f1620	0.03493321
185	0xbdb2c548	-0.08729035
186	0xbd3eb12d	-0.046555687
187	0x3d12aa96	0.035807215
188	0x3d9f8e41	0.07790805
189	0x3d9eaa62	0.07747342
190	0xbd65325a	-0.055956222
191	0x3e2eba16	0.17063174
192	0xbe4160f1	-0.18884636
193	0x3d68c374	0.056827024
194	0x3d3a2f08	0.04545501
195	0x3e4ab57f	0.19795798
196	0x3d838090	0.06421006
197	0xbe9ffb6a	-0.312465
198	0xbe67762b	-0.22603671
199	0x3e07c7ad	0.13259764
200	0x3acb2cae	0.0015500986
201	0x3b06b7af	0.0020556261
202	0xbcf51172	-0.029915545
203	0xbd2fb6c2	-0.0428989
204	0x3e00ab45	0.12565334
205	0x3c5be340	0.01342088
206	0xbdaf191f	-0.08549713
207	0x3dcd7f47	0.10034042
208	0xbdaa5118	-0.08316249
209	0x3c8172ec	0.01580187
210	0x3c86462d	0.016390884
211	0x3ddf6f9a	0.10909958
212	0xbd5dd123	-0.054154526
213	0x3d8070ea	0.06271537
214	0x3cb314c7	0.021860493
215	0x3c2e82e9	0.010651329
216	0xbda2f107	-0.079561286
217	0x3ce93cca	0.02847137
218	0x3c640871	0.013918028
219	0x3cd2dbd1	0.025739582
220	0xbba1fe41	-0.0049436395
221	0x3d316c62	0.043316253
222	0x3d19cd2b	0.03754918
223	0x3d2d3ed5	0.04229625
224	0xbdde850c	-0.108652204
225	0xbe528cdc	-0.20561546
226	0xbe65c313	-0.22437696
227	0xbdb9845b	-0.09058448
228	0x3cb21809	0.021739976
229	0x3d6c769c	0.057730302
230	0xbf5818d2	-0.8441287
231	0xbd987c77	-0.07445615
232	0x3d85e253	0.065373085
233	0x3cd9c7ce	0.026584532
234	0xbd9b8e1b	-0.07595464
235	0xbe02ccca	-0.12773433
236	0xbda58962	-0.08082844
237	0x3e20c934	0.15701753
238	0xbd93b5ee	-0.07212435
239	0xbd3ecebf	-0.046583887
240	0xbd62ef4a	-0.055403985
241	0x3cb66523	0.022265023
242	0xbc015267	-0.007893181
243	0x3b0b1380	0.002122134
244	0x3e4cedfc	0.20012659
245	0x3d0f7a55	0.035028774
246	0xbe2b0aa9	-0.16703285
247	0x3d38b3b2	0.045093246
248	0xbc84f6b8	-0.016230926
249	0xbd28ec4e	-0.041240983
250	0x3a590c8a	0.00082797615
251	0x3cba9230	0.022774786
252	0xbcdf6f97	-0.02727489
253	0xbc8550cb	-0.016273877
254	0xbd3e962e	-0.04652994
255	0xbd95375c	-0.072859496

obs_net.0.bias f4 [128]
0	0xbe7d720e	-0.2475054
1	0x3e9733ee	0.29531807
2	0x3d38942b	0.04506318
3	0x3d698b27	0.05701747
4	0xbe05e9c9	-0.13077463
5	0x3e3d7813	0.18502836
6	0x3dba9f29	0.09112389
7	0x3e4be175	0.19910224
8	0xbe18507c	-0.14874452
9	0x3e112173	0.14172916
10	0x3ddcf63a	0.107891515
11	0x3e0e2bda	0.13883916
12	0xbe35d76d	-0.1775796
13	0x3bbe5bd2	0.0058092857
14	0xbe901c3d	-0.28146544
15	0xbd8edbc8	-0.06975514
16	0x3c8ddb9b	0.01731663
17	0x3e6d3954	0.231664
18	0x3e7e2139	0.24817361
19	0x3e1ab3a2	0.15107587
20	0xbe645c46	-0.22300825
21	0xbe219c63	-0.15782313
22	0x3d3a27cf	0.04544812
23	0x3d799ecc	0.060942456
24	0xbe7473de	-0.23872325
25	0x3db0626b	0.08612522
26	0x3e426242	0.18982795
27	0x3b7f0f15	0.0038918902
28	0xbe3af603	-0.18257909
29	0x3d088107	0.033326175
30	0x3dd378c4	0.103257686
31	0x3eda109f	0.42590806
32	0x3dd7c30e	0.105352506
33	0x3d1966bd	0.037451494
34	0xbe3cde82	-0.18444255
35	0xbdc6b034	-0.09701577
36	0x3e438a6c	0.19095773
37	0x3e133790	0.14376664
38	0xbdd0a5dc	-0.10187885
39	0x3e2c1c3d	0.16807647
40	0x3e063430	0.13105845
41	0xbe3961ed	-0.18103762
42	0xbe94107b	-0.28918824
43	0xbde4975e	-0.111616835
44	0xbd192779	-0.03739116
45	0x3d5aa639	0.05338118
46	0xbe1ec191	-0.15503527
47	0x3dd0b77a	0.101912454
48	0x3d92c88d	0.07167158
49	0x3d77f510	0.060536444
50	0xbe01442a	-0.12623659
51	0x3d6aa393	0.057284903
52	0xbdec711e	-0.11545013
53	0xbe7d11cb	-0.24713819
54	0x3d62e000	0.055389404
55	0x3e17dc5c	0.14830154
56	0xbc3949da	-0.0113091115
57	0xbea7e87d	-0.32794562
58	0xbcea9840	-0.028637052
59	0x3dbb7555	0.09153239
60	0x3e19e6e4	0.15029484
61	0x3e2d0755	0.16897328
62	0x3e0acdcf	0.13555072
63	0xbdef6c30	-0.11690557
64	0xbde4aa7c	-0.1116533
65	0x3d99c7f7	0.075088434
66	0xbd8b6158	-0.06805676
67	0x3cd15aad	0.025555933
68	0x3c436e5b	0.011928166
69	0xbccee069	-0.025253491
70	0xbdb734b2	-0.08945598
71	0xbcce9cbc	-0.025221221
72	0x3c6e4f34	0.014545251
73	0x3e6d69ed	0.23184939
74	0x3d5c0eb6	0.053724967
75	0x3e21cfda	0.15801945
76	0xbb384836	-0.0028119213
77	0x3e1d197a	0.1534175
78	0xbdb56cc5	-0.08858637
79	0x3c9ead4c	0.019369744
80	0xbd62f05d	-0.05540501
81	0xbdd68d83	-0.1047621
82	0xbcdd9f70	-0.027053565
83	0xbe5f4986	-0.2180539
84	0xbe291dc4	-0.16515261
85	0xbe074204	-0.13208777
86	0x3dc0f94c	0.094225496
87	0x3e6b7bbc	0.2299642
88	0x3e655099	0.22394027
89	0x3d31543a	0.043293215
90	0xbd88d137	-0.066805296
91	0xbdc7d1c0	-0.097568035
92	0x3e8e235a	0.27761346
93	0xbe1ee47d	-0.15516849
94	0xbd5e566a	-0.05428163
95	0xbe74d731	-0.23910214
96	0xbe2ad2f9	-0.16682042
97	0xbe5d6def	-0.21623968
98	0x3d690359	0.05688796
99	0x3e6c7389	0.23090948
100	0xbe034810	-0.12820458
101	0xbe059a0a	-0.13047042
102	0xbbeca828	-0.007222194
103	0x3e07056e	0.13185665
104	0xbdca4efd	-0.09878347
105	0x3e3c9ea0	0.18419886
106	0x3ea866ac	0.32890832
107	0xbc41bad3	-0.0118243275
108	0xbe30c874	-0.17263967
109	0xbd250185	-0.040284652
110	0x3d7eb07b	0.062180024
111	0x3db33296	0.08749883
112	0xbd86710f	-0.06564533
113	0xbcedfdaa	-0.02905162
114	0xbe40155d	-0.1875815
115	0x3d2bf511	0.04198176
116	0x3e0ac32c	0.13551015
117	0xbd8f3e72	-0.069943324
118	0x3e1046be	0.14089486
119	0x3e499ab3	0.1968792
120	0xbd41cb36	-0.047312938
121	0x3e19e270	0.15027785
122	0xbe10563f	-0.140954
123	0x3ea55901	0.32294467
124	0xbd543c75	-0.05181547
125	0x3e5d27b3	0.21597175
126	0x3db98293	0.09058108
127	0xbdc41f08	-0.09576231

out_net.0.weight f4 [64, 132]
0	0x3d202173	0.0390944
1	0xbd93c61a	-0.07215519
2	0xbe0e8b1c	-0.13920254
3	0x3b2d3fb7	0.0026435682
4	0xbea7d3eb	-0.32778868
5	0xbd1a8f1c	-0.037734136
6	0xbe8a759b	-0.2704285
7	0x3dbbd0d3	0.091706894
8	0xbd2c729f	-0.0421015
9	0x3dcce969	0.10005457
10	0x3c6aa62d	0.014321846
11	0x3dc8995d	0.09794877
12	0xbd140678	-0.03613898
13	0xbc6a43dd	-0.014298406
14	0xbd7ffccd	-0.06249695
15	0xbe1a6fec	-0.15081757
16	0x3cee51b9	0.029091703
17	0xbe5d9eab	-0.21642558
18	0xbe491e82	-0.19640544
19	0x3d1b6aa0	0.037943482
20	0xbc566f34	-0.013088036
21	0x3e4080e8	0.18799174
22	0x3d3ee6e5	0.046606917
23	0xbcca8275	-0.02472041
24	0x3d2a3574	0.041554883
25	0xbd259814	-0.040428236
26	0x39f23ed2	0.00046204642
27	0x3c332793	0.010934728
28	0x3d470fc2	0.048599012
29	0x3d8a71f8	0.06760019
30	0x3e966def	0.29380748
31	0xbc63c4cc	-0.0139019005
32	0x3e62ad7a	0.22136489
33	0x3d2e4425	0.042545456
34	0xbe3ffc64	-0.18748623
35	0x393d3799	0.00018045156
36	0x3ccf917f	0.025337933
37	0x3da4fa52	0.08055557
38	0xbd9b967b	-0.07597061
39	0xbd3a3cda	-0.04546819
40	0x3b66c4a5	0.0035212424
41	0x3cdb128c	0.026742242
42	0xbc62cc58	-0.013842665
43	0xbc87f49b	-0.01659613
44	0x3d1b3740	0.037894487
45	0x3ce60c01	0.028081896
46	0x3dd5a48e	0.10431777
47	0xbe8c5f91	-0.2741666
48	0xbcb447f7	-0.022006972
49	0xbe10a2a2	-0.1412454
50	0x3baff5e7	0.00536989
51	0x3be6e2b1	0.0070460667
52	0x3dea9930	0.114549994
53	0xbd7d2eb0	-0.061812103
54	0x3d884701	0.06654168
55	0xbca182ec	-0.019715749
56	0x3d4ee9e3	0.05051602
57	0x3e0993a4	0.13435227
58	0x3e08efd4	0.13372737
59	0x3e4078ad	0.18796034
60	0x3e07f870	0.13278365
61	0x3e14c1e8	0.14527094
62	0x3d972c53	0.07381501
63	0x3cd89bec	0.026441537
64	0x3d8e7bc8	0.06957203
65	0x3df26c75	0.11837093
66	0x3e1c529c	0.15265888
67	0x3b92e857	0.0044832635
68	0x3e28fc07	0.16502391
69	0x3da00eaf	0.07815301
70	0xbe00e335	-0.12586673
71	0xbec34852	-0.38141114
72	0x3d137d26	0.036008023
73	0x3b8a001b	0.0042114384
74	0xbe61c492	-0.22047642
75	0xbd5f3fba	-0.054504134
76	0xbe2af776	-0.16695961
77	0x3b758058	0.0037460532
78	0xbe060a2e	-0.1308982
79	0x3d47390f	0.0486384
80	0xbd42bcf6	-0.04754349
81	0x3dcbafb2	0.099456206
82	0xbd04c712	-0.03241641
83	0x3bffa98a	0.007802193
84	0x3d68513d	0.0567181
85	0xbd470aa2	-0.048594125
86	0xbda49503	-0.08036234
87	0xbdf33a13	-0.11876311
88	0x3dc8359a	0.09775849
89	0x3d6b7582	0.05748511
90	0x3d4d1f70	0.05007881
91	0xbdcaf834	-0.09910622
92	0xbdb59c24	-0.08867672
93	0x3e2d2e27	0.16912137
94	0x3da24c5a	0.07924719
95	0x3e1f32e0	0.15546751
96	0x3ccf4f41	0.025306346
97	0xbd011e00	-0.03152275
98	0x3b702a6b	0.0036646377
99	0xbd130971	-0.035897676
100	0xbc79bf4f	-0.015243365
101	0xbd5f6d43	-0.05454756
102	0x3d4e2d76	0.050336324
103	0x3d9cf067	0.076630406
104	0x3d4c5f65	0.049895663
105	0xbd94fcc5	-0.072747745
106	0x3d3500f2	0.044190355
107	0xbca3ce67	-0.019995881
108	0x3c68355a	0.014172876
109	0x3e90830d	0.28224984
110	0xbc071abd	-0.008246121
111	0xbdf5fca1	-0.12011076
112	0xbe387072	-0.18011644
113	0x3dbadf8a	0.09124668
114	0x3db1c533	0.08680191
115	0xbe50ab13	-0.2037776
116	0xbd5adc4c	-0.053432748
117	0xbe881a2c	-0.26582468
118	0xbe36a4e3	-0.17836337
119	0xbdab6fc5	-0.08370928
120	0x3d9b8de7	0.07595425
121	0xbcb467d5	-0.022022167
122	0x3e065c5c	0.1312117
123	0x3deb4d5c	0.114893645
124	0xbe4a5163	-0.19757609
125	0x3dc6d0f5	0.09707824
126	0xbebba4e5	-0.36649242
127	0xbd93632e	-0.071966514
128	0xbca677ca	-0.020320792
129	0xbc286abf	-0.0102793565
130	0xbd47abe8	-0.048747927
131	0x3c259331	0.010105894
132	0x3da39f24	0.07989338
133	0xbdaecfc0	-0.08535719
134	0xbd8dfe0c	-0.06933221
135	0x3abe56e9	0.0014521751
136	0xbcfc07c1	-0.030765416
137	0x3dcbb3b9	0.09946389
138	0xbe5ac5fe	-0.2136459
139	0xbd741fa3	-0.059600484
140	0xbd3f4856	-0.046699844
141	0x3d0a35a8	0.033742577
142	0x3db41991	0.08793939
143	0xbde97a70	-0.11400306
144	0x3dbf7a7f	0.09349536
145	0xbc48d3ed	-0.012257558
146	0x3d927e70	0.07153022
147	0xbc44bc2f	-0.012007757
148	0x3d4cda64	0.05001296
149	0x3cf28359	0.029603647
150	0x3da0fcfb	0.07860752
151	0x3e2b4249	0.16724505
152	0xbd027053	-0.031845402
153	0xbddbcb73	-0.10732164
154	0x3d972326	0.07379751
155	0xbd22297b	-0.03959034
156	0xbd98bc91	-0.07457841
157	0xbb2ef3cb	-0.0026695605
158	0xbbb3be08	-0.0054853
159	0x3bc718af	0.0060759406
160	0x3dd3f9f9	0.10350413
161	0x3d6cfe67	0.057859804
162	0x3dd6feba	0.10497804
163	0x3d6bcdcb	0.057569306
164	0x3c4bae7d	0.012431738
165	0x3e142c6b	0.14470069
166	0x3e124499	0.1428398
167	0x3e3f0164	0.18652874
168	0x3d06124f	0.032732304
169	0x3d9ec5e5	0.07752589
170	0x3dea15a9	0.114299126
171	0xbe5e72d2	-0.21723488
172	0x3dbf68d2	0.09346165
173	0x3e15a176	0.14612374
174	0xbc9f2f2d	-0.019431675
175	0x3c1d9cc0	0.009619892
176	0x3ca4254d	0.020037318
177	0x3de27fb9	0.110595174
178	0xbbb81671	-0.0056179096
179	0xbcdbe90e	-0.026844528
180	0x3db63226	0.08896284
181	0xbdb1e492	-0.086861745
182	0xbd16694e	-0.03672152
183	0x3dec7659	0.115460105
184	0x3d2daa06	0.042398475
185	0x3b69f732	0.0035700318
186	0xbdec202e	-0.11529575
187	0xbd989334	-0.07449952
188	0xbd67050a	-0.05640129
189	0x3b55fa65	0.0032650467
190	0xbbdcf1f1	-0.006742709
191	0xbd9864c5	-0.07441095
192	0xbb7fc31c	-0.0039026206
193	0xbcdff00e	-0.027336147
194	0xbdd3d251	-0.10342849
195	0xbd95034a	-0.07276018
196	0xbb158269	-0.0022813326
197	0x3e2e506c	0.17022866
198	0xbe9e61c4	-0.30933964
199	0x3ca61850	0.020275265
200	0x3db5e437	0.08881419
201	0x3d6accd1	0.057324234
202	0xbbef2f05	-0.0072993063
203	0x3c802f99	0.015647696
204	0xbdd70ad8	-0.10500115
205	0xbd734366	-0.059390448
206	0xbd582c27	-0.052776482
207	0xbd6d1aaf	-0.057886776
208	0x3db6e5d4	0.08930555
209	0xbd1b5dfd	-0.03793143
210	0x3deb22db	0.114812575
211	0xbd4f24d5	-0.050572235
212	0xbda783d8	-0.08179444
213	0x3d071f86	0.032989047
214	0x3e1d193f	0.15341662
215	0xbc731088	-0.014835484
216	0xbd39e252	-0.04538185
217	0x3e1290c0	0.1431303
218	0x3dcdaf8c	0.100432485
219	0xbd2cda20	-0.042200208
220	0x3d85df30	0.0653671
221	0xbd4a13d2	-0.04933531
222	0x3d9ef049	0.077606745
223	0xbd314e19	-0.04328737
224	0x3df1195a	0.117724136
225	0xbe07ac77	-0.13249384
226	0xbd014899	-0.031563375
227	0x3d60a125	0.05484118
228	0xbdac7fda	-0.08422823
229	0x3d999082	0.07498266
230	0xbe6c7915	-0.23093064
231	0xbc8c41e9	-0.017121272
232	0xbd42ecd3	-0.047589134
233	0x3bb5c34a	0.005546962
234	0xbd1ff3a4	-0.039050713
235	0x3d28b069	0.041183863
236	0x3cc923ca	0.024553198
237	0x3d33df63	0.04391421
238	0xbdfaa900	-0.122392654
239	0x3d4f9281	0.050676826
240	0xbd841cbc	-0.06450793
241	0xbd96ae60	-0.07357478
242	0x3d9f6b0f	0.07784092
243	0x3e382b03	0.17985158
244	0xbe89e166	-0.26929778
245	0x3d0ffd6a	0.035153784
246	0xbd9b8d70	-0.075953364
247	0x3d0070ca	0.031357564
248	0x3c87e673	0.016589379
249	0xbc4d9354	-0.012547333
250	0x3d2ab9c4	0.041681066
251	0x3d18b10f	0.03727823
252	0x3c572030	0.013130233
253	0xbc91a9f7	-0.01778124
254	0xbcf40676	-0.029788237
255	0x3c292f10	0.010326162

out_net.0.bias f4 [64]
0	0x3dd46145	0.10370115
1	0xbd42f090	-0.0475927
2	0xbe4884df	-0.19581936
3	0x3e865a7c	0.2624091
4	0x3d7ca54a	0.06168107
5	0x3c98d125	0.018654415
6	0xbd8b23ca	-0.067939356
7	0xbd82a52a	-0.06379159
8	0x3e705a24	0.23471886
9	0xbe2a0a71	-0.16605546
10	0x3d8d3e27	0.0689662
11	0xbd8bab0d	-0.06819735
12	0xbbbf55eb	-0.0058390996
13	0xbde07712	-0.10960211
14	0xbce81f07	-0.028335107
15	0x3e686c83	0.22697644
16	0xbe264bd4	-0.16239864
17	0x3f20fe31	0.62887865
18	0x3ebb3a46	0.36567897
19	0x3e22b32b	0.1588866
20	0x3f1647a5	0.5870307
21	0x3d84868e	0.06470977
22	0x3e0d9ab6	0.13828549
23	0x3e17729e	0.14789817
24	0xbe14cd89	-0.1453153
25	0x3de1f3f2	0.11032857
26	0x3ce9181c	0.028453879
27	0x3dff5e17	0.12469118
28	0x3ceb5414	0.028726615
29	0x3e3e65c3	0.18593507
30	0x3cae4778	0.021274313
31	0x3f0cdd9f	0.55025667
32	0x3db2ebf8	0.08736414
33	0x3e675b6c	0.22593468
34	0x3ef312da	0.4747532
35	0x3e85885f	0.26080605
36	0xbdf5d1a4	-0.120028764
37	0x3d39bbf9	0.04534528
38	0x3e76c2c0	0.24097729
39	0x3eb92ace	0.3616547
40	0xbd2dda5f	-0.042444583
41	0x3ec2e4ec	0.3806528
42	0xbe3c9689	-0.184168
43	0x3d955bc3	0.07292893
44	0xbdee459f	-0.11634373
45	0x3e8bdb09	0.27315548
46	0xbafc2c4f	-0.0019239279
47	0xbdd62b9a	-0.10457535
48	0x3e098709	0.13430418
49	0xbc8999e2	-0.01679701
50	0x3e34dc30	0.1766212
51	0xbe015e55	-0.12633641
52	0x3e6f7a80	0.23386574
53	0x3d9159ce	0.07097207
54	0x3c93ff58	0.018066093
55	0xba7e1abe	-0.0009693316
56	0x3eb133a0	0.346097
57	0x3e95cf9a	0.2925995
58	0x3c98eaa1	0.018666567
59	0xbe53d299	-0.20685805
60	0x3e266792	0.16250446
61	0xbdfb814a	-0.12280519
62	0xbdee52ea	-0.11636908
63	0x3e44b1d3	0.1920846

out_net.2.weight f4 [51, 64]
0	0xbe92908c	-0.28625906
1	0xbe9d38a7	-0.30707285
2	0xbe7af7ca	-0.24508587
3	0xbf49b395	-0.78789645
4	0xbea0f184	-0.31434262
5	0xbc99c5c4	-0.01877106
6	0xbddccbd1	-0.107810624
7	0xbc8f70c9	-0.017509835
8	0xbec8a946	-0.39191645
9	0xbd8fed2a	-0.07027657
10	0x3d1aaf78	0.037764996
11	0xbe26f38e	-0.16303846
12	0xbec2397f	-0.3793449
13	0xbe79e7b6	-0.24404797
14	0xbc4ab912	-0.012373226
15	0xbeb484e8	-0.3525765
16	0x3e0d9976	0.13828072
17	0xbf74b278	-0.9558482
18	0xbf0b0039	-0.54297215
19	0xbd0c01a6	-0.03418126
20	0xbf6ff5b3	-0.9373428
21	0xbe6daaa8	-0.23209631
22	0xbebdf395	-0.370999
23	0xbecc6840	-0.39923286
24	0x3e7ccce2	0.24687532
25	0xbe86f91b	-0.26361927
26	0xbe496473	-0.19667225
27	0xbef0c3c9	-0.47024372
28	0xbe219ef1	-0.15783288
29	0xbed0610f	-0.4069905
30	0xbeae37ab	-0.34026846
31	0xbf39b104	-0.7253573
32	0xbe908b91	-0.2823148
33	0xbebefa2b	-0.37300238
34	0xbf3d88b1	-0.740367
35	0xbf024754	-0.5089009
36	0xbe016517	-0.12636219
37	0xbe905f86	-0.2819788
38	0xbf1f428f	-0.62210935
39	0xbf1759f7	-0.5912165
40	0xbeb218da	-0.34784585
41	0xbf79b9ee	-0.9754933
42	0x3e023305	0.12714775
43	0xbe08a0fd	-0.13342662
44	0x3ca5f15c	0.02025669
45	0xbf19cef7	-0.6008143
46	0xbec93fdd	-0.39306536
47	0x3d2c514e	0.042069726
48	0xbeab27c0	-0.33428764
49	0xbcbee281	-0.023301365
50	0xbea0e3c8	-0.31423783
51	0xbe3702ef	-0.17872213
52	0xbf1ae814	-0.60510373
53	0xbe413e41	-0.18871404
54	0xbed95927	-0.4245083
55	0xbe96f982	-0.29487234
56	0xbf168803	-0.5880129
57	0xbf251cee	-0.6449727
58	0xbe9155b0	-0.28385687
59	0xbdb77769	-0.089583226
60	0xbf2b59c5	-0.6693385
61	0x3d4dd621	0.050253037
62	0x3e27f52a	0.16402116
63	0xbed5a393	-0.4172636
64	0xbe93d562	-0.28873736
65	0xbe993134	-0.29920352
66	0xbe62f777	-0.22164713
67	0xbf2e34ec	-0.680495
68	0xbebeaf43	-0.3724309
69	0xbe03d329	-0.1287352
70	0xbe6f00fa	-0.23340216
71	0xbc67caa6	-0.014147436
72	0xbee5c1be	-0.44874376
73	0xbcdd6350	-0.027024895
74	0xbd24efa9	-0.04026762
75	0xbdff6a5f	-0.124714606
76	0xbe94590c	-0.28974187
77	0xbe1ce0d0	-0.15320134
78	0xbd7e830a	-0.062136687
79	0xbe7871c6	-0.24262151
80	0x3e08b273	0.13349323
81	0xbf5406f3	-0.82823104
82	0xbf200631	-0.6250945
83	0x3d73c6f3	0.059515905
84	0xbf615f6e	-0.8803624
85	0xbe6294bf	-0.22127055
86	0xbeade02f	-0.339601
87	0xbeacc998	-0.33747554
88	0x3e1df444	0.15425211
89	0xbe3af1ff	-0.18256377
90	0xbded031e	-0.1157286
91	0xbebe3ba2	-0.3715487
92	0xbe013e2a	-0.1262137
93	0xbefc47cb	-0.49273524
94	0xbe4cfaf0	-0.200176
95	0xbf4593e0	-0.77178764
96	0xbe5a41ca	-0.21314159
97	0xbeea9e39	-0.4582384
98	0xbf3e46c6	-0.7432674
99	0xbf06695b	-0.5250451
100	0xbdc878ba	-0.09788652
101	0xbea1b8b8	-0.31586242
102	0xbf067917	-0.5252852
103	0xbeffdf8b	-0.49975237
104	0xbeb07abd	-0.34468642
105	0xbf7252b3	-0.9465744
106	0x3dad467c	0.084607095
107	0xbe62682b	-0.2211005
108	0x3da24ad1	0.07924426
109	0xbf1a7b13	-0.60344046
110	0xbea8e5d4	-0.32987845
111	0x3c83caf2	0.016087983
112	0xbe897bb3	-0.26852188
113	0xbc75eed1	-0.015010552
114	0xbe8f20c8	-0.27954698
115	0xbe88c355	-0.26711527
116	0xbf05e45f	-0.5230159
117	0xbe5826b4	-0.21108514
118	0xbed38fcd	-0.4132065
119	0xbe37fac3	-0.17966752
120	0xbf22a6dd	-0.63535863
121	0xbf13f6d8	-0.5779853
122	0xbe97a762	-0.2961989
123	0xbd35e001	-0.04440308
124	0xbf14113f	-0.57838815
125	0xbd03ead2	-0.032206364
126	0xbd5a27dc	-0.05326067
127	0xbea814a8	-0.3282826
128	0xbe9542bd	-0.2915248
129	0xbe88f8ff	-0.2675247
130	0xbe4bd112	-0.19903973
131	0xbf25aea5	-0.6471961
132	0xbed22b7e	-0.41048807
133	0xbe09b1e2	-0.13446763
134	0xbe4ffa0d	-0.2031023
135	0x3c846648	0.016162053
136	0xbed48199	-0.41505125
137	0xbbd1d755	-0.0064038434
138	0xbda00c17	-0.07814806
139	0xbe0f5711	-0.13998057
140	0xbe82f8ff	-0.25580594
141	0xbdfd25b2	-0.123607054
142	0xbd3bb723	-0.04582895
143	0xbe914cb7	-0.2837884
144	0x3e31aedf	0.17351864
145	0xbf43a320	-0.76420784
146	0xbf23bc65	-0.6395934
147	0x3d8340c8	0.064088404
148	0xbf51d8b3	-0.8197128
149	0xbe68cc5f	-0.22734211
150	0xbeaa6e5b	-0.3328732
151	0xbe976e9e	-0.29576582
152	0x3d8f1a7a	0.06987472
153	0xbe1dd34c	-0.15412635
154	0xbd51a979	-0.051187012
155	0xbebeca97	-0.3726394
156	0xbd8ab2a6	-0.06772356
157	0xbf08d5c7	-0.534512
158	0xbe32e084	-0.17468458
159	0xbf38de6c	-0.7221439
160	0xbe2207ec	-0.15823334
161	0xbefaee22	-0.49009806
162	0xbf3f3096	-0.7468351
163	0xbef58073	-0.4794956
164	0xbddfa9f4	-0.10921088
165	0xbe9e63f0	-0.3093562
166	0xbee4f6bb	-0.4471949
167	0xbee8baac	-0.4545492
168	0xbeb29a72	-0.34883457
169	0xbf618756	-0.8809713
170	0x3ddfb644	0.10923436
171	0xbe412af4	-0.18864042
172	0x3cc2f7a1	0.02379972
173	0xbf1e2bb7	-0.61785454
174	0xbea45b0a	-0.32100707
175	0xbd179a6d	-0.037012506
176	0xbe757751	-0.23971297
177	0xbc248f78	-0.010043971
178	0xbe6aad81	-0.22917749
179	0xbe991da3	-0.29905424
180	0xbefa1fc3	-0.48852357
181	0xbe4457bf	-0.19174097
182	0xbeca4d17	-0.3951194
183	0xbdf73bea	-0.120719746
184	0xbf2308ab	-0.636851
185	0xbf135c1d	-0.5756243
186	0xbe8443ff	-0.25833127
187	0xbbe2f2ec	-0.006925931
188	0xbf1bd629	-0.6087366
189	0xbdacd56e	-0.08439146
190	0xbe04a610	-0.12953973
191	0xbe88df5b	-0.26732907
192	0xbeb1c8cb	-0.34723505
193	0xbe80456e	-0.2505297
194	0xbe494dea	-0.19658628
195	0xbf17478b	-0.5909354
196	0xbef35221	-0.47523597
197	0xbdc6545c	-0.09684059
198	0xbdcca4e1	-0.09992386
199	0x3d1c10b1	0.038101856
200	0xbecdb413	-0.40176448
201	0xbc64c391	-0.013962642
202	0xbdb7571a	-0.0895216
203	0xbdf84450	-0.121224046
204	0xbe791662	-0.24324945
205	0xbd85cc45	-0.06533102
206	0xbd5e2fef	-0.05424493
207	0xbe98cb39	-0.29842547
208	0x3e3337b1	0.17501713
209	0xbf436dbf	-0.76339334
210	0xbf188f0a	-0.5959326
211	0x3d8d2e38	0.06893581
212	0xbf55fc5d	-0.835882
213	0xbe637027	-0.22210751
214	0xbebdb8ce	-0.37055057
215	0xbe930ca9	-0.28720596
216	0x3c3ab0f3	0.011394727
217	0xbe146f86	-0.14495668
218	0xbcb57de1	-0.02215475
219	0xbecc9914	-0.3996054
220	0xbd09aa5c	-0.033609733
221	0xbef637f2	-0.48089558
222	0xbe123dee	-0.14281437
223	0xbf3a0c79	-0.7267528
224	0xbdd5a6c4	-0.10432199
225	0xbef904c1	-0.4863644
226	0xbf3d6bee	-0.7399281
227	0xbed6d3ce	-0.4195847
228	0xbdfc07da	-0.12306185
229	0xbea59757	-0.32342026
230	0xbed66896	-0.41876668
231	0xbecd79f3	-0.40132102
232	0xbea47df7	-0.32127354
233	0xbf5875ca	-0.8455473
234	0x3e0686eb	0.13137405
235	0xbe113057	-0.14178596
236	0x3d97e972	0.07417573
237	0xbf26bb1e	-0.6512927
238	0xbe93754a	-0.28800422
239	0xbdc0e229	-0.094181366
240	0xbe4ed17c	-0.201971
241	0x3d22f54b	0.03978471
242	0xbe371e36	-0.17882618
243	0xbe9cb5d2	-0.30607468
244	0xbeece85f	-0.46271035
245	0xbe1bb870	-0.15207076
246	0xbecf0dda	-0.40440255
247	0xbd7e7de5	-0.06213178
248	0xbf1ef7e3	-0.62096995
249	0xbf106aa3	-0.56412715
250	0xbe79a159	-0.24377955
251	0xbc1222e7	-0.008919454
252	0xbf13d9a5	-0.57753974
253	0xbe1c0c16	-0.15238985
254	0xbe296a0d	-0.16544361
255	0xbe7b6485	-0.24550064

out_net.2.bias f4 [51]
0	0xbf62c48f	-0.88581175
1	0xbf7315ad	-0.9495495
2	0xbf801cfa	-1.0008843
3	0xbf5e5b9e	-0.86858547
4	0xbf4ee906	-0.80824316
5	0xbf43d534	-0.764972
6	0xbf437d0e	-0.76362693
7	0xbf528808	-0.8223882
8	0xbf4c0b4c	-0.7970474
9	0xbf44006a	-0.7656313
10	0xbf3384cc	-0.70124507
11	0xbf3d1cda	-0.7387215
12	0xbf2d9afc	-0.6781461
13	0xbf1f51dd	-0.6223429
14	0xbf204879	-0.62610584
15	0xbf28cb88	-0.65935564
16	0xbf3abaa9	-0.7294107
17	0xbf40a3dc	-0.7525003
18	0xbf4065f9	-0.751556
19	0xbf43e238	-0.7651706
20	0xbf34b981	-0.70595556
21	0xbf0fa210	-0.5610666
22	0xbee562af	-0.44801852
23	0xbea6d985	-0.3258783
24	0xbe4bd211	-0.19904353
25	0x3e3a7db8	0.1821202
26	0x3d20096e	0.039071493
27	0x3cfe4450	0.031038433
28	0x3db77405	0.08957676
29	0x3cf27751	0.02959791
30	0x3db3948f	0.0876857
31	0x3d83e3f9	0.06439967
32	0x3d78c321	0.060732964
33	0xbd2bd807	-0.041954067
34	0xbe153874	-0.14572316
35	0xbe98b4e7	-0.29825518
36	0xbf600269	-0.8750368
37	0xbf604516	-0.87605417
38	0xbf4c8804	-0.79895043
39	0xbf4a94ce	-0.7913331
40	0xbf4794fe	-0.7796172
41	0xbf4b043a	-0.79303324
42	0xbf4c9f0d	-0.7993019
43	0xbf4c4260	-0.7978878
44	0xbf45ff7a	-0.7734295
45	0xbf4492df	-0.7678661
46	0xbf5010a9	-0.8127542
47	0xbf4c936e	-0.7991246
48	0xbf5bdd3e	-0.85884464
49	0xbf6850ea	-0.90748465
50	0xbf835eb8	-1.0263281
