p2-continuous-control/checkpoint/ddpg_actor_checkpoint.pth (torch_old, 52397 bytes, 6 tensors)

fc1.weight f4 [128, 33]
0.047804557 0.114874706 0.043495532 0.0020457339 0.07583494 -0.045913495 -0.05779304 0.059912387
-0.06985631 -0.0021012558 0.05616435 0.071165726 -0.0050780564 0.078530274 0.045960493 0.012567259
0.011347927 0.036338188 -0.05033774 -0.06262432 0.061669573 0.07711368 -0.02105608 -0.10073572
0.054965556 0.065777466 0.0688313 -0.12135575 0.03703547 0.0032196417 0.06487785 -0.023139134
-0.13446744 0.018487062 0.0066862754 -0.058669604 0.052214332 -0.069799505 0.044714253 -0.05574674
0.028669534 -0.088173434 -0.0012243962 0.07497409 0.01791096 0.030959548 -0.00044016412 -0.07293719
-0.069964275 0.12485749 -0.07076786 0.048241585 0.063274294 0.06548219 -0.035127256 -0.014870251
0.08289227 -0.025371796 -0.12407323 -0.0969556 -0.005545123 -0.09975937 0.08055519 0.008854714
0.040836267 -0.0058622095 0.008772847 0.08263266 0.047533758 -0.09265141 -0.08127631 0.039589312
-0.08888497 0.030762827 -0.07130603 0.03645283 -0.11655462 0.030018222 0.047020867 -0.03204244
0.025609793 0.089234665 -0.03939757 -0.050459344 -0.0013434766 -0.07733472 0.11768029 -0.0249307
-0.00871896 -0.06325657 -0.053264502 0.1233098 0.09925422 -0.085999176 0.037263602 0.051420353
0.07530936 -0.064868376 -0.08829898 0.04005566 0.031034123 -0.015962211 0.04327128 0.045838863
0.0022950496 -0.048036516 -0.04179063 -0.090309724 -0.06524299 0.0070699346 0.034807716 0.018262435
-0.045392286 0.12645483 0.024192482 -0.065045886 0.06709194 -0.067392476 0.09623852 -0.0058390987
0.0036352077 -3.7348389e-07 -0.015428096 -0.05660756 0.031625897 -0.08631297 0.07529086 0.06786023
-0.029745243 -0.0027017007 0.045182966 0.07217661 -0.10130229 -0.0119251525 0.037679225 0.077547446
0.05190615 -0.08738175 0.00709615 0.0043648407 -0.09218235 -0.061112303 -0.095051244 -0.08868528
0.042809557 -0.03986113 -0.079266995 0.06847382 0.08280327 0.019585256 0.036342837 -0.018168341
-0.036203973 -0.016477559 -0.022226414 0.028600996 -0.05967059 -0.019809859 -0.06878763 0.053758275
-0.022165954 -0.07832409 0.07045373 -0.078249566 0.032589257 -0.04204687 -0.107695565 -0.015867887
-0.010950846 0.039331634 -0.028903717 -0.07563347 0.10930431 -0.07021589 -0.043562207 -0.040798455
-0.10270066 0.054989938 -0.104596205 -0.08899295 -0.02889435 0.0030701032 0.047373258 0.061513726
-0.08902919 -0.0053864275 0.038040467 0.0427961 0.0660327 -0.07668097 0.049292646 -0.10999945
-0.024891112 -0.08137577 -0.08661036 -0.020540234 -0.04750171 0.013218794 0.076463446 0.0574871
-0.03348732 0.084933594 0.03352501 -0.05974972 -0.045777578 0.096750066 -0.118411556 -0.025764048
0.058121923 0.059962653 -0.03610366 0.05125874 -0.091873065 0.019887784 0.008181652 0.0046781073
-0.03059962 -0.096728705 0.013703746 -0.06831369 0.06135854 0.008873406 0.11516608 0.041709367
0.016361494 -0.012543487 0.06499612 0.05360212 0.0020569263 -0.025245823 -0.09567081 0.044670686
-0.033423807 -0.06929105 0.07394955 -0.019339478 0.08975075 -0.11704811 0.035866134 -0.0009231653
0.10791713 0.10004152 0.043853123 -0.10671683 0.09466161 -0.12546849 -0.067457244 -0.0032115097
-0.0027863549 0.05086991 0.0028135562 0.13905294 0.062328104 -0.013185601 0.09850283 0.1031691
00000000: b6ce 433d 6e43 eb3d 5f28 323d b811 063b
00000010: 594f 9b3d ca0f 3cbd 65b8 6cbd b166 753d
00000020: d310 8fbd 39b5 09bb 970c 663d 56bf 913d
00000030: d365 a6bb 7bd4 a03d 1241 3c3d e8e6 4d3c
00000040: a8ec 393c 5ad7 143d f22e 4ebd 2e41 80bd
00000050: 3c99 7c3d c7ed 9d3d cd7d acbc 874e cebd
00000060: 9023 613d 56b6 863d 6df7 8c3d 5d89 f8bd
00000070: 81b2 173d a000 533b aede 843d 488e bdbc
00000080: d5b1 09be 2e72 973c 8b18 db3b 8a4f 70bd
00000090: b2de 553d 0bf3 8ebd 4b26 373d b256 64bd
000000a0: 5fdc ea3c 4694 b4bd eb7b a0ba 048c 993d
000000b0: 01ba 923c e19e fd3c d4c5 e6b9 1860 95bd
000000c0: 6e49 8fbd 49b5 ff3d bdee 90bd f898 453d
000000d0: f495 813d 871b 863d 99e1 0fbd 5aa2 73bc
000000e0: 6cc3 a93d 83d8 cfbc 1b1a febd a890 c6bd
000000f0: ddb3 b5bb a44e ccbd 1ffa a43d 5d13 113c
00000100: ee43 273d c717 c0bb fdbb 0f3c 503b a93d
00000110: c2b2 423d 06c0 bdbd 3274 a6bd 6728 223d
00000120: 5309 b6bd 5302 fc3c e508 92bd 904f 153d
00000130: 30b4 eebd c6e8 f53c f498 403d ef3e 03bd
00000140: a1cb d13c aac0 b63d 595f 21bd 75ae 4ebd
00000150: 9817 b0ba aa61 9ebd 5d02 f13d 783b ccbc
00000160: f8d9 0ebc a98c 81bd e12b 5abd d989 fc3d
00000170: cc45 cb3d 5620 b0bd b8a1 183d 269e 523d
00000180: cb3b 9a3d b6d9 84bd 18d6 b4bd 6711 243d
00000190: 463b fe3c 2fc3 82bc 3a3d 313d 88c1 3b3d
000001a0: 8b68 163b f0c1 44bd a72c 2bbd 4ef4 b8bd
000001b0: 1e9e 85bd e9aa e73b 8992 0e3d 1a9b 953c
000001c0: 43ed 39bd 607d 013e 502f c63c c736 85bd
000001d0: 8067 893d 1105 8abd b418 c53d e955 bfbb
000001e0: aa3c 6e3b 3c83 c8b4 20c6 7cbc 54dd 67bd
000001f0: 288a 013d dbc4 b0bd 1832 9a3d 4efa 8a3d
00000200: 4cac f3bc 040f 31bb c611 393d 55d1 933d
00000210: 9377 cfbd b761 43bc 8855 1a3d 32d1 9e3d
00000220: 8b9b 543d 34f5 b2bd d286 e83b f006 8f3b
00000230: 1aca bcbd e550 7abd 3aaa c2bd a1a0 b5bd
00000240: 1359 2f3d 6d45 23bd bc56 a2bd 013c 8c3d
00000250: c394 a93d 4271 a03c 3adc 143d c6d5 94bc
00000260: 9e4a 14bd f2fb 86bc 2b14 b6bc a34c ea3c
00000270: 2669 74bd 4948 a2bc 87e0 8cbd a331 5c3d
00000280: 6095 b5bc 6168 a0bd 0c4a 903d 4f41 a0bd
00000290: 507c 053d 5739 2cbd 7e8f dcbd 5ffd 81bc
000002a0: 2d6b 33bc 351a 213d 7dc7 ecbc b9e5 9abd
000002b0: f0da df3d 59cd 8fbd 496e 32bd 481c 27bd
000002c0: b954 d2bd 213d 613d 8936 d6bd f041 b6bd
000002d0: d8b3 ecbc c933 493b 760a 423d d1f5 7b3d
000002e0: f054 b6bd a180 b0bb 52d0 1b3d f74a 2f3d
000002f0: 273c 873d ea0a 9dbd 16e7 493d 6447 e1bd
00000300: 72e8 cbbc 57a8 a6bd c660 b1bd fe43 a8bc
00000310: 2791 42bd a493 583c de98 9c3d 9877 6b3d
00000320: 002a 09bd aaf1 ad3d 8551 093d 1fbc 74bd
00000330: 4581 3bbd e624 c63d c281 f2bd 200f d3bc
00000340: 4111 6e3d 669b 753d 6ee1 13bd aff4 513d
00000350: f227 bcbd b5eb a23c 560c 063c cf4a 993b
00000360: 0eac fabc b319 c6bd ad85 603c 0ce8 8bbd
00000370: 1853 7b3d c361 113c 32dc eb3d 71d7 2a3d
00000380: 8a08 863c 3383 4dbc b01c 853d e68d 5b3d
00000390: 7fcd 063b 54d0 cebc 0fef c3bd 9cf8 363d
000003a0: 67e7 08bd 77e8 8dbd dd72 973d d36d 9ebc
000003b0: 3ecf b73d ebb6 efbd 5ee8 123d 9300 72ba
000003c0: a803 dd3d 92e2 cc3d 559f 333d 5a8e dabd
000003d0: f2dd c13d d07a 00be 0627 8abd 3178 52bb
000003e0: 479b 36bb f75c 503d a463 383b e563 0e3e
000003f0: c14b 7f3d 6b08 58bc dabb c93d 524a d33d

fc1.bias f4 [128]
0.17421284 0.081118405 0.0951988 -0.094910875 0.043553863 0.14834158 0.08421075 0.14268333
0.20978971 0.036691353 0.10738741 0.05147805 -0.1054898 0.08888345 0.079466335 0.102299325
0.12014708 -0.08653736 -0.061190665 0.17381226 -0.021360792 0.15280563 0.106543005 0.14959185
0.0048300885 0.17051601 -0.06037172 0.058322255 0.13072531 0.04823465 -0.16705368 -0.09292125
-0.009728914 0.14041643 0.07451985 -0.027383618 -0.08677283 0.12983467 0.19477893 0.1275155
0.17303021 0.21632741 0.11922257 0.20183514 0.0070890477 -0.12947011 -0.084878 -0.07442717
0.21541907 0.16329806 -0.04155089 0.20508276 0.0663657 0.12530777 0.023286955 0.0852429
0.07240882 0.056468584 0.1646071 -0.097154245 0.2234294 0.14659208 0.11244999 0.13339147
0.06710156 -0.14422524 0.18695481 0.09942973 0.10734493 -0.10025002 0.19399598 -0.10150261
-0.022067199 0.020239804 0.20742296 0.17725037 0.11066561 0.00048104217 0.19451252 -0.098242804
-0.07744456 0.14373955 -0.13200648 0.12018617 0.02720731 -0.094404556 0.12283271 0.030676158
0.17581142 -0.027225621 0.20415948 0.13078588 0.10819283 -0.029938033 0.15925063 0.15256695
0.11603201 0.00967506 -0.013318537 0.20295498 0.08921213 0.056100827 -0.125584 0.11214034
-0.08544464 -0.08028862 0.22491312 0.10645806 -0.09864577 -0.055758845 0.063490845 0.18257497
0.044125546 -0.040333945 0.0885299 -0.0718497 0.07735972 0.09094516 -0.11045714 0.07603301
0.021262314 0.07179344 -0.013731367 -0.07049171 -0.013877927 0.12370266 -0.111747324 -0.0149765005
00000000: da64 323e 6821 a63d 97f7 c23d a260 c2bd
00000010: 8965 323d dbe6 173e b076 ac3d 941b 123e
00000020: 1dd3 563e ac49 163d eeed db3d a6da 523d
00000030: 090b d8bd 8708 b63d 3fbf a23d 4f82 d13d
00000040: ac0f f63d 803a b1bd 10a3 7abd d7fb 313e
00000050: d4fc aebc 1479 1c3e 3833 da3d 9b2e 193e
00000060: b845 9e3b c09b 2e3e 5648 77bd 51e3 6e3d
00000070: dbdc 053e b291 453d 1f10 2bbe 7f4d bebd
00000080: 0666 1fbc 53c9 0f3e dd9d 983d 9c53 e0bc
00000090: f4b5 b1bd 61f3 043e 2174 473e 6c93 023e
000000a0: d52e 313e ef84 5d3e f62a f43d dfad 4e3e
000000b0: 3e4b e83b d093 04be 84d4 adbd 466d 98bd
000000c0: d196 5c3e 9b37 273e 4431 2abd 3701 523e
000000d0: bdea 873d ae50 003e 49c4 be3c d493 ae3d
000000e0: 134b 943d 9a4b 673d c38e 283e cef8 c6bd
000000f0: adca 643e 3c1c 163e 2e4c e63d c697 083e
00000100: 8b6c 893d c8af 13be 1571 3f3e d0a1 cb3d
00000110: a9d7 db3d e24f cdbd e2a6 463e 9ae0 cfbd
00000120: 45c6 b4bc f2cd a53c af66 543e 1f81 353e
00000130: a7a4 e23d 6334 fc39 4a2e 473e 8633 c9bd
00000140: 419b 9ebd 7630 133e b52c 07be 2b24 f63d
00000150: dde1 de3c 2d57 c1bd b78f fb3d 914c fb3c
00000160: e907 343e 4408 dfbc 2f0f 513e bcec 053e
00000170: 3494 dd3d 9b40 f5bc 9912 233e 833a 1c3e
00000180: 31a2 ed3d 2584 1e3c fe35 5abc 6ed3 4f3e
00000190: d9b4 b63d fbc9 653d 1899 00be d6a9 e53d
000001a0: 99fd aebd 5c6e a4bd a04f 663e af06 da3d
000001b0: cb06 cabd 6363 64bd 7d07 823d eff4 3a3e
000001c0: fdbc 343d 3535 25bd 2a4f b53d ef25 93bd
000001d0: c66e 9e3d 7541 ba3d 5a37 e2bd 32b7 9b3d
000001e0: 4e2e ae3c 7008 933d 87f9 60bc f55d 90bd
000001f0: 3f60 63bc d257 fd3d c8db e4bd ff5f 75bc

fc2.weight f4 [64, 128]
-0.10653897 0.13411386 -0.0370062 0.14731267 -0.0776658 -0.02849933 0.09382824 0.033813197
0.02819925 0.057930425 -0.09659215 0.08155519 -0.088435 0.050845195 -0.060838237 0.052867807
-0.07443476 0.048805516 -0.088556126 -0.03611239 -0.04291627 -0.03932073 0.14528745 0.03288646
0.13870467 0.09759137 0.111554176 -0.030565968 0.06946209 -0.060938004 -0.008824364 -0.069787666
0.021949476 -0.06281291 0.09414564 -0.13122642 0.040455792 0.1393779 -0.101583846 -0.024118291
-0.033613224 0.07258342 0.11745073 0.045663234 -0.029010115 0.098836884 0.069846146 -0.05888058
0.18042386 -0.019081958 0.019640421 -0.07039299 -0.003011398 -0.04648678 0.050622378 -0.046634454
0.12980911 -0.056221362 0.08241227 0.09489916 0.050237093 0.07648427 0.011997296 0.017038435
0.0057040993 0.05502882 0.11184668 0.025412919 0.014914483 -0.08035038 0.009204784 -0.04832567
0.012136844 0.011134478 0.03351307 -0.06733156 0.1107081 0.10442266 -0.02102723 -0.08281125
-0.08537832 0.0097824745 0.16099261 0.07594803 0.012507229 -0.06953914 0.08780063 -0.08589559
0.044218447 -0.041841734 0.038409416 -0.08483305 0.059915133 -0.019337736 0.015305595 0.10514462
0.0053024194 0.045156173 0.05970736 0.1252591 0.10653249 0.055290036 -0.013833187 -0.073903754
0.003410543 0.12598632 0.07144922 0.08609065 0.18074416 0.095355526 0.032136377 0.083720796
-0.022888098 -0.09007375 0.14428045 0.011207826 -0.042298287 0.12180553 0.0113437055 0.0036118124
0.013791378 0.029059656 -0.076683134 0.1041363 -0.015745914 -0.019397648 0.13226756 0.028039942
-0.08225712 -0.015600575 -0.037202388 0.00883932 0.10996086 0.12518828 -0.04396486 -0.03454285
-0.09607468 -0.03826841 0.043970227 0.007381671 0.0042612953 0.14592339 -0.08149484 0.13848032
0.056363113 0.14525117 0.13986441 -0.014300705 0.009962714 0.07153317 -0.0732605 -0.08731993
0.10446301 -0.036744542 0.043464825 0.13949299 -0.11173812 0.123606175 -0.07755727 0.01845353
0.13857584 0.119597346 -0.09823091 -0.03790733 0.06521342 -0.04555173 -0.033947583 0.089812666
0.08100624 -0.08245126 -0.088547446 0.016955642 0.019418783 -0.007830933 0.13336506 -0.100549415
0.1587496 0.093965575 -0.054685153 0.04036103 0.02381878 0.11921073 -0.052294966 -0.029850155
0.13297564 0.025197646 0.05939303 -0.0045141056 -0.09891323 -0.03877136 -0.094659716 0.072465606
-0.015770467 0.001237797 0.111554295 0.06902509 0.03632489 0.03204425 0.12685888 -0.064430416
-0.031536434 0.081652835 -0.07419699 0.0061713704 -0.08927908 0.065801315 -0.04659756 -0.048787564
0.06837406 0.067853756 0.07707698 -0.0367229 -0.073283195 -0.019522842 0.062189363 0.13840708
-0.03628484 0.11910904 -0.005950892 0.09340158 -0.049600556 0.13162842 0.08883791 0.04605765
-0.102591634 -0.017419785 0.13597377 -0.053884525 0.04514532 0.085489586 -0.003231183 -0.07580026
0.02455405 0.037711505 0.12754886 -0.06967664 -0.02057684 0.11507155 0.055562034 0.07177137
0.08957056 -0.0016090779 -0.015719464 -0.115307204 0.08319268 0.122970164 0.050772693 0.11691725
-0.08965562 0.12036821 0.12211881 0.012077963 -0.00915406 0.0034483483 0.080056995 0.13693947
00000000: 1a31 dabd 2555 093e d093 17bd 22d9 163e
00000010: 3f0f 9fbd 6d77 e9bc 0529 c03d b57f 0a3d
00000020: 1d02 e73c 7448 6d3d 1bd2 c5bd 6806 a73d
00000030: 691d b5bd 0d43 503d 8431 79bd ea8b 583d
00000040: 4071 98bd 4be8 473d ea5c b5bd 96ea 13bd
00000050: f9c8 2fbd c60e 21bd 3cc6 143e f4b3 063d
00000060: 9908 0e3e fcdd c73d 8476 e43d 7b65 fabc
00000070: 2442 8e3d 219a 79bd 1194 10bc d6ec 8ebd
00000080: 63cf b33c 0ea4 80bd 6ecf c03d 3860 06be
00000090: f9b4 253d 15b9 0e3e 310b d0bd b993 c5bc
000000a0: 05ae 09bd 9ea6 943d 028a f03d 5f09 3b3d
000000b0: 9fa6 edbc fe6a ca3d 7f0b 8f3d c32c 71bd
000000c0: 08c1 383e c451 9cbc f3e4 a03c 332a 90bd
000000d0: e05a 45bb ec68 3ebd 6959 4f3d c503 3fbd
000000e0: aeec 043e 5f48 66bd c4c7 a83d 7e5a c23d
000000f0: 69c5 4d3d c9a3 9c3d 4e90 443c 3094 8b3c
00000100: 74e9 ba3b e665 613d df0f e53d c12e d03c
00000110: e05b 743c bd8e a4bd aacf 163c 23f1 45bd
00000120: 9dd9 463c 636d 363c 0045 093d 21e5 89bd
00000130: eeba e23d 8cdb d53d 4c41 acbc f298 a9bd
00000140: d4da aebd ac46 203c 3fdb 243e a48a 9b3d
00000150: 1feb 4c3c 896a 8ebd d1d0 b33d 07ea afbd
00000160: 671e 353d 3d62 2bbd 3153 1d3d f3bc adbd
00000170: 9269 753d 2c6a 9ebc 51c4 7a3c 1056 d73d
00000180: ebbf ad3b aef5 383d b48f 743d ec43 003e
00000190: b52d da3d ce77 623d 97a4 62bc da5a 97bd
000001a0: 6b83 5f3b 8f02 013e f853 923d 4b50 b03d
000001b0: ff14 393e c249 c33d 6fa1 033d cf75 ab3d
000001c0: d27f bbbc 9678 b8bd 41be 133e 08a1 373c
000001d0: f840 2dbd 2d75 f93d f3da 393c 28b4 6c3b
000001e0: 3bf5 613c 840e ee3c 0c0c 9dbd 6a45 d53d
000001f0: 93fd 80bc d1e7 9ebc 2671 073e 05b4 e53c
00000200: 6c76 a8bd 8e99 7fbc 8861 18bd ccd2 103c
00000210: 2933 e13d 5b31 003e 7f14 34bd ce7c 0dbd
00000220: cdc2 c4bd 56bf 1cbd 201a 343d f2e1 f13b
00000230: 56a2 8b3b f16c 153e c4e6 a6bd c9cd 0d3e
00000240: 02dd 663d b9bc 143e 9e38 0f3e 814d 6abc
00000250: a73a 233c fc7f 923d 9a09 96bd cbd4 b2bd
00000260: b4f0 d53d 7281 16bd 2c08 323d 40d7 0e3e
00000270: f5d6 e4bd 3c25 fd3d 59d6 9ebd db2b 973c
00000280: d3e6 0d3e 74ef f43d 4a2d c9bd b744 1bbd
00000290: 9d8e 853d 7394 3abd 9f0c 0bbd b4ef b73d
000002a0: 99e6 a53d 35dc a8bd 5d58 b5bd 8fe6 8a3c
000002b0: 2414 9f3c 504d 00bc da90 083e daec cdbd
000002c0: 418f 223e 0671 c03d 8afd 5fbd 9b51 253d
000002d0: 9a1f c33c c124 f43d 3f33 56bd 5088 f4bc
000002e0: c42a 083e 4b6b ce3c 1b46 733d 10eb 93bb
000002f0: 0593 cabd b8ce 1ebd f4dc c1bd d968 943d
00000300: 1131 81bc 933d a23a 9476 e43d 075d 8d3d
00000310: 68c9 143d d540 033d 4be7 013e 18f4 83bd
00000320: 592c 01bd 9a39 a73d 97f4 97bd 3539 ca3b
00000330: f3d7 b6bd d7c2 863d 15dd 3ebd 78d5 47bd
00000340: b307 8c3d e9f6 8a3d 89da 9d3d c06a 16bd
00000350: 8015 96bd 5eee 9fbc 46ba 7e3d 96ba 0d3e
00000360: 6a9f 14bd 71ef f33d b3ff c2bb 5449 bf3d
00000370: f429 4bbd 9ac9 063e a6f0 b53d f2a6 3c3d
00000380: 901b d2bd f0b3 8ebc b53c 0b3e 05b6 5cbd
00000390: 4dea 383d 2a15 af3d 41c2 53bb 2b3d 9bbd
000003a0: 9325 c93c 6177 1a3d 2b9c 023e a0b2 8ebd
000003b0: c390 a8bc a2aa eb3d 0495 633d defc 923d
000003c0: c570 b73d b2e7 d2ba 1bc6 80bc 2f26 ecbd
000003d0: ec60 aa3d c8d7 fb3d 07f7 4f3d 5072 ef3d
000003e0: 5e9d b7bd 9c83 f63d 6d19 fa3d a6e2 453c
000003f0: e9fa 15bc affd 613b ecf4 a33d dc39 0c3e

fc2.bias f4 [64]
0.12008586 0.0041444777 -0.029956881 0.121208906 -0.046304487 0.032834534 0.059017677 0.062251654
0.10431135 0.046492167 0.020962352 0.063341714 0.0506794 0.00339192 -0.01513157 0.024275826
0.024339473 -0.03368976 0.0845951 0.030701945 0.08713376 0.08701436 -0.019463064 0.03685302
-0.052506838 -0.03440315 0.08241432 -0.011096224 0.028081983 -0.030382847 0.03201245 0.02196923
0.13812424 -0.01643259 0.11253659 -0.028985234 -0.0028985534 -0.022389997 0.10415019 0.117314465
-0.025296196 0.07102692 0.05814153 0.033223096 0.06407176 0.12422314 -0.061730716 -0.04618433
0.07926084 0.08856721 0.14076379 0.010295509 0.010219111 0.09050971 0.0053198375 -0.045013275
0.08293537 -0.0017306077 -0.0061687105 0.12373712 0.10144312 -0.021006465 -0.02185499 -0.006027162
00000000: 93ef f53d 66ce 873b 2268 f5bc 603c f83d
00000010: c6a9 3dbd 817d 063d 85bc 713d 97fb 7e3d
00000020: 30a1 d53d 926e 3e3d 3db9 ab3c 4db9 813d
00000030: 3495 4f3d f94a 5e3b 68ea 77bc 19de c63c
00000040: 9363 c73c 46fe 09bd 3240 ad3d a582 fb3c
00000050: 2f73 b23d 9634 b23d 0171 9fbc 31f3 163d
00000060: 6911 57bd 51ea 0cbd d7c8 a83d f0cc 35bc
00000070: 300c e63c 73e5 f8bc 7d1f 033d d1f8 b33c
00000080: 7170 0d3e a49d 86bc 9579 e63d 7172 edbc
00000090: a8f5 3dbb 3a6b b7bc b24c d53d 9142 f03d
000000a0: f839 cfbc 9076 913d d025 6e3d f114 083d
000000b0: 0e38 833d b468 fe3d 59d9 7cbd c82b 3dbd
000000c0: 8253 a23d ba62 b53d 6224 103e 7fae 283c
000000d0: 0f6e 273c 285d b93d 0852 ae3b d75f 38bd
000000e0: 05da a93d 8fd5 e2ba e522 cabb e369 fd3d
000000f0: 69c1 cf3d c015 acbc 3c09 b3bc 807f c5bb

fc3.weight f4 [4, 64]
0.020473104 0.02027713 0.030545434 0.023044951 0.026260825 0.026183939 0.017955113 0.016886646
0.015620804 0.13472533 0.024589254 0.06405316 0.02411342 0.024007542 0.04716106 0.020097755
0.023773745 0.023295654 0.027753755 0.025473973 0.02645335 0.030948576 0.016447691 0.024212163
0.017552845 0.027490368 0.022131275 0.019789381 0.03981468 0.017366555 0.0119737955 0.02219809
0.030899515 0.025761846 0.023250533 0.019531589 0.032738734 0.017416187 0.040924706 0.034500696
0.029570198 -0.0020820773 0.04162445 0.025096076 0.026703002 0.016048798 0.019231355 0.02911044
0.018052744 0.018136038 0.038223445 0.017794993 0.019724367 0.022351304 0.01854579 0.023092715
0.017124636 0.028932698 0.028796537 0.017193053 0.017857758 0.02192954 0.022380237 0.015551394
-0.04019222 -0.031459227 -0.0014115794 0.0031862631 0.0044042487 -0.029316165 -0.025807867 -0.041001942
-0.024029214 -0.15227105 0.004889463 -0.024105377 -0.04790455 -0.04662879 0.007888535 -0.020510294
-0.040486928 -0.0035742524 -0.039256647 0.0046023154 -0.023356069 -0.044569153 -0.028040301 -0.03692462
0.007890386 0.0036994868 -0.025527885 -0.03217639 -0.05619963 -0.027266612 -0.029488323 -0.022992957
-0.06144349 0.0009848126 0.0009022728 -0.028200312 -0.013179243 -0.029247226 -0.026540637 -0.0019209498
-0.0649542 0.0002256514 0.0056591216 4.8905702e-05 0.0054034754 -0.033129007 0.029575225 -0.045764327
-0.034177672 -0.03440301 -0.0006800476 -0.045727268 -0.024864743 0.0023761918 -0.04819721 -0.038011335
-0.026789185 0.009604014 -0.055781193 -0.06910248 -0.0776013 0.0030619728 -0.00015333838 -0.032638792
0.0029787335 -0.0018241627 0.05734086 0.03567989 0.03836938 0.0011707713 0.0017617436 0.002364019
0.0048302347 0.019396625 0.04188915 -0.031473573 0.012043617 0.011169607 0.062445827 -0.010531645
0.0049186735 0.04602478 0.0016465726 0.042305235 0.05818356 0.00077528605 -8.410655e-05 0.003533791
0.034297444 0.04555576 -0.0035182734 -0.0012065402 -0.005170358 -0.0047278847 0.004062258 0.044624634
0.0076390845 0.05663202 0.025324402 -0.003423899 0.062156286 -0.0002762152 0.048624534 0.073018156
0.005370328 0.016404299 0.058009036 0.032838263 0.051980373 0.003171573 -0.010599224 -0.0031324073
0.019258352 -0.0010702427 0.07633557 0.0035043329 -0.007419233 0.04460853 0.029180514 0.0026068254
-0.006695301 0.03984205 0.02145054 0.017692307 0.02880732 0.059452564 0.053118646 -0.0032163581
0.023605224 0.020103091 0.028401425 0.0191298 0.022226928 0.022793395 0.01816773 0.013990607
0.018454848 0.16527358 0.023924306 0.055355124 0.02505935 0.019623294 0.04491071 0.021697046
0.02382522 0.021576934 0.025330596 0.024906488 0.020781837 0.031236522 0.016263908 0.019823141
0.019707398 0.022366783 0.02121066 0.020486668 0.038943414 0.020138174 0.01773817 0.022759035
0.033612702 0.02795564 0.027253056 0.011644167 0.02665311 0.019798275 0.025843028 0.032732543
0.020337231 -0.00038087435 0.02676359 0.023478782 0.02633226 0.019117113 0.016773874 0.028198758
0.0177028 0.018601391 0.035337143 0.020624442 0.015510992 0.019101417 0.023549303 0.016801244
0.016193204 0.025694843 0.022374477 0.02026243 0.013601287 0.033822145 0.022579039 0.015627708
00000000: 36b7 a73c 391c a63c 6b3a fa3c c4c8 bc3c
00000010: f120 d73c b37f d63c 9a16 933c dd55 8a3c
00000020: 67ee 7f3c 70f5 093e 676f c93c 4e2e 833d
00000030: 8289 c53c 77ab c43c f52b 413d 0ca4 a43c
00000040: 28c1 c23c 87d6 be3c d85b e33c cbae d03c
00000050: b2b4 d83c de87 fd3c 4fbd 863c 9658 c63c
00000060: fcca 8f3c 7b33 e13c a64c b53c 571d a23c
00000070: b814 233d 4e44 8e3c bd2d 443c c5d8 b53c
00000080: fb20 fd3c 820a d33c e777 be3c b600 a03c
00000090: 0d19 063d 64ac 8e3c aaa0 273d 9a50 0d3d
000000a0: 333d f23c 7673 08bb 667e 2a3d 4996 cd3c
000000b0: 41c0 da3c c578 833c 138b 9d3c 0479 ee3c
000000c0: 59e3 933c 0792 943c 3090 1c3d cec6 913c
000000d0: ff94 a13c 151a b73c 57ed 973c ef2c bd3c
000000e0: f748 8c3c 4404 ed3c b7e6 eb3c 72d8 8c3c
000000f0: 6f4a 923c 94a5 b33c c256 b73c 46cb 7e3c
00000100: 99a0 24bd 64db 00bd bf04 b9ba a0d0 503b
00000110: 8451 903b 7428 f0bc 056b d3bc a7f1 27bd
00000120: ead8 c4bc f1ec 1bbe ca37 a03b a478 c5bc
00000130: 9037 44bd d5fd 3ebd ea3e 013c 3405 a8bc
00000140: 9fd5 25bd 013e 6abb 94cb 20bd 05cf 963b
00000150: 3a55 bfbc 258e 36bd c6b4 e5bc 453e 17bd
00000160: ad46 013c 1773 723b db1f d1bc 64cb 03bd
00000170: 9531 66bd 3b5e dfbc 7f91 f1bc ba5b bcbc
00000180: 2bac 7bbd d414 813a 8186 6c3a 5704 e7bc
00000190: c0ed 57bc e197 efbc c06b d9bc 61c8 fbba
000001a0: b506 85bd d69c 6c39 2770 b93b 1920 4d38
000001b0: a30f b13b 48b2 07bd be47 f23c 6073 3bbd
000001c0: e3fd 0bbd 2cea 0cbd 3945 32ba 844c 3bbd
000001d0: 25b1 cbbc e2b9 1b3b 706a 45bd c6b1 1bbd
000001e0: fe74 dbbc 285a 1d3c d27a 64bd 9a85 8dbd
000001f0: 6eed 9ebd 61ab 483b 75c9 20b9 41b0 05bd
00000200: db36 433b be18 efba 40de 6a3d 1425 123d
00000210: 3629 1d3d 9174 993a 4eea e63a a8ed 1a3b
00000220: f246 9e3b ace5 9e3c f593 2b3d 6fea 00bd
00000230: 9752 453c ba00 373c 32c7 7f3d ec8c 2cbc
00000240: d32c a13b 7b84 3c3d cfd1 d73a 4148 2d3d
00000250: e251 6e3d 913c 4b3a 5c62 b0b8 2d97 673b
00000260: 7a7b 0c3d ad98 3a3d d592 66bb c524 9eba
00000270: 1b6c a9bb 5fec 9abb b11c 853b 52c8 363d
00000280: 4951 fa3b faf6 673d 1f75 cf3c 7e63 60bb
00000290: 9797 7e3d fad0 90b9 852a 473d 8b8a 953d
000002a0: 94f9 af3b 4f62 863c e29a 6d3d 6a81 063d
000002b0: 5fe9 543d 2ada 4f3b 5ea8 2dbc 1349 4dbb
000002c0: b1c3 9d3c 6347 8cba d355 9c3d f3a8 653b
000002d0: 0a1d f3bb 6fb7 363d f90b ef3c 46d7 2a3b
000002e0: 4164 dbbb 6b31 233d 0bb9 af3c 75ef 903c
000002f0: 54fd eb3c 8884 733d f092 593d 89c9 52bb
00000300: be5f c13c 3daf a43c 1baa e83c 19b6 9c3c
00000310: 3f15 b63c 37b9 ba3c 7ed4 943c dc38 653c
00000320: 9f2e 973c 7a3d 293e e8fc c33c 0ebc 623d
00000330: 4449 cd3c 08c1 a03c 4bf4 373d 01be b13c
00000340: 1c2d c33c 1cc2 b03c 1c82 cf3c b108 cc3c
00000350: ac3e aa3c bce3 ff3c e33b 853c 2464 a23c
00000360: 6971 a13c 8b3a b73c fac1 ad3c a8d3 a73c
00000370: 2183 1f3d d0f8 a43c a44f 913c 2871 ba3c
00000380: 79ad 093d 3a03 e53c cd41 df3c 2dc7 3e3c
00000390: 9f57 da3c fe2f a23c c2b4 d33c 8f12 063d
000003a0: 449a a63c 17b0 c7b9 513f db3c 9356 c03c
000003b0: c0b6 d73c 7e9b 9c3c 5d69 893c 1501 e73c
000003c0: 7605 913c f261 983c aebd 103d 97f4 a83c
000003d0: d121 7e3c 937a 9c3c 78ea c03c c3a2 893c
000003e0: 9ca7 843c fe7d d23c ae4a b73c 65fd a53c
000003f0: efd7 5e3c 1789 0a3d adf7 b83c ae05 803c

fc3.bias f4 [4]
0.13841906 0.03193075 -0.056809474 -0.02563809
00000000: babd 0d3e d1c9 023d 0db1 68bd f906 d2bc
