p2-continuous-control/checkpoint/ddpg_critic_checkpoint.pth (torch_old, 52640 bytes, 5 tensors)

fc1.weight f4 [128, 33]
000000 3b e8 a1 af 2e 63 9f af 9c 70 2f ae fe 61 ae 2c
       -2.945074e-10 -2.8992403e-10 -3.989041e-11 4.9562568e-12
000010 d4 74 13 ae 6e 73 09 ac 70 6e b0 2c 0f 51 db 31
       -3.3527695e-11 -1.9532947e-12 5.014482e-12 6.382954e-09
000020 2d b8 05 2e 5a 55 90 31 20 5a 76 b6 58 6c 66 b5
       3.040428e-11 4.200655e-09 -3.6709316e-06 -8.583934e-07
000030 9c 2e c6 b6 5c cd 0e b0 30 9e 09 b0 3d 3c 39 36
       -5.906286e-06 -5.195113e-10 -5.006511e-10 2.7602212e-06
000040 d8 2d 6d 2d 2c f3 c5 31 38 6d 13 2d d3 3a 05 2f
       1.348207e-11 5.7611e-09 8.380234e-12 1.2117178e-10
000050 b6 ef 20 ac 88 85 e2 34 b8 71 0a 34 e0 60 b0 34
       -2.2870434e-12 4.2192937e-07 1.2893622e-07 3.285304e-07
000060 98 9e 83 af 38 66 1c 35 86 e5 c3 b5 59 9f af b0
       -2.394145e-10 5.8263277e-07 -1.4595432e-06 -1.2778215e-09
000070 6a 4b e2 b6 fe 6e 01 00 52 cc 87 b0 69 59 07 00
       -6.744104e-06 1.31652e-40 -9.880614e-10 6.74923e-40
000080 18 ca 32 ad 82 c0 35 2d f6 43 67 b0 04 d0 cb 32
       -1.0163002e-11 1.0331404e-11 -8.413389e-10 2.3726905e-08
000090 b1 f0 b8 b4 8a 64 b7 ab 20 8b 75 b1 d6 6f 7d ad
       -3.4447797e-07 -1.3030837e-12 -3.5731276e-09 -1.44062175e-11
0000a0 7c 8e bc af 60 cd a1 b3 9d 56 1b 32 3c d1 28 b5
       -3.4298242e-10 -7.534504e-08 9.041881e-09 -6.2889353e-07
0000b0 3d 21 9e b2 70 9e 84 32 78 11 a2 2c 79 38 af 35
       -1.8408736e-08 1.5438872e-08 4.6062563e-12 1.3054952e-06
0000c0 62 08 43 2d c6 d4 aa ad 4c c5 d6 2e 30 4e 02 b5
       1.1086328e-11 -1.9421253e-11 9.76664e-11 -4.854255e-07
0000d0 e5 65 ac 35 28 bd fb b2 5e 06 9e 2c 8a 9f 8c 35
       1.2844654e-06 -2.9306264e-08 4.491337e-12 1.0477245e-06
0000e0 10 29 a6 b2 86 43 05 30 f7 1b 18 b3 58 1a 09 b4
       -1.9343616e-08 4.8481075e-10 -3.541569e-08 -1.2768703e-07
0000f0 32 18 43 ac e0 6d 18 32 ba 02 00 80 9b 53 a6 b3
       -2.7724598e-12 8.872547e-09 -9.78e-43 -7.745185e-08
000100 28 44 00 00 40 d1 fe 2a bc b1 26 34 3c de eb b1
       2.445e-41 4.526466e-13 1.5524614e-07 -6.8646653e-09
000110 3a f5 c1 af 71 1f 3f ad f0 41 f3 33 ee 65 87 b3
       -3.528074e-10 -1.0864074e-11 1.1327563e-07 -6.304968e-08
000120 48 dd 4f ad b0 b4 15 b5 fd a3 71 ad 9e 64 cd b3
       -1.1815722e-11 -5.576976e-07 -1.3735677e-11 -9.5643585e-08
000130 fa 10 8c 31 60 0f 87 34 b0 76 d2 34 21 ae 4d 32
       4.0764663e-09 2.5156896e-07 3.9201905e-07 1.1972163e-08
000140 e2 45 38 35 08 d1 ec b5 05 cb 6f b2 12 99 02 2c
       6.8647034e-07 -1.7644206e-06 -1.3957792e-08 1.8559082e-12
000150 c2 6b f5 ac 08 5f 39 2c 14 3f 1c b2 a0 af c5 b5
       -6.9752823e-12 2.6342834e-12 -9.094737e-09 -1.4728757e-06
000160 92 e3 32 b3 8a bf 3e b2 10 de 68 33 b1 bf 24 35
       -4.165083e-08 -1.11030065e-08 5.4218674e-08 6.137371e-07
000170 2e 7a b6 ae 04 d7 e4 30 c4 4b 8a af 05 68 01 80
       -8.298105e-11 1.6650294e-09 -2.5155888e-10 -1.2915e-40
000180 8c 6f fb 2e 11 39 06 80 25 e0 b9 32 2a c1 42 35
       1.1433973e-10 -5.71485e-40 2.1638764e-08 7.255172e-07
000190 ac 03 dc b5 9e 8a b2 ae b6 c8 84 ad fe 89 0b b7
       -1.6392346e-06 -8.119126e-11 -1.5095796e-11 -8.317174e-06
0001a0 cc 61 81 aa 00 d8 a0 ab f2 c7 e9 2f 06 98 db b1
       -2.2982863e-13 -1.1428636e-12 4.2524523e-10 -6.391022e-09
0001b0 2a 8f 8c 2f 9b b9 1d b4 c9 0c d7 2f 92 10 90 b5
       2.5567576e-10 -1.4689287e-07 3.9117357e-10 -1.0733659e-06
0001c0 1c 3f 2a ae 8a a6 82 32 80 ac 09 37 30 fd aa 2c
       -3.8709577e-11 1.5209725e-08 8.206e-06 4.8598e-12
0001d0 8a 06 93 36 90 75 d5 2f 88 4a 65 b1 3a d4 ae b4
       4.3817026e-06 3.8828007e-10 -3.3366252e-09 -3.256444e-07
0001e0 0f 8f 68 2f cf 3e 52 31 7c f1 1b b4 e0 04 eb 30
       2.1151102e-10 3.0594725e-09 -1.4523351e-07 1.7099886e-09
0001f0 67 52 61 b0 ec 54 8b ac 90 34 55 af 5b d2 a1 b0
       -8.1971624e-10 -3.960046e-12 -1.9390911e-10 -1.1774078e-09
000200 02 99 04 80 87 da 0f 30 02 cd 01 00 20 9f 52 32
       -4.22231e-40 5.2333643e-10 1.65378e-40 1.225979e-08
000210 3c 39 d4 2f 41 5c 5a b1 ed 2f 34 30 de 81 fc ac
       3.8603243e-10 -3.1775615e-09 6.5551725e-10 -7.176689e-12
000220 72 24 0b ae d2 e8 54 2d b8 94 f5 ae 94 29 5d b2
       -3.163731e-11 1.2102501e-11 -1.1167728e-10 -1.2873347e-08
000230 30 3b 08 2f fa 2a fe ae 5c cc 0f b6 f2 97 d9 b1
       1.2390156e-10 -1.1558217e-10 -2.1427613e-06 -6.3328054e-09
000240 1a f2 17 b6 02 c8 7a ae 25 ed 25 b2 6e 6a b5 32
       -2.2641675e-06 -5.702106e-11 -9.6581845e-09 2.1119572e-08
000250 33 14 86 2f 1e 4d 69 af d8 d5 5c 35 20 89 eb 2f
       2.438881e-10 -2.1218624e-10 8.226757e-07 4.2843684e-10
000260 27 86 aa b5 44 df a7 2e 42 46 2d 33 30 ab 1e b6
       -1.270503e-06 7.633941e-11 4.03436e-08 -2.364348e-06
000270 86 e7 54 b0 e9 fe 06 b3 ee 1c 9e b3 8c 54 b4 ae
       -7.7454165e-10 -3.1431146e-08 -7.3627106e-08 -8.200471e-11
000280 90 59 50 31 43 81 00 80 aa da 23 2f 38 63 01 00
       3.0318894e-09 -4.637e-41 1.4902449e-10 1.27428e-40
000290 c4 02 07 2e 9c bd 05 b0 41 83 ba af a2 a4 9d ae
       3.0697903e-11 -4.865457e-10 -3.3926464e-10 -7.168778e-11
0002a0 2a 1e 0d ae 0c eb 73 b5 c0 d3 39 31 18 db df ae
       -3.208648e-11 -9.086659e-07 2.704141e-09 -1.0179785e-10
0002b0 1c b2 74 b3 76 34 f9 2f 44 5b da 2c 9b 24 55 b0
       -5.6972667e-08 4.5330112e-10 6.206065e-12 -7.754097e-10
0002c0 ec 6a 2e 35 d5 bc 3a 37 ac 19 19 b6 2e 96 19 b2
       6.4975643e-07 1.113043e-05 -2.281372e-06 -8.939919e-09
0002d0 c6 3c a6 30 03 9c 54 36 ca 07 84 b4 7a 5d 30 30
       1.2095362e-09 3.1681273e-06 -2.4592583e-07 6.4161265e-10
0002e0 c8 3f 52 34 c0 f8 00 b3 20 37 8b 2e cf 3a 97 2e
       1.9580978e-07 -3.002856e-08 6.33078e-11 6.8771315e-11
0002f0 7c 10 41 36 16 f5 28 b3 8e 0c 43 b0 a8 ca 35 b0
       2.8768836e-06 -3.9338452e-08 -7.095843e-10 -6.613541e-10
000300 11 6e 0b 34 e1 3d 71 33 20 86 03 00 99 00 4c 2d
       1.2985426e-07 5.6168464e-08 3.23621e-40 1.159619e-11
000310 40 79 02 00 3c 82 86 b3 78 37 89 ae 03 4c 09 b3
       2.27167e-40 -6.263551e-08 -6.239892e-11 -3.196693e-08
000320 34 49 87 b2 bf ef 15 2d 60 24 70 aa 85 5e 24 30
       -1.5749357e-08 8.522904e-12 -2.1328902e-13 5.979717e-10
000330 91 67 23 ac 7b a4 e2 2f a0 e9 c8 35 c4 6a f3 ad
       -2.3221184e-12 4.122603e-10 1.4969155e-06 -2.7673315e-11
000340 88 59 c7 b5 0c 32 84 32 73 ee aa b6 6b 2c 04 2f
       -1.4852712e-06 1.5389581e-08 -5.094154e-06 1.202111e-10
000350 87 ee 4a 33 de 94 8c b0 f8 1b d7 2d e8 8b 02 b5
       4.724873e-08 -1.0228651e-09 2.445509e-11 -4.8632364e-07
000360 4d 36 85 b3 c8 e1 69 ac 1a 68 9d 2c 22 d8 9e b3
       -6.2031724e-08 -3.3236625e-12 4.473766e-12 -7.396763e-08
000370 9a 7b 4b 2f 44 95 28 36 8a f4 04 37 60 cd da b4
       1.8506655e-10 2.5120835e-06 7.924749e-06 -4.0755094e-07
000380 99 48 bc 2d ae 2f 10 2e 98 59 15 b6 18 3a 07 80
       2.1405365e-11 3.2784157e-11 -2.225488e-06 -6.63689e-40
000390 65 f1 27 2f 72 36 02 80 26 36 37 ae a2 27 34 b2
       1.5274322e-10 -2.03202e-40 -4.1657476e-11 -1.048639e-08
0003a0 b8 04 98 35 36 c8 22 b3 ff b6 f8 2c d0 77 20 b4
       1.1326256e-06 -3.7900655e-08 7.0689006e-12 -1.4944749e-07
0003b0 ff 38 0b b3 15 a9 0d 30 3e 37 bf b5 35 c2 1c 2a
       -3.2415297e-08 5.153578e-10 -1.4246687e-06 1.3922962e-13
0003c0 08 3f 09 ae e0 bf cd 35 d0 76 5e 31 86 c4 ad 33
       -3.1206177e-11 1.5329533e-06 3.237279e-09 8.091688e-08
0003d0 22 3c d4 35 94 73 3f 35 02 e5 99 b0 c2 3b e5 ad
       1.5812732e-06 7.1321233e-07 -1.1197303e-09 -2.6060824e-11
0003e0 2e 7a 55 b1 8d 77 54 2c 40 df 72 33 0c 69 b0 b2
       -3.106503e-09 3.0193376e-12 5.654806e-08 -2.0536866e-08
0003f0 6c dd 66 32 92 5e cf b5 b8 c2 8c ae 2a a8 b4 af
       1.34381075e-08 -1.5450225e-06 -6.401052e-11 -3.2861297e-10

fc1.bias f4 [128]
000000 7e 03 b9 ad 80 75 b0 ad ef af 47 30 1a f8 30 2e
       -2.1033616e-11 -2.0061064e-11 7.2645795e-10 4.0238125e-11
000010 48 1a 04 2d ee 58 35 37 ea 77 a2 ae de e7 01 b2
       7.509167e-12 1.0809146e-05 -7.388208e-11 -7.561509e-09
000020 82 2f 0c ae 58 c1 30 af 46 7c 41 ac 62 04 cf 2f
       -3.187451e-11 -1.6075796e-10 -2.7495935e-12 3.7656195e-10
000030 d7 b3 03 00 88 c9 13 b2 d8 d4 1e 2d c0 06 2f b6
       3.40021e-40 -8.602349e-09 9.028521e-12 -2.608096e-06
000040 18 17 98 33 18 9f 2e b4 c2 bb 9a 2e 55 67 3a ad
       7.082252e-08 -1.6262891e-07 7.036462e-11 -1.059582e-11
000050 ae 37 84 2d 03 11 32 35 8c 72 a9 ae 16 70 c7 34
       1.503139e-11 6.633492e-07 -7.705578e-11 3.7148192e-07
000060 70 8c c5 b0 e0 ae 88 2e 45 80 b2 af 4c 3f d1 2d
       -1.4373551e-09 6.215628e-11 -3.2469152e-10 2.3788659e-11
000070 0f 6c 57 30 56 d2 80 ae 84 df ea ad f4 49 19 30
       7.8370105e-10 -5.858129e-11 -2.6701981e-11 5.576617e-10
000080 10 e1 46 2f 02 b1 08 31 bc 22 d6 ad 04 37 9f 2d
       1.8087953e-10 1.9891222e-09 -2.4344408e-11 1.8100639e-11
000090 b2 88 f9 34 2a 7e 05 36 c0 5f 9a b5 f1 02 00 80
       4.6479323e-07 1.9891982e-06 -1.1501761e-06 -1.055e-42
0000a0 7a 0a 9a ad 4b de 5b 2f 7d 77 96 b4 1e f1 bc af
       -1.7512426e-11 1.9996908e-10 -2.8026616e-07 -3.4368325e-10
0000b0 32 bd d9 ae 4b 8d 82 2f d5 4f 06 00 4d cd ae ae
       -9.9016254e-11 2.3747257e-10 5.79651e-40 -7.9490727e-11
0000c0 f3 c9 75 af 74 71 08 af e4 fd 06 b5 b4 7b 68 34
       -2.2354367e-10 -1.2409435e-10 -5.028835e-07 2.1651687e-07
0000d0 50 66 38 2f 88 ff 20 2e 89 f8 80 b0 1a f3 17 34
       1.6771051e-10 3.6606745e-11 -9.383864e-10 1.415141e-07
0000e0 ee 55 0d 2f 75 12 cb 2f ed db 53 af 65 4d 4b b4
       1.2854404e-10 3.69386e-10 -1.9268472e-10 -1.8934004e-07
0000f0 4d e1 ce 32 35 86 cc 2c 9c 2e 33 ae eb 18 2b 31
       2.4084011e-08 5.8129287e-12 -4.0741285e-11 2.489794e-09
000100 c6 a0 3c af 90 16 80 2a 14 14 b0 2e 38 8a 2d ae
       -1.7155619e-10 2.2753023e-13 8.00712e-11 -3.945841e-11
000110 88 88 10 32 7a 8a 4b 30 e8 fd ef ae b0 5a d9 ae
       8.412947e-09 7.4047757e-10 -1.09135645e-10 -9.884127e-11
000120 71 20 f5 af be 56 87 ad ff a4 e0 ae 40 64 14 35
       -4.4588291e-10 -1.5386244e-11 -1.021565e-10 5.528018e-07
000130 60 27 ef 36 b5 0e c7 2d 02 84 b5 36 45 16 2a ad
       7.127339e-06 2.2630212e-11 5.409588e-06 -9.668326e-12
000140 5c 73 8e 33 06 f9 bb 2d 27 b1 02 00 9a 85 47 b0
       6.633374e-08 2.1370027e-11 2.47221e-40 -7.258564e-10
000150 52 35 82 b0 e4 e9 3b 2d 96 59 9e b0 83 68 ee ad
       -9.473899e-10 1.06816535e-11 -1.1521475e-09 -2.710388e-11
000160 3c cd 2d b4 c6 a2 b1 b4 14 0f 69 ad c4 df b3 2d
       -1.6186544e-07 -3.3087252e-07 -1.3247865e-11 2.0449316e-11
000170 22 f4 00 35 c6 8c 98 ad 00 a9 fc b3 99 58 62 b6
       4.8038976e-07 -1.7342915e-11 -1.17654054e-07 -3.3728195e-06
000180 9c 8b 56 35 3e 47 16 b7 c3 a5 84 2e f1 62 28 ad
       7.992437e-07 -8.957284e-06 6.03211e-11 -9.571664e-12
000190 da 66 93 2d 70 64 c7 32 4b 16 2a b4 83 16 07 b4
       1.675764e-11 2.3212323e-08 -1.5840594e-07 -1.2581044e-07
0001a0 55 c2 8f b2 6c d8 31 af d2 3d c0 b0 94 75 f6 2f
       -1.6735763e-08 -1.6174945e-10 -1.3987409e-09 4.4830684e-10
0001b0 f2 3b 45 2d 01 c6 f2 32 00 48 75 2c 96 ff 26 33
       1.1211464e-11 2.826255e-08 3.4856562e-12 3.888234e-08
0001c0 70 3f d5 ac 04 90 b4 b6 5a a0 d9 2d 4c 26 96 b3
       -6.060867e-12 -5.3811837e-06 2.4741254e-11 -6.9918855e-08
0001d0 81 1b a7 ad 22 3a 2c 2c a8 25 5d b0 0e 04 97 2e
       -1.8997916e-11 2.447494e-12 -8.0452844e-10 6.867405e-11
0001e0 7f b8 46 2f 40 b8 f9 ae 4c c4 b2 2f 04 04 94 b0
       1.8073541e-10 -1.13559384e-10 3.251749e-10 -1.0769559e-09
0001f0 e4 a4 06 2f c2 b6 75 ad 0b b3 d1 31 10 3e be 31
       1.224581e-10 -1.3967218e-11 6.1030554e-09 5.5367835e-09

fc2.weight f4 [64, 132]
000000 e8 72 6f 36 fe cc 9d 32 a0 64 a5 b6 50 4d 85 35
       3.568066e-06 1.8370425e-08 -4.9290975e-06 9.931773e-07
000010 6f ec 06 b7 95 aa 5b 2f 90 20 b5 b5 30 c6 69 33
       -8.042071e-06 1.9978537e-10 -1.3495028e-06 5.442979e-08
000020 c2 4c 56 31 66 5b 80 b0 f4 a3 82 36 80 3d 7e b0
       3.118473e-09 -9.339203e-10 3.8933886e-06 -9.249206e-10
000030 f5 9d 02 80 46 6e 7c ae 60 d9 da b5 08 70 4b 34
       -2.40335e-40 -5.739611e-11 -1.630553e-06 1.8946605e-07
000040 f0 e9 c1 b3 cc 27 30 ae f6 eb 94 31 59 25 96 2e
       -9.029816e-08 -4.0053114e-11 4.3341926e-09 6.8278445e-11
000050 4f eb 32 30 5e d4 f7 30 2c 19 cc 34 f2 1b aa 30
       6.5090416e-10 1.8031974e-09 3.8016276e-07 1.237707e-09
000060 f8 76 d2 31 04 6b 06 ae a5 a6 dd 31 f8 8f 84 b5
       6.1253296e-09 -3.056312e-11 6.450892e-09 -9.876667e-07
000070 31 8f 11 32 80 90 8b 35 2c b4 92 30 58 04 91 b4
       8.472669e-09 1.0398362e-06 1.0674106e-09 -2.7011515e-07
000080 60 11 e0 33 90 5f 79 36 48 20 98 ae 22 cd bb b1
       1.0433973e-07 3.7159516e-06 -6.917894e-11 -5.465737e-09
000090 3d a1 4f b7 72 a2 12 34 0c 9e 72 b0 8f be 01 00
       -1.2375703e-05 1.3656407e-07 -8.8263685e-10 1.60195e-40
0000a0 b4 44 13 b2 54 7e 29 af e2 4d 60 33 c0 53 71 b5
       -8.572147e-09 -1.5415341e-10 5.2224898e-08 -8.990137e-07
0000b0 c5 7c 94 2f cc 8a e4 34 42 88 07 80 4c ca 4b ad
       2.7009697e-10 4.2569297e-07 -6.91729e-40 -1.1584133e-11
0000c0 c7 f4 94 ae 34 10 99 2f cd 22 1d 34 8d 0c b8 ac
       -6.773742e-11 2.784205e-10 1.4634425e-07 -5.230988e-12
0000d0 20 0a 23 2e bf 12 f9 b3 66 75 5f b5 96 3a 44 36
       3.7070902e-11 -1.1598376e-07 -8.324481e-07 2.9240377e-06
0000e0 50 70 91 2a bc 3d a1 ae 5c e8 d0 ad d4 fe fa 35
       2.5835107e-13 -7.3323986e-11 -2.375005e-11 1.8700616e-06
0000f0 96 d1 2f b7 0f 79 c0 b5 99 54 98 b4 02 69 2d 31
       -1.0479611e-05 -1.4340347e-06 -2.837376e-07 2.5234503e-09
000100 dc 76 8c b1 d0 14 75 ae ce be 3b b3 1a d3 3a 35
       -4.088049e-09 -5.5725036e-11 -4.3712866e-08 6.959759e-07
000110 ee 53 b9 b6 6f ea 09 2f 5b f2 ae b6 10 b4 15 2f
       -5.5232003e-06 1.2543365e-10 -5.213818e-06 1.3615442e-10
000120 b4 90 50 36 c1 ea 59 36 f8 67 03 ae 59 8f 0a 36
       3.1078644e-06 3.2472165e-06 -2.9878294e-11 2.0647042e-06
000130 02 90 3d 2f f8 85 37 33 28 88 0f ae 93 bc ee b6
       1.7240612e-10 4.272985e-08 -3.2635367e-11 -7.1149057e-06
000140 24 91 ae 32 e0 93 84 30 6c d3 03 80 14 be 99 2f
       2.0322268e-08 9.646293e-10 -3.5135e-40 2.7965597e-10
000150 49 2c 03 b6 18 ff 08 36 79 c8 39 37 91 98 7a b5
       -1.9546299e-06 2.0414063e-06 1.10735355e-05 -9.335427e-07
000160 58 37 12 af b4 6b 84 36 86 43 b3 b2 20 c3 1d 34
       -1.3298285e-10 3.946445e-06 -2.0869049e-08 1.469275e-07
000170 e0 b4 f7 34 70 79 bc 2b 61 b4 87 ae 5a fb 4f 31
       4.613894e-07 1.3391909e-12 -6.171131e-11 3.0265341e-09
000180 de eb 82 b4 c6 5d b6 2f ce e7 93 30 21 cc 26 33
       -2.4386003e-07 3.3172237e-10 1.076154e-09 3.883554e-08
000190 6f 33 c3 b1 dc 06 78 af 7e 7e 3e b7 3e 8b 1d b6
       -5.6810943e-09 -2.2557906e-10 -1.1354334e-05 -2.3475873e-06
0001a0 68 ab 5a b5 38 94 97 b5 5b d6 f3 ad 6a 4f 49 34
       -8.146076e-07 -1.1293514e-06 -2.7721095e-11 1.8748474e-07
0001b0 70 ed 7c 32 02 6d 44 36 8e 68 21 32 d9 c9 bd 33
       1.4722318e-08 2.9269727e-06 9.395206e-09 8.837714e-08
0001c0 9a 85 5c 36 b8 be e7 b1 2e 2c 02 37 ca 6c 08 36
       3.286032e-06 -6.744667e-09 7.75889e-06 2.0328903e-06
0001d0 fc d4 46 2c 9e f9 22 b6 48 c5 99 b6 27 98 4f b6
       2.8255722e-12 -2.4285177e-06 -4.582722e-06 -3.0933968e-06
0001e0 f2 79 24 ad 18 08 e0 b0 0a f0 7c ad ef 81 08 b5
       -9.349398e-12 -1.6300445e-09 -1.4377841e-11 -5.0853026e-07
0001f0 04 82 f8 31 54 3c b0 b6 d8 8d d8 af b8 58 46 b1
       7.232531e-09 -5.252232e-06 -3.9390957e-10 -2.8863223e-09
000200 d6 10 16 b6 b1 8d 9d 35 d6 10 16 b6 d6 10 16 b6
       -2.2361542e-06 1.1738649e-06 -2.2361542e-06 -2.2361542e-06
000210 b0 b8 71 b3 8e 79 a4 36 42 e5 ab 2e 4c a8 50 b0
       -5.6280157e-08 4.9017317e-06 7.816904e-11 -7.5909123e-10
000220 cc 9b 39 b2 1c b2 1b af ca 76 d4 b4 4c a2 90 b1
       -1.0803841e-08 -1.4160445e-10 -3.9574508e-07 -4.2094026e-09
000230 60 e8 ac b1 e5 55 12 b5 fe a1 a9 ad 9c 17 0c b2
       -5.032277e-09 -5.451423e-07 -1.9285015e-11 -8.154441e-09
000240 df ab 01 80 32 20 38 b1 b3 78 d4 b5 18 b7 6c ae
       -1.53491e-40 -2.6793825e-09 -1.5830359e-06 -5.3822807e-11
000250 c0 7b 18 b1 b0 d8 c6 2d b2 37 d2 ae 2e a6 52 b1
       -2.2189255e-09 2.2606222e-11 -9.559588e-11 -3.0653484e-09
000260 6a 0c ae 30 84 6b 3b b1 d5 05 22 33 26 8a 6f b4
       1.2663695e-09 -2.7273197e-09 3.772387e-08 -2.2308868e-07
000270 50 e5 51 af 86 73 6c b1 40 e2 41 34 e0 0f 3e 2f
       -1.9089907e-10 -3.4408187e-09 1.8056835e-07 1.7286039e-10
000280 a1 03 19 37 2a 17 ea 30 16 c2 32 2e ca 46 55 b2
       9.120356e-06 1.7032324e-09 4.0644897e-11 -1.2414327e-08
000290 d0 34 a2 b6 14 92 1e b2 28 6b a5 2e 19 29 0c 36
       -4.8341244e-06 -9.230025e-09 7.522366e-11 2.0885548e-06
0002a0 b4 9c cd b6 18 84 87 b1 a0 69 d9 b1 a7 5c 00 00
       -6.1277187e-06 -3.9440344e-09 -6.3275394e-09 3.3237e-41
0002b0 03 08 2a 2f e8 68 17 b3 75 0d b5 30 58 f8 cc b3
       1.5464256e-10 -3.525284e-08 1.3173308e-09 -9.544664e-08
0002c0 dc ce 0e b4 2c bc 74 b5 5f ab 01 80 8c b9 f5 2e
       -1.3300036e-07 -9.117091e-07 -1.53312e-40 1.117427e-10
0002d0 4a d9 f4 36 15 ca e8 b2 1e fc 30 b1 20 9e 95 b0
       7.2970624e-06 -2.7100251e-08 -2.5754683e-09 -1.0886119e-09
0002e0 47 bb 51 33 d8 88 95 b1 ed 01 8c b5 22 67 b3 b4
       4.8831932e-08 -4.352028e-09 -1.0431373e-06 -3.3416387e-07
0002f0 80 96 84 b3 f3 14 29 b7 a0 1a e3 34 ce 8b 33 30
       -6.174105e-08 -1.0078063e-05 4.2301417e-07 6.5318495e-10
000300 95 71 99 b6 8f 6b 34 b4 36 f1 20 ae 10 41 89 2d
       -4.572978e-06 -1.6802936e-07 -3.6594026e-11 1.560399e-11
000310 bc e7 81 31 f0 d9 68 2f 54 4a 5d b3 d2 40 b1 2e
       3.7807393e-09 2.1177704e-10 -5.1523173e-08 8.0605425e-11
000320 58 ea 3f b5 3e d9 87 b4 d8 4b d0 34 7d 10 56 33
       -7.149406e-07 -2.5303774e-07 3.8798203e-07 4.9840754e-08
000330 04 a7 f6 ad a8 c5 0a b0 e8 b9 42 34 a2 2e d9 31
       -2.8041132e-11 -5.0484994e-10 1.813529e-07 6.3208327e-09
000340 08 7a 26 31 61 24 0f 34 68 f9 b7 b1 f4 13 4a 2f
       2.4225546e-09 1.3331147e-07 -5.354355e-09 1.8378882e-10
000350 ad 84 25 b5 dc e4 d5 30 63 b2 03 00 d4 1a 70 2e
       -6.166036e-07 1.5562835e-09 3.395e-40 5.459351e-11
000360 08 c0 d6 30 1e d2 9d 34 67 9a 83 33 d7 06 79 2f
       1.5625128e-09 2.939641e-07 6.1282485e-08 2.2648848e-10
000370 e4 2c 6f ae d5 b1 e8 2f f9 56 c7 30 be a3 59 2e
       -5.438218e-11 4.2326911e-10 1.4503875e-09 4.948552e-11
000380 d2 ff bb 31 c7 98 36 2f 0f ec c9 34 26 39 89 b3
       5.4714997e-09 1.6607081e-10 3.7610923e-07 -6.389955e-08
000390 ba 35 bd 34 90 ec 5e 31 99 c6 0b 34 05 b7 15 b1
       3.5243085e-07 3.2439722e-09 1.3017633e-07 -2.1786388e-09
0003a0 c8 ee 8d b6 79 8f 87 2f 0a b6 77 34 d8 ba 97 33
       -4.2299253e-06 2.46583e-10 2.3069893e-07 7.065472e-08
0003b0 e4 a8 5a b2 2a 64 44 35 f4 1f a6 2e 0e cb ae 33
       -1.2727671e-08 7.316145e-07 7.554482e-11 8.139442e-08
0003c0 18 07 c7 b6 03 46 94 b3 1a 6d 46 2e 1d 2b 53 31
       -5.931488e-06 -6.904522e-08 4.511689e-11 3.0729048e-09
0003d0 4b e4 d1 30 1a f2 dd 2e 7a b1 5e ae b0 81 d6 32
       1.5271636e-09 1.0092922e-10 -5.0634587e-11 2.4971854e-08
0003e0 38 ff ea ae f9 47 8a 2f 9b d2 8e 30 4b 1d 22 2e
       -1.0686424e-10 2.5153193e-10 1.0391717e-09 3.6860553e-11
0003f0 68 b2 18 b3 d1 49 e3 2f 7c 86 5a 2e ad 8d 86 31
       -3.5552517e-08 4.134351e-10 4.9686907e-11 3.91602e-09

fc2.bias f4 [64]
000000 56 94 85 b5 44 57 fa 35 f0 45 12 b5 80 8a a4 35
       -9.952444e-07 1.8651849e-06 -5.449101e-07 1.2259261e-06
000010 6f ca a8 b4 c8 ab 15 b6 82 d4 8f b3 a6 f1 e7 b6
       -3.1439728e-07 -2.230272e-06 -6.697611e-08 -6.912468e-06
000020 46 15 54 b4 34 5b 0c b7 39 95 19 34 cc 1a 02 00
       -1.9751778e-07 -8.365885e-06 1.4303522e-07 1.93284e-40
000030 40 68 56 b5 74 ad a9 35 d4 ab b9 34 80 55 2f 34
       -7.9872916e-07 1.2641963e-06 3.4583957e-07 1.632925e-07
000040 d0 7d aa 35 b5 87 95 b6 fc 31 32 33 11 d1 b3 34
       1.2702603e-06 -4.4563444e-06 4.1489315e-08 3.3493464e-07
000050 fc 20 01 b4 cf 3e 15 b6 16 12 8a 35 94 37 91 36
       -1.2026061e-07 -2.223929e-06 1.0287065e-06 4.327807e-06
000060 08 34 f8 b3 70 80 99 31 d8 bf ee 34 c4 14 cf b4
       -1.1557864e-07 4.4674877e-09 4.447054e-07 -3.8571864e-07
000070 80 65 d9 b5 15 23 c5 35 e3 c8 26 33 ec f0 30 b5
       -1.61973e-06 1.4687854e-06 3.8832592e-08 -6.5915697e-07
000080 fa e2 ac 32 51 82 c4 36 22 22 45 b6 64 9d 0c 33
       2.0126652e-08 5.856426e-06 -2.9375155e-06 3.2739436e-08
000090 72 68 b0 33 70 58 96 35 30 4f 7e b6 ae d3 75 b6
       8.214637e-08 1.120161e-06 -3.7895043e-06 -3.6631059e-06
0000a0 bd e8 08 36 14 b0 84 b5 0c 04 48 b5 3a d9 e0 35
       2.040105e-06 -9.886012e-07 -7.4511695e-07 1.6752522e-06
0000b0 54 61 13 35 95 0c bb 36 d6 c9 26 34 68 d9 25 36
       5.49034e-07 5.574499e-06 1.5533382e-07 2.4713463e-06
0000c0 7d 8b 81 35 3e fe 15 36 98 0f a9 b6 ec d4 ea 35
       9.651845e-07 2.2350719e-06 -5.038408e-06 1.7496327e-06
0000d0 7c 2c 5b 33 20 3b 3b 34 50 dc b4 b2 ee a8 6b 35
       5.103037e-08 1.7437242e-07 -2.1054944e-08 8.7790147e-07
0000e0 d6 68 0f b1 3e 26 2c b5 20 2f 24 b6 ee 2f 39 b5
       -2.086883e-09 -6.413064e-07 -2.4465335e-06 -6.898762e-07
0000f0 34 9c b7 b6 80 e1 88 34 9e 18 8c b5 04 05 86 32
       -5.4720094e-06 2.5496047e-07 -1.0437977e-06 1.5601934e-08

fc3.weight f4 [1, 64]
000000 29 60 a1 b5 b8 f8 14 36 06 a2 cb 36 68 e0 89 35
       -1.2023421e-06 2.2198492e-06 6.0687335e-06 1.0272606e-06
000010 14 d0 2b 34 b0 52 aa 36 14 2b 22 b4 42 5c a6 35
       1.6001314e-07 5.076021e-06 -1.5103097e-07 1.2394814e-06
000020 61 b6 e8 b4 c2 74 6e b6 0b 54 c5 34 01 cf 02 00
       -4.3346066e-07 -3.5532726e-06 3.675526e-07 2.5793e-40
000030 1e 59 51 b5 a6 f4 d4 b5 b9 25 3b 36 f4 91 8a 34
       -7.798825e-07 -1.5866433e-06 2.788713e-06 2.5810698e-07
000040 b6 b6 1f b6 48 a9 74 b5 d6 85 b2 33 ce fb c5 33
       -2.3799198e-06 -9.114342e-07 8.3131155e-08 9.2193304e-08
000050 db 36 25 b4 e6 7c d1 36 41 4d 07 b7 38 bc d5 34
       -1.5386779e-07 6.2432255e-06 -8.064614e-06 3.981129e-07
000060 85 5c a8 35 36 12 19 31 16 af bb b5 c2 7f d4 b5
       1.2543902e-06 2.2274782e-09 -1.3983542e-06 -1.5832413e-06
000070 0c ef af 35 06 52 0b b7 19 f6 df b3 66 45 57 35
       1.3108088e-06 -8.304143e-06 -1.04290116e-07 8.019473e-07
000080 90 07 d9 30 fc b2 5b 35 d9 dc 34 b6 88 70 85 32
       1.5790977e-09 8.1844314e-07 -2.695064e-06 1.5534411e-08
000090 83 ed ea b3 e8 04 04 b4 20 23 0d b5 4e 35 0d 37
       -1.0939677e-07 -1.2295243e-07 -5.2577707e-07 8.416666e-06
0000a0 08 14 d7 b6 4d 5a 6a b6 88 81 cd b5 70 0d 72 b6
       -6.4098313e-06 -3.492128e-06 -1.5311389e-06 -3.6068632e-06
0000b0 e0 eb 50 b2 eb 52 3e b6 41 0c 5e 35 7f 6f 4d b6
       -1.2160825e-08 -2.836047e-06 8.2719276e-07 -3.061228e-06
0000c0 b4 5c 0b 35 f8 47 1f 34 8e 38 dc b6 35 d4 b2 35
       5.1916436e-07 1.4834211e-07 -6.5630948e-06 1.3323794e-06
0000d0 d9 29 6d b3 c4 9c 1f b6 f9 18 ac b4 62 00 da 33
       -5.5218923e-08 -2.3784096e-06 -3.2055667e-07 1.0151486e-07
0000e0 40 6e 79 32 8c 2c 02 b7 26 86 97 b6 aa 09 8a b5
       1.45187755e-08 -7.758976e-06 -4.5157676e-06 -1.0284614e-06
0000f0 7c 06 d9 b5 e6 01 fc 33 0c a9 ba b4 9a 68 a1 34
       -1.6169647e-06 1.173501e-07 -3.4768198e-07 3.0064695e-07
